3_PatchTST/Best_PatchTST.pth (torch, 320639 bytes, 140 tensors)

affine_weight f4 [3]
00000000: bb07 873f 2dbe a13f ea02 923f
1.0549234 1.2636162 1.1407139

affine_bias f4 [3]
00000000: f57c 07be 6b7f 78bb fe73 3a3d
-0.13231261 -0.0037917744 0.045520775

mean f4 [206, 1, 3]
00000000: 9926 293d 0000 0000 9f8e 0b3f fda7 273d
00000010: 0000 0000 9f8e 0b3f d6d4 263d 0000 0000
00000020: 9f8e 0b3f f31a 263d 0000 0000 9f8e 0b3f
00000030: 8278 253d 0000 0000 9f8e 0b3f e0be 253d
00000040: 0000 0000 9f8e 0b3f dc9c 263d 0000 0000
00000050: 9f8e 0b3f 3cff 263d 0000 0000 9f8e 0b3f
00000060: 7044 263d 0000 0000 9f8e 0b3f bbc9 253d
00000070: 0000 0000 9f8e 0b3f a7a8 253d 0000 0000
00000080: 9f8e 0b3f 8f81 253d 0000 0000 9f8e 0b3f
00000090: a552 253d 0000 0000 9f8e 0b3f ada8 253d
000000a0: 0000 0000 9f8e 0b3f aa86 263d 0000 0000
000000b0: 9f8e 0b3f 4d49 263d 0000 0000 9f8e 0b3f
000000c0: f7ca 253d 0000 0000 9f8e 0b3f b367 253d
000000d0: 0000 0000 9f8e 0b3f 6e54 253d 0000 0000
000000e0: 9f8e 0b3f 04ec 253d 0000 0000 9f8e 0b3f
000000f0: 0789 263d 0000 0000 9f8e 0b3f 5b9b 273d
00000100: 0000 0000 9f8e 0b3f 8424 283d 0000 0000
00000110: 9f8e 0b3f e1b1 283d 0000 0000 9f8e 0b3f
00000120: 099e 283d 0000 0000 9f8e 0b3f bd72 283d
00000130: 0000 0000 9f8e 0b3f 00d3 283d 0000 0000
00000140: 9f8e 0b3f d830 293d 0000 0000 9f8e 0b3f
00000150: 4689 293d 0000 0000 9f8e 0b3f 7cda 293d
00000160: 0000 0000 9f8e 0b3f 6b59 2a3d 0000 0000
00000170: 9f8e 0b3f 59d5 2a3d 0000 0000 9f8e 0b3f
00000180: 0aaa 2a3d 0000 0000 9f8e 0b3f 6e62 2a3d
00000190: 0000 0000 9f8e 0b3f d46a 2a3d 0000 0000
000001a0: 9f8e 0b3f fbf3 2a3d 0000 0000 9f8e 0b3f
000001b0: 20c7 2b3d 0000 0000 9f8e 0b3f 308f 2b3d
000001c0: 0000 0000 9f8e 0b3f 9cad 2a3d 0000 0000
000001d0: 9f8e 0b3f ed3b 2a3d 0000 0000 9f8e 0b3f
000001e0: e495 293d 0000 0000 9f8e 0b3f 84bb 283d
000001f0: 0000 0000 9f8e 0b3f 0a51 283d 0000 0000
00000200: 9f8e 0b3f 223e 273d 0000 0000 9f8e 0b3f
00000210: 6a26 263d 0000 0000 9f8e 0b3f 507e 243d
00000220: 0000 0000 9f8e 0b3f 77e9 223d 0000 0000
00000230: 9f8e 0b3f 997f 223d 0000 0000 9f8e 0b3f
00000240: ddfb 213d 0000 0000 9f8e 0b3f 2247 203d
00000250: 0000 0000 9f8e 0b3f dda9 1e3d 0000 0000
00000260: 9f8e 0b3f a0b2 1d3d 0000 0000 9f8e 0b3f
00000270: 6e61 1d3d 0000 0000 9f8e 0b3f 522b 1d3d
00000280: 0000 0000 9f8e 0b3f 2d02 1c3d 0000 0000
00000290: 9f8e 0b3f 6acf 1a3d 0000 0000 9f8e 0b3f
000002a0: a193 193d 0000 0000 9f8e 0b3f e4bc 183d
000002b0: 0000 0000 9f8e 0b3f 5eed 173d 0000 0000
000002c0: 9f8e 0b3f 4e98 163d 0000 0000 9f8e 0b3f
000002d0: eb61 153d 0000 0000 9f8e 0b3f 364a 143d
000002e0: 0000 0000 9f8e 0b3f 604f 133d 0000 0000
000002f0: 9f8e 0b3f 2789 133d 0000 0000 9f8e 0b3f
00000300: afb2 133d 0000 0000 9f8e 0b3f 0041 133d
00000310: 0000 0000 9f8e 0b3f 4b32 123d 0000 0000
00000320: 9f8e 0b3f fc85 103d 0000 0000 9f8e 0b3f
00000330: 8e24 103d 0000 0000 9f8e 0b3f 9d80 103d
00000340: 0000 0000 9f8e 0b3f 8253 103d 0000 0000
00000350: 9f8e 0b3f 3f9d 0f3d 0000 0000 9f8e 0b3f
00000360: 7da4 0f3d 0000 0000 9f8e 0b3f 3969 103d
00000370: 0000 0000 9f8e 0b3f 0749 113d 0000 0000
00000380: 9f8e 0b3f f0b8 113d 0000 0000 9f8e 0b3f
00000390: 615b 123d 0000 0000 9f8e 0b3f 54bb 133d
000003a0: 0000 0000 9f8e 0b3f 4e90 143d 0000 0000
000003b0: 9f8e 0b3f ddf3 153d 0000 0000 9f8e 0b3f
000003c0: cee7 173d 0000 0000 9f8e 0b3f 9652 193d
000003d0: 0000 0000 9f8e 0b3f 3dda 1a3d 0000 0000
000003e0: 9f8e 0b3f 6182 1c3d 0000 0000 9f8e 0b3f
000003f0: 92a8 1d3d 0000 0000 9f8e 0b3f c9d7 1e3d
0.041296575 0.0 0.545145 0.04093169 0.0 0.545145 0.04073032 0.0
0.545145 0.040553045 0.0 0.545145 0.04039813 0.0 0.545145 0.040465236
0.0 0.545145 0.040676937 0.0 0.545145 0.040770754 0.0 0.545145
0.04059261 0.0 0.545145 0.04047559 0.0 0.545145 0.040444043 0.0
0.545145 0.04040676 0.0 0.545145 0.04036202 0.0 0.545145 0.040444065
0.0 0.545145 0.04065577 0.0 0.545145 0.04059725 0.0 0.545145
0.040476765 0.0 0.545145 0.0403821 0.0 0.545145 0.04036372 0.0
0.545145 0.040508285 0.0 0.545145 0.040658023 0.0 0.545145 0.040919643
0.0 0.545145 0.04105045 0.0 0.545145 0.041185264 0.0 0.545145
0.04116634 0.0 0.545145 0.041125048 0.0 0.545145 0.04121685 0.0
0.545145 0.041306347 0.0 0.545145 0.04139068 0.0 0.545145 0.04146813
0.0 0.545145 0.041589182 0.0 0.545145 0.04170737 0.0 0.545145
0.041666068 0.0 0.545145 0.041597776 0.0 0.545145 0.041605785 0.0
0.545145 0.041736584 0.0 0.545145 0.041937947 0.0 0.545145 0.0418846
0.0 0.545145 0.041669473 0.0 0.545145 0.041561056 0.0 0.545145
0.041402712 0.0 0.545145 0.041194454 0.0 0.545145 0.04109291 0.0
0.545145 0.04083074 0.0 0.545145 0.04056398 0.0 0.545145 0.040159523
0.0 0.545145 0.03977343 0.0 0.545145 0.039672468 0.0 0.545145
0.039546836 0.0 0.545145 0.039130338 0.0 0.545145 0.038736213 0.0
0.545145 0.03850043 0.0 0.545145 0.038422994 0.0 0.545145 0.03837139
0.0 0.545145 0.038088012 0.0 0.545145 0.03779546 0.0 0.545145
0.037494306 0.0 0.545145 0.037289515 0.0 0.545145 0.037091605 0.0
0.545145 0.036766343 0.0 0.545145 0.036470335 0.0 0.545145 0.036203586
0.0 0.545145 0.03596437 0.0 0.545145 0.03601947 0.0 0.545145
0.036059078 0.0 0.545145 0.03595066 0.0 0.545145 0.035692494 0.0
0.545145 0.035284027 0.0 0.545145 0.03519111 0.0 0.545145 0.035278905
0.0 0.545145 0.03523589 0.0 0.545145 0.03506207 0.0 0.545145
0.035068978 0.0 0.545145 0.0352566 0.0 0.545145 0.035470035 0.0
0.545145 0.03557676 0.0 0.545145 0.035731677 0.0 0.545145 0.036067322
0.0 0.545145 0.036270432 0.0 0.545145 0.03660952 0.0 0.545145
0.0370863 0.0 0.545145 0.037432276 0.0 0.545145 0.037805784 0.0
0.545145 0.038210277 0.0 0.545145 0.03849084 0.0 0.545145 0.038780008

stdev f4 [206, 1, 3]
00000000: 4ec2 003c 373e 4f3b 373e 4f3b 4290 f93b
00000010: 373e 4f3b 373e 4f3b 5cbc f33b 373e 4f3b
00000020: 373e 4f3b 20b8 ef3b 373e 4f3b 373e 4f3b
00000030: 0859 ed3b 373e 4f3b 373e 4f3b 3d1f ee3b
00000040: 373e 4f3b 373e 4f3b f336 f13b 373e 4f3b
00000050: 373e 4f3b f959 f43b 373e 4f3b 373e 4f3b
00000060: 1a37 f13b 373e 4f3b 373e 4f3b 5cb3 ee3b
00000070: 373e 4f3b 373e 4f3b 5118 ee3b 373e 4f3b
00000080: 373e 4f3b bf81 ed3b 373e 4f3b 373e 4f3b
00000090: e8f9 ec3b 373e 4f3b 373e 4f3b 167f ec3b
000000a0: 373e 4f3b 373e 4f3b 4174 ed3b 373e 4f3b
000000b0: 373e 4f3b 9e3c ee3b 373e 4f3b 373e 4f3b
000000c0: d57c ef3b 373e 4f3b 373e 4f3b 3fad f13b
000000d0: 373e 4f3b 373e 4f3b fe1f f53b 373e 4f3b
000000e0: 373e 4f3b e15b f53b 373e 4f3b 373e 4f3b
000000f0: 33b2 f53b 373e 4f3b 373e 4f3b 236d f83b
00000100: 373e 4f3b 373e 4f3b 116a f83b 373e 4f3b
00000110: 373e 4f3b 0c71 f83b 373e 4f3b 373e 4f3b
00000120: 2719 f53b 373e 4f3b 373e 4f3b 8d3e f23b
00000130: 373e 4f3b 373e 4f3b 43b7 f13b 373e 4f3b
00000140: 373e 4f3b 4941 f13b 373e 4f3b 373e 4f3b
00000150: 63e2 f03b 373e 4f3b 373e 4f3b 66a2 f03b
00000160: 373e 4f3b 373e 4f3b fb3b f13b 373e 4f3b
00000170: 373e 4f3b f82c f23b 373e 4f3b 373e 4f3b
00000180: 26ef f03b 373e 4f3b 373e 4f3b edf4 ef3b
00000190: 373e 4f3b 373e 4f3b 03f9 ef3b 373e 4f3b
000001a0: 373e 4f3b f50e f33b 373e 4f3b 373e 4f3b
000001b0: 28a7 f73b 373e 4f3b 373e 4f3b ddd0 f63b
000001c0: 373e 4f3b 373e 4f3b 4416 f53b 373e 4f3b
000001d0: 373e 4f3b 1103 fa3b 373e 4f3b 373e 4f3b
000001e0: a72b 003c 373e 4f3b 373e 4f3b af03 043c
000001f0: 373e 4f3b 373e 4f3b f47d 063c 373e 4f3b
00000200: 373e 4f3b 1d9a 043c 373e 4f3b 373e 4f3b
00000210: fcd1 023c 373e 4f3b 373e 4f3b a3b8 fa3b
00000220: 373e 4f3b 373e 4f3b 22bb f13b 373e 4f3b
00000230: 373e 4f3b 6097 f73b 373e 4f3b 373e 4f3b
00000240: 6be1 fc3b 373e 4f3b 373e 4f3b 1242 f33b
00000250: 373e 4f3b 373e 4f3b 9c37 ec3b 373e 4f3b
00000260: 373e 4f3b 68bf ec3b 373e 4f3b 373e 4f3b
00000270: c3c5 e63b 373e 4f3b 373e 4f3b 847a e03b
00000280: 373e 4f3b 373e 4f3b 3e16 e33b 373e 4f3b
00000290: 373e 4f3b 7b7b e63b 373e 4f3b 373e 4f3b
000002a0: 25d0 ea3b 373e 4f3b 373e 4f3b a641 eb3b
000002b0: 373e 4f3b 373e 4f3b 15d0 eb3b 373e 4f3b
000002c0: 373e 4f3b 2785 ea3b 373e 4f3b 373e 4f3b
000002d0: 1347 eb3b 373e 4f3b 373e 4f3b 0cb4 ed3b
000002e0: 373e 4f3b 373e 4f3b 9f5e f13b 373e 4f3b
000002f0: 373e 4f3b 504d f13b 373e 4f3b 373e 4f3b
00000300: 2bb8 f13b 373e 4f3b 373e 4f3b d8ac f33b
00000310: 373e 4f3b 373e 4f3b 567a fc3b 373e 4f3b
00000320: 373e 4f3b eea2 043c 373e 4f3b 373e 4f3b
00000330: de88 043c 373e 4f3b 373e 4f3b 2974 023c
00000340: 373e 4f3b 373e 4f3b 6e28 033c 373e 4f3b
00000350: 373e 4f3b fbe3 053c 373e 4f3b 373e 4f3b
00000360: 14c2 053c 373e 4f3b 373e 4f3b 86d6 023c
00000370: 373e 4f3b 373e 4f3b 2506 003c 373e 4f3b
00000380: 373e 4f3b 7825 003c 373e 4f3b 373e 4f3b
00000390: 2f8f 003c 373e 4f3b 373e 4f3b 3fdd fc3b
000003a0: 373e 4f3b 373e 4f3b 4e41 f93b 373e 4f3b
000003b0: 373e 4f3b e8fd f13b 373e 4f3b 373e 4f3b
000003c0: ed88 f03b 373e 4f3b 373e 4f3b 7d6f f63b
000003d0: 373e 4f3b 373e 4f3b 53dd ff3b 373e 4f3b
000003e0: 373e 4f3b 2c7f 063c 373e 4f3b 373e 4f3b
000003f0: c38c 0a3c 373e 4f3b 373e 4f3b 5a0f 0f3c
0.007858826 0.0031622776 0.0031622776 0.007616074 0.0031622776 0.0031622776 0.0074382257 0.0031622776
0.0031622776 0.0073156506 0.0031622776 0.0031622776 0.0072432794 0.0031622776 0.0031622776 0.0072669075
0.0031622776 0.0031622776 0.007361287 0.0031622776 0.0031622776 0.0074570146 0.0031622776 0.0031622776
0.007361305 0.0031622776 0.0031622776 0.007284565 0.0031622776 0.0031622776 0.0072660823 0.0031622776
0.0031622776 0.007248133 0.0031622776 0.0031622776 0.0072319396 0.0031622776 0.0031622776 0.0072172983
0.0031622776 0.0031622776 0.0072465246 0.0031622776 0.0031622776 0.0072704097 0.0031622776 0.0031622776
0.0073085823 0.0031622776 0.0031622776 0.007375389 0.0031622776 0.0031622776 0.0074806204 0.0031622776
0.0031622776 0.0074877595 0.0031622776 0.0031622776 0.0074980496 0.0031622776 0.0031622776 0.0075813695
0.0031622776 0.0031622776 0.0075810035 0.0031622776 0.0031622776 0.0075818356 0.0031622776 0.0031622776
0.007479805 0.0031622776 0.0031622776 0.0073927105 0.0031622776 0.0031622776 0.007376583 0.0031622776
0.0031622776 0.007362519 0.0031622776 0.0031622776 0.007351206 0.0031622776 0.0031622776 0.007343578
0.0031622776 0.0031622776 0.0073618866 0.0031622776 0.0031622776 0.0073906146 0.0031622776 0.0031622776
0.0073527275 0.0031622776 0.0031622776 0.0073228986 0.0031622776 0.0031622776 0.0073233857 0.0031622776
0.0031622776 0.0074175545 0.0031622776 0.0031622776 0.0075577684 0.0031622776 0.0031622776 0.0075322227
0.0031622776 0.0031622776 0.007479461 0.0031622776 0.0031622776 0.00762976 0.0031622776 0.0031622776
0.0078229075 0.0031622776 0.0031622776 0.008057519 0.0031622776 0.0031622776 0.0082087405 0.0031622776
0.0031622776 0.008093384 0.0031622776 0.0031622776 0.0079846345 0.0031622776 0.0031622776 0.007651405
0.0031622776 0.0031622776 0.0073770443 0.0031622776 0.0031622776 0.007555887 0.0031622776 0.0031622776
0.0077173016 0.0031622776 0.0031622776 0.0074236477 0.0031622776 0.0031622776 0.0072087776 0.0031622776
0.0031622776 0.007224966 0.0031622776 0.0031622776 0.007042618 0.0031622776 0.0031622776 0.0068505425
0.0031622776 0.0031622776 0.0069301417 0.0031622776 0.0031622776 0.007033763 0.0031622776 0.0031622776
0.007165926 0.0031622776 0.0031622776 0.0071794568 0.0031622776 0.0031622776 0.007196436 0.0031622776
0.0031622776 0.0071569863 0.0031622776 0.0031622776 0.0071801036 0.0031622776 0.0031622776 0.0072541293
0.0031622776 0.0031622776 0.007366016 0.0031622776 0.0031622776 0.0073639527 0.0031622776 0.0031622776
0.007376691 0.0031622776 0.0031622776 0.007436376 0.0031622776 0.0031622776 0.0077050133 0.0031622776
0.0031622776 0.008095486 0.0031622776 0.0031622776 0.008089272 0.0031622776 0.0031622776 0.007962265
0.0031622776 0.0031622776 0.008005245 0.0031622776 0.0031622776 0.008172031 0.0031622776 0.0031622776
0.008163948 0.0031622776 0.0031622776 0.007985717 0.0031622776 0.0031622776 0.007813965 0.0031622776
0.0031622776 0.007821433 0.0031622776 0.0031622776 0.007846638 0.0031622776 0.0031622776 0.0077168043
0.0031622776 0.0031622776 0.007606662 0.0031622776 0.0031622776 0.0073850043 0.0031622776 0.0031622776
0.0073405416 0.0031622776 0.0031622776 0.0075206147 0.0031622776 0.0031622776 0.0078083663 0.0031622776
0.0031622776 0.008209031 0.0031622776 0.0031622776 0.008456412 0.0031622776 0.0031622776 0.008731687

W_pos f4 [11, 32]
00000000: 56b4 b73c e8cb 60bb 8ec5 bd3c 0deb e93b
00000010: 7c2f a9bb 3352 3dbb c113 ffba 279e c73c
00000020: 8f4f ce3c 77b4 f6bc ecf4 833c 5159 85bb
00000030: fd47 a1bc 96bd 82bc 524f 943c bbdf 6bbc
00000040: 3db6 a6bc 56ad d83c 024b 97bc da00 09bb
00000050: 7673 17bc 40a2 923c 77b7 37bb d80c 0bbc
00000060: 4988 1ab9 4f11 223b c9a5 f43c 0d94 e5bc
00000070: 12eb c83c 1ba7 d23c 244d a8bb 3dd1 b8bb
00000080: 66b8 8cbc fccf 0ebc 1df8 413d f73a cdbc
00000090: 5bdc 8a38 1437 ed3a 5ddb 44bc 6ac1 1b3d
000000a0: dca6 403d 0c95 08bd f4f9 223c b757 99bb
000000b0: f1f5 3abd 8bad 40bc ce34 df3c d90b f43b
000000c0: 25b4 abbc 3c8c a73c 42e9 e1bb 804d cdbc
000000d0: 0997 513c 5c6e a3bc a04b 883c 699d a1ba
000000e0: 00bc a1bc ef1f b9bc 39d2 273d 5022 f5bc
000000f0: 36d1 903c 8405 313b af5d 18bc 6e9b 0cbc
00000100: 67f1 64bb 94d6 4f3c 994d 1d3c 0579 9d3c
00000110: cd10 ed3c c6d7 32bb 5990 293a d431 4a3b
00000120: e84a e03c 2832 303c 3ed3 063d b5c9 843a
00000130: 3b1e 733c d4d5 243c 55dc 153d 49f0 093c
00000140: 2c85 1bbc d108 e0bc a568 49bc f911 f0bc
00000150: 5fe7 a13b d2d3 76bc 5196 883c a917 06bd
00000160: 66a4 b43c 9396 183c 566d d43c 7081 4ebb
00000170: 2f4c b93b b91b 213d 4d22 fc3a 3b16 c83b
00000180: a29a a4bc 6688 e23a 33de d63c c43e 79bb
00000190: b1f6 0c3b 9d30 1fbd 6bdd cc3b f514 9dbc
000001a0: 5dcf b73b 65b4 963c 41be 0a3d d5a4 68ba
000001b0: 2fbe e53a e6f8 0c3c 182f 54bc 4a19 d0bc
000001c0: 130a 053d 0861 9c3c 24a4 a4bc f40f 2bbc
000001d0: 37df cfb9 799b 7abc e7c2 083c 47fe fab9
000001e0: 4b2e e7ba 58f0 bcbb 62b1 81bc c4a3 f1bb
000001f0: 289d 40bc 32e6 0cbd 4574 aa3c 6a49 aa3b
00000200: 78dd ec39 616b 1f3c ea48 723c f409 a3bc
00000210: fcb5 dc3c fbf8 833c dd35 863c 5b21 86bc
00000220: 0158 b83a 46e1 e23a c490 4e3c 6274 743b
00000230: a689 933c 74ef 8fbc 1bf3 253c b83a a33c
00000240: 63e3 dc3c c5d0 63bc c737 bd3c 6111 d7bc
00000250: 37bc 57bc 59f0 853c be26 0a3d f0a1 ec3c
00000260: f37d a2bc d4e3 c8bc ad23 04bb 648f 0e3c
00000270: 3b64 9abb eef5 8cbc d21c 4c3c 80d0 9b3c
00000280: 72bb bbbc d655 debb b589 9d3c 19df 50bc
00000290: 90a5 ad3c 53c4 bc3b e99b 463b b769 e5bc
000002a0: 335a bb39 3091 b23c fea6 5fbb 681a 723b
000002b0: ab20 073d 2c5f 8b3c 726b b53c 506b 34bb
000002c0: d157 783c 1ea0 a0bb 84a1 00bd 5691 563c
000002d0: 1abd 023c 6a65 563d a415 863c 9b25 7ebb
000002e0: 25e8 bebc 290a f83c 2f97 91bb f97f ad3c
000002f0: 3cca cc3b 61d7 f2bc 5369 133d 23f9 713c
00000300: 544c dfbc dbf2 d93c e823 dd3b 2c68 573c
00000310: f4ef 1b3d 4737 99bc 619b 173b 8012 13bc
00000320: a5e8 04bd b556 00bc 2eb1 04bc 42be 1ebc
00000330: 9e4c 70bb 3f27 00bd 5fa3 8b3b 2e1b 063d
00000340: 376f d4bb fd00 8ebc ccba b83c fb35 f6bb
00000350: 0043 533c 4760 b63c 379d 153c 8930 f4bc
00000360: 5172 97bc e8f6 b43c 24f1 9f3c ac74 7f3c
00000370: 184a 50bc bafd 8fbc 8b15 c13c cff9 96bc
00000380: a5aa eeba 9d51 cdbc 4625 fcbc a940 a83c
00000390: 573c a73b 890e 42bd dd19 053d 6e41 b53c
000003a0: e466 9cbc 04ca 3fbc dce2 823b 0aff 5dbc
000003b0: eb46 97bc 5f5c 003d 6c14 25bc 3abd 5a3c
000003c0: 930b 273d 06b9 07bb 4d2e 9b3b 9e0e dc3c
000003d0: 0064 163d 9ff3 46bc 0d11 6a3c a9ff 063b
000003e0: 240d c2b8 fd3b a93c b168 74bc 8153 a2b9
000003f0: b615 87bb c487 6ebc d4d6 0a3c 96ed 9e3c
0.022424858 -0.0034301225 0.02316549 0.007138616 -0.0051631313 -0.0028888106 -0.0019460843 0.024367405
0.02518442 -0.03011535 0.016107999 -0.0040694852 -0.019687647 -0.015959542 0.01810423 -0.014396603
-0.02035057 0.02644984 -0.018468384 -0.0020905049 -0.009243837 0.017899632 -0.0028032938 -0.008486949
-0.00014737355 0.0024729555 0.029864209 -0.028024698 0.024526153 0.025714448 -0.005136149 -0.0056401775
-0.017177772 -0.0087165795 0.04735576 -0.02505253 6.621397e-05 0.001809808 -0.012015191 0.03802625
0.04703413 -0.033345267 0.009947289 -0.004679646 -0.045644704 -0.011760126 0.027246859 0.0074477014
-0.020959923 0.020452611 -0.0068942616 -0.025061369 0.012792357 -0.019950084 0.016637623 -0.0012330237
-0.019742966 -0.022598235 0.04097197 -0.029923588 0.017677885 0.0027011344 -0.00929968 -0.008581979
-0.0034933926 0.012685437 0.00960102 0.019222746 0.028938675 -0.0027289256 0.0006468348 0.0030852454
0.027379468 0.010754146 0.0329163 0.0010130914 0.0148387505 0.010060746 0.036587078 0.008419105
-0.0094922 -0.027347954 -0.012293016 -0.029305445 0.0049409117 -0.01506515 0.016673239 -0.032737408
0.022051048 0.009313243 0.025931042 -0.0031510256 0.0056548337 0.03933308 0.0019236297 0.0061061657
-0.020093266 0.0017283082 0.026229 -0.0038031796 0.0021509344 -0.03886472 0.006251981 -0.019175032
0.0056094364 0.018396566 0.033872847 -0.00088746595 0.0017527993 0.008604264 -0.012950681 -0.025402684
0.03248031 0.019089237 -0.0200978 -0.010440815 -0.00039648425 -0.015295857 0.00834725 -0.00047873167
-0.0017637698 -0.005765956 -0.015831653 -0.0073742587 -0.011756219 -0.03439922 0.020807395 0.00519674
0.00045178435 0.009730191 0.014787892 -0.019902207 0.026942246 0.016109934 0.016383106 -0.016373327
0.0014064313 0.0017309568 0.012607757 0.0037300815 0.018009972 -0.017570235 0.010128762 0.01992546
0.026963895 -0.013904755 0.023097886 -0.026253404 -0.0131674325 0.016349958 0.033728354 0.028885812
-0.019835448 -0.0245227 -0.0020162866 0.008701179 -0.0047116554 -0.017207112 0.012458043 0.019020319
-0.02291653 -0.006785135 0.019230703 -0.012748503 0.02119711 0.0057607084 0.0030305332 -0.02800451
0.00035734623 0.021797746 -0.0034126635 0.003694201 0.03299014 0.017013155 0.02214596 -0.0027529784
0.015157656 -0.0049019 -0.031404033 0.013096174 0.007979656 0.05234281 0.01636774 -0.0038779739
-0.023304055 0.030278282 -0.0044430713 0.021179186 0.006249694 -0.029643716 0.035989117 0.0147688715
-0.027258076 0.02660506 0.006748665 0.013147395 0.038070634 -0.018703116 0.0023133385 -0.008976579
-0.03244843 -0.007833173 -0.008098884 -0.009688916 -0.003666676 -0.031287428 0.0042614187 0.032740764
-0.0064829844 -0.017334456 0.02255001 -0.007513759 0.012894392 0.022262705 0.009131721 -0.0298083
-0.018487127 0.02209039 0.019524164 0.015591782 -0.012712978 -0.017577041 0.023569843 -0.018429665
-0.0018208815 -0.02506333 -0.030779492 0.020538645 0.0051036286 -0.047377143 0.03249537 0.022125926
-0.01909203 -0.011705879 0.003994329 -0.013549576 -0.018466434 0.031338092 -0.01007567 0.013350779
0.040782522 -0.0020709648 0.004735744 0.026862439 0.03671646 -0.012143045 0.014286292 0.0020599163
-9.2530885e-05 0.020658487 -0.0149175385 -0.00030961263 -0.004122461 -0.014558736 0.008474071 0.0194004

weight f4 [32, 16]
00000000: 5b43 343e 23df 82be f0f7 eebd a5fc 103b
00000010: 41db ca3d 7d7c 57be ab76 a7bc 9af0 30bd
00000020: 90e0 06be d834 e03c aecb 173e 5563 16be
00000030: 987c 243e d926 9abd 0c58 703d 0a56 efbd
00000040: ddd9 6ebe 7157 08be 2cdf 543e 3fca 243c
00000050: 6a91 6dbe fd5d 1cbe 0f3d 2abd 7205 133e
00000060: af33 9abc 72c4 09bd 2f5a 393e c58b a5bd
00000070: 3fd8 2abe e37c 913d d917 fc3a 4ce7 363d
00000080: e57c 39be d662 053e cfb9 39be 1b5d be3d
00000090: a175 bb3b 3eb0 543e 7c0c fe3c ac22 3d3d
000000a0: 70c3 963d a9a0 223e 8e1f f33c ab8e 43be
000000b0: 6ac9 253e 4faf 853e 8bf6 593e 4b26 fe3d
000000c0: e243 45be a126 5e3e a841 833e 7e6f a13d
000000d0: fda0 31be 5595 04bd 69fa 68bd 86e5 203e
000000e0: fbd9 893d 2446 3bbe 8f05 b7bd 60b4 133e
000000f0: f34b c8bd efa4 583e 55fc 3b3e 7254 5abe
00000100: 84de f63c a924 cf3d b183 4e3e dfe1 76bd
00000110: acce 273e 654f 05be bcf4 0ebe 8d52 65bd
00000120: d154 6b3e ed9c 9c3d 9a75 37be 7c07 353e
00000130: 913c 15be 8924 a1bd ebc2 6fbe e0ab 8d3b
00000140: 7e56 e43d 56cb 8d3d 1e89 163e 9d5d ce3c
00000150: a0e2 43bd fcc4 433d 6c9b 0abe df7d 393e
00000160: 6be5 713d fd37 02be dabc 283d 67ad 45bd
00000170: c92c 2f3a d612 b4bd c677 803e da55 3c3e
00000180: 5c19 ca3d ef07 06bd bb4a 0cbe 4dc9 643e
00000190: 60de a33a b93e 013e 886d 303e 870b c93d
000001a0: 3a13 453d ec15 63be 4957 48be 63a6 f6bc
000001b0: cfed 28be dd58 6b3e e957 e93d f8d8 1fbe
000001c0: 30c6 76bd 261f 9abc ae18 f1bd 3196 7cbd
000001d0: 18de f8bd a158 3fbc c274 c33d 17eb 963d
000001e0: 7fb5 3e3e fdd3 2abe b5eb 3dbe c879 643e
000001f0: 09e3 36be ad75 143e 0b20 16bc 6596 63be
00000200: f59b 6bbe f626 c83d 6712 5bbe 2ab1 5d3d
00000210: a4f7 603e 823a f63d 19d5 58bd 30a6 ffbd
00000220: 66b7 9a3d 1690 10bc a5e2 323e d610 933d
00000230: b5a1 66be cd2a d3bd 76ec dabd db0a f8bc
00000240: 61d9 0dbe eccf 4b3e 44f6 14bd f470 303e
00000250: 1128 c83d d2ff 0c3e b28b 93bc 4b6f 08bd
00000260: cdfb c4bd 1f31 53be e2ac b93d a52f 813e
00000270: 2f89 f4bd 28ec 18be 1ee4 76be e7d5 87ba
00000280: 7509 2a3e f9a6 4abe 2ec2 1a3d eb7f 9e3d
00000290: 8f8d f0bd 65a1 223e e50d 86bd 22f7 cdbb
000002a0: 9a59 a5bd 30f2 f93d 3013 643c 4cda 1b3e
000002b0: 1525 6dbc 5e96 50be 7747 8a3d 0ed5 f93d
000002c0: e7c2 17bd 5e83 bdbd ec7e d43d c431 abbd
000002d0: 3f78 633e 1b0d 66be 1652 1c3e 3628 c73d
000002e0: 3609 84bd 41e5 ee3d ffa0 6e3e 6bc1 d1bc
000002f0: a723 753e 770f ddbd fab5 713e 9637 1b3d
00000300: 7bf0 553e 1609 6c3c 8dd4 3f3e e1e9 353e
00000310: 789d 613d 33ee 05be 68b1 a63d 57a5 e43d
00000320: 67b0 2ebe 9f57 a43d d998 cebc b9c2 00be
00000330: 89d3 1dbe b594 f83b 43e1 8dbe 2bdb f93d
00000340: d19a c73d 69c0 6f3e aee4 d63b e465 ab3d
00000350: ed04 803e a09c bc3d f540 4abd e535 97bd
00000360: 9d76 5f3e 1339 4cbe f3fc 0abe 1c06 863d
00000370: 5647 40be 67f6 23be 7ea2 fbbd bac5 8a3c
00000380: 4cad ccbd 6f03 50be 5595 203e 068a 703e
00000390: 59ff ab3d 60ff 44bd b36c 083e e8f1 01be
000003a0: 9c3a 08bd 905c 68be f93d 613d b844 0e3e
000003b0: 48e2 2e3d 66c0 823e 9d22 42bd 15a4 163e
000003c0: 0707 22be 50a1 443e fc82 453e 392c 603e
000003d0: e0bb 903e 7bca 5c38 c03e 1ebe 765b 8ebc
000003e0: 59eb ae3c a1ef 03be 3521 823c 635b 0c3d
000003f0: 532a 1c3d a2aa 29be b46f 00be 71de 8b3d
0.17603819 -0.25560865 -0.11668384 0.0022123244 0.099051006 -0.21043582 -0.020442327 -0.043198206
-0.13171601 0.027368948 0.14823791 -0.1468633 0.16063154 -0.07526941 0.058677718 -0.116863325
-0.23325296 -0.13314606 0.20788258 0.010057985 -0.23200002 -0.15270229 -0.041562136 0.14357546
-0.018823473 -0.03363461 0.18100809 -0.080832995 -0.16684054 0.071038984 0.0019233181 0.044654176
-0.1811405 0.13025984 -0.18137287 0.09295102 0.0057208096 0.20770356 0.031011812 0.046175644
0.073614955 0.158816 0.029678132 -0.19097392 0.16190115 0.26110312 0.21285455 0.124096476
-0.19264176 0.21694423 0.2563603 0.078825936 -0.17346568 -0.032368977 -0.056879435 0.15712556
0.067310296 -0.18288475 -0.08936607 0.14424276 -0.09780111 0.21156667 0.18357976 -0.21321276
0.0301354 0.10114414 0.20167424 -0.060274 0.16387433 -0.13018568 -0.13960546 -0.05598693
0.22981574 0.07647119 -0.17915955 0.17678636 -0.14573886 -0.07868297 -0.23414199 0.0043234676
0.111493096 0.06923549 0.14700744 0.025191123 -0.04782355 0.04779528 -0.13535851 0.18114422
0.05905668 -0.1271667 0.041195728 -0.048261072 0.0006682394 -0.08792655 0.2509138 0.18392125
0.09868118 -0.03272241 -0.13700382 0.22342415 0.0012502186 0.12621583 0.17229283 0.09816652
0.04811404 -0.22176331 -0.19564547 -0.030108636 -0.16496967 0.22983117 0.11393721 -0.15610111
-0.0602476 -0.01881368 -0.117722854 -0.06166667 -0.12151736 -0.011678846 0.09543754 0.073690586
0.18623923 -0.1668243 -0.18546946 0.22312081 -0.17860045 0.14498015 -0.009162913 -0.2222534
-0.23008712 0.09773056 -0.21393739 0.054124035 0.21969467 0.12022878 -0.0529376 -0.124828696
0.07554512 -0.008823415 0.1746927 0.071809456 -0.22522624 -0.10310898 -0.106896326 -0.030278614
-0.13852455 0.19903535 -0.03636767 0.17230588 0.09773267 0.13769463 -0.018010948 -0.033309262
-0.0961834 -0.20624207 0.09066178 0.25231662 -0.11940228 -0.14933836 -0.24110457 -0.001036343
0.1660517 -0.19790258 0.03778284 0.07739242 -0.1174575 0.1588188 -0.06545619 -0.006285564
-0.08073731 0.12204397 0.01392059 0.15219992 -0.014474173 -0.2036986 0.06751912 0.1219884
-0.037051108 -0.09253572 0.10375771 -0.083591014 0.22213839 -0.22465937 0.15265688 0.097244665
-0.06447069 0.116648205 0.23303603 -0.025604924 0.23939382 -0.10793965 0.23604575 0.037894808
0.20892517 0.014406463 0.18733425 0.17764999 0.055081815 -0.13079147 0.08139306 0.111643486
-0.1705948 0.08024525 -0.025219368 -0.12574281 -0.15412726 0.0075860866 -0.27710924 0.12200006
0.09746326 0.23413242 0.0065580225 0.083690435 0.25003758 0.09209561 -0.049378354 -0.073833264
0.21822591 -0.19943647 -0.13573055 0.06544134 -0.18777213 -0.16011964 -0.12286852 0.016939986
-0.09993991 -0.2031381 0.15681966 0.23490152 0.08398313 -0.048095107 0.13322715 -0.12689936
-0.03325902 -0.2269156 0.054990742 0.13893402 0.042696267 0.25537413 -0.04739629 0.1471103
-0.15822993 0.19202161 0.19288248 0.2189187 0.28268337 5.2640662e-05 -0.15453625 -0.017377596
0.021352457 -0.1288438 0.015884975 0.03426684 0.0381263 -0.16568998 -0.12542611 0.06829537

bias f4 [32]
00000000: 843a dd3d 4309 f0bd 4f2e 58be 99ec 9ebc
00000010: f4ca e3bd 8067 bd3c d669 69bd 6f14 ccbc
00000020: 0274 dabb 5651 de3d f6b5 603e 2c0e 13bd
00000030: 39f4 ecbd 04bb 203e 16e7 54be a1ff 42be
00000040: 8926 cbbd 765d 673d 65ce dc3d 59ee 9c3c
00000050: c59a c7bd 3816 66be eb10 e1bd 998a b23d
00000060: 5d2f 26be f99f 96bd ee85 27bd dcf6 ce3c
00000070: 81e5 0cbe 426e 1a3e 8df4 45be 3efd 57bb
0.108021766 -0.117205165 -0.21111415 -0.019399928 -0.111226946 0.023120642 -0.0569857 -0.024912087
-0.0066666612 0.10855357 0.21944413 -0.035902187 -0.11570019 0.15696341 -0.20791277 -0.19042827
-0.099194594 0.056485616 0.10781554 0.019156622 -0.09746317 -0.22469413 -0.10989555 0.08717842
-0.16229005 -0.07354731 -0.04089921 0.025264196 -0.13759424 0.15081123 -0.1933157 -0.003295734

weight f4 [32, 32]
00000000: 0586 303e 58a2 f9bc dca0 17be 733c 873c
00000010: 8140 323e 8589 203e 9250 08be ff2a 27be
00000020: cea8 e5bd 7529 db3c 76f2 cf3c 3d82 adbd
00000030: 40c9 59bd 1fb0 f7bd ad3d 1ebe d12f 16be
00000040: 1467 41bd c80c e13d 565c 90bd 04bc a7bd
00000050: 68d0 0cbe a966 81bd 9d4a 04be e4d2 e23d
00000060: 2117 35be 2fff f7bd 9b6e 13bd 2ad2 0ebe
00000070: 11e2 92bd 91ce 1c3e a8d7 9d3d ea8a ff3c
00000080: 784b a2bd 1b5c 80bc a7b2 b6bd 2963 22be
00000090: 486d e6bd 3b9c 1b3e e087 08be d2ad e4bd
000000a0: 2d60 6e3c 93da 7cbd 8958 2dbe 10ae a0bd
000000b0: 1817 f93d 3305 26be da7f 903d 4b37 a33d
000000c0: 78d2 203e 38fc 05be 55fd 033e bdd6 e0bd
000000d0: 1b46 22be 4080 2e3e 4e3c 383e f31e 9c3d
000000e0: 5de5 14bd 40bd 99bd d411 0e3e f635 4a3c
000000f0: c20d 0fbe d9b5 7fbc bc3b bcbd 0aa5 33be
00000100: 183f cfbc 731f c43d 7767 1ebe f310 1abe
00000110: a471 e4bd cb69 763c 5bc8 b3bd 8a3e 19bd
00000120: 7d3d cd3d 343c 7c3c 6e94 553c e277 293e
00000130: ba1a 6b3d 7613 4b3e 48c8 29be 4faf c0bc
00000140: 8427 0ebe 5e73 ebbc dc4e e43d 52f7 db3d
00000150: e956 0c3e 8bed aabd 7517 8cbc 4d18 083c
00000160: b228 f13d f308 943d b310 ca3d 5dae 45bd
00000170: a5e2 9ebd dbf6 80bc 858f f9bb 3d1e c13c
00000180: 877d 193e 31ec 913d 081a 783d 545c a2bd
00000190: 9e30 f43d 36fb 85bc 0a3c 063e 43fd d8bc
000001a0: 44af 1cbe f846 a83d 6ee3 e2bd e6ee 85bd
000001b0: 1fd3 133e fdb1 a3bd 1c52 163e bb45 823d
000001c0: dfae 84bd 0364 823d 60b6 733d 8fe0 dc3c
000001d0: a34f 38be 6243 9f3d d6cc 87bd 41b0 b93d
000001e0: 7ba9 903d 97b3 2abe d78d 883d d06c 2b3e
000001f0: 1893 31be 29c8 1e3e 02e5 ce3d 8c17 30be
00000200: e865 57bd 5621 d73d db92 c03d daaf 403d
00000210: 915c ee3d c484 efbd 86fc 9a3d 3ca8 7fbc
00000220: 513a e0bd 5776 083e 0897 3d3e 0012 bd3d
00000230: fb86 2f3e f8ec 2f3e 2c4b 7dbd 6ba9 6b3d
00000240: e372 90bb e09a 153e 17b0 f2bc 7acc a93d
00000250: 6fbb dfbd 5504 dfbd 3571 3dbe b49e c4bd
00000260: 1d95 ba3d 4239 afbb c680 ed3d 4e2f a2ba
00000270: a712 f5bd eeea e6bd 5dc7 923d f70f 0fbe
00000280: 4f89 6ebd e604 333d c565 d53b fbf4 8e3d
00000290: 3c19 0dbd 0fd7 233e 67bb 203e 2a47 6dbc
000002a0: 8dfd 93bd 19aa a1bd f376 843c 7a19 573d
000002b0: adda d3bd 3bd7 68bd 385d e73d 1133 5a3d
000002c0: b39d 1fbe 3c2a 373e eeda 19be e219 f2bd
000002d0: 9e79 6abd 46e6 fc38 f03b f0bb 00a6 0c3d
000002e0: eb07 7c3d baab dabd 1e24 d63d 5528 1c3e
000002f0: 02a9 7abd a757 4bbd c58d 8bbc 49d5 c13d
00000300: 9db4 d43d a0f4 94bd 85b9 0fbe 5a77 e9bd
00000310: fcd8 e3bd ff2b dbbd b712 0f3c 53c7 fcbd
00000320: b77b af3d 5f79 fd3d cd2a ef3d f4a0 20be
00000330: bd2e 7cbd 22ac 92bd 34dd e3bd 7f0d b4bd
00000340: db7f 3bbc 55ce fabd 2e14 5ebc 1ea7 2bbd
00000350: cf13 0e3d e581 fcbd 0b5d c6bd f2f6 71bd
00000360: dab7 c23c 6f05 babd 1e23 33be a0cf 04be
00000370: e2f2 2fbe d55d 073e 8069 e3bd 512c bbbc
00000380: 8d62 283d 1bc5 1fbd 6f44 8fbd 6b6d 683d
00000390: 8631 bc3d 180e 873b 63b1 4bbc 18c1 37bd
000003a0: 2505 153e 2be9 bf3c 1e54 3fbe 23f1 863d
000003b0: 3455 d73d 26f5 04be 0c00 24be ea82 203d
000003c0: 6d46 543d dfcd 783d d3d1 ddbc c9ab 123e
000003d0: 613b 66bd 5f39 413e ee73 1cbe fcb6 00be
000003e0: e498 123d f327 19bc 699f b13d 44f5 233e
000003f0: 9a4a 003e 3554 d9bd 6bbd fe3d e2c8 273e
0.17238624 -0.03047292 -0.14807457 0.016508317 0.17407419 0.1567746 -0.13311985 -0.16324995
-0.112138376 0.026753167 0.02538417 -0.084721066 -0.053170443 -0.12094139 -0.15453215 -0.14666678
-0.047217444 0.10988766 -0.07048862 -0.08190158 -0.13751376 -0.06318409 -0.12919088 0.110753804
-0.17684604 -0.12109219 -0.035994153 -0.13947359 -0.07172025 0.15313174 0.07707149 0.03119417
-0.07924551 -0.01566892 -0.08920794 -0.15858139 -0.112513125 0.15196316 -0.13333082 -0.11165966
0.014549297 -0.061731886 -0.16928305 -0.078457 0.12162608 -0.16212921 0.07055636 0.07969531
0.15705287 -0.13084495 0.12889607 -0.10978458 -0.15847056 0.17041111 0.17991754 0.076230906
-0.03635155 -0.075068 0.13873988 0.012341967 -0.13970092 -0.015607321 -0.09191081 -0.17543426
-0.02529864 0.09576311 -0.15469156 -0.15045528 -0.11154488 0.015039871 -0.08778449 -0.037413158
0.100214936 0.015395213 0.013035877 0.16549638 0.057398535 0.19831643 -0.16580307 -0.023521094
-0.13882262 -0.028741535 0.11147854 0.10740532 0.13705029 -0.08346089 -0.017101029 0.008306575
0.1177534 0.072282694 0.098664664 -0.04826199 -0.07758073 -0.01574271 -0.007615986 0.023573989
0.14989291 0.07125128 0.0605717 -0.079277664 0.119233355 -0.016355138 0.1310884 -0.026487952
-0.15301234 0.08216661 -0.11078535 -0.06539707 0.14436005 -0.07992933 0.1467976 0.06360956
-0.064786665 0.06366732 0.0595001 0.026962547 -0.17999129 0.07776524 -0.06630866 0.09066821
0.07063576 -0.1667007 0.06667679 0.16740727 -0.17341268 0.15506043 0.101022735 -0.17196482
-0.05258742 0.10504405 0.094030105 0.047042705 0.116387494 -0.11695245 0.07567696 -0.015604075
-0.10948623 0.13326393 0.18514645 0.09231949 0.17141335 0.1718024 -0.061839268 0.057534616
-0.004408227 0.14609861 -0.029624982 0.08290954 -0.10924422 -0.10889498 -0.18500216 -0.09600583
0.09110472 -0.005347402 0.11596827 -0.0012373717 -0.11966448 -0.11275278 0.07166932 -0.13970934
-0.058236416 0.043705843 0.006512376 0.0698032 -0.034447894 0.16000007 0.15696488 -0.014482299
-0.07226095 -0.07893772 0.01617 0.05251453 -0.103444435 -0.056845885 0.11297077 0.053271357
-0.15587501 0.17887205 -0.15024921 -0.11821343 -0.05724489 0.00012059188 -0.007331364 0.034337997
0.06153099 -0.106772855 0.104561076 0.1524976 -0.061196335 -0.04964414 -0.017035374 0.09464509
0.10386012 -0.07273221 -0.14035614 -0.11399718 -0.11125371 -0.10701751 0.008732489 -0.123427056
0.085685186 0.12376665 0.116780855 -0.15686399 -0.06156801 -0.07161738 -0.111261755 -0.08791637
-0.011444057 -0.12246386 -0.013554616 -0.041907422 0.03468686 -0.12329463 -0.09685715 -0.059073396
0.023769308 -0.090830676 -0.17493865 -0.12969828 -0.17182496 0.13219388 -0.11104107 -0.02284828
0.04110961 -0.039006334 -0.069954745 0.056744974 0.09189133 0.004121553 -0.012432429 -0.044861883
0.14552744 0.023426613 -0.18684432 0.06588962 0.10514298 -0.12984142 -0.16015643 0.03918735
0.051824976 0.06074321 -0.027077591 0.14323343 -0.056208972 0.18869542 -0.15278599 -0.12569803
0.03579034 -0.009347904 0.08672983 0.1601153 0.12528458 -0.10611764 0.12438472 0.16385224

bias f4 [32]
00000000: c623 94bd 0ace 21bb d9ba c53c 2e0f 133d
00000010: 65df 323e 48a9 07bd e8cb 5fbc c0ac a9bd
00000020: 4d5d b13d 5d63 1c3c 4007 373e 9027 e43d
00000030: 293f 263e 9b02 2fbc 5145 66bd acbf 10be
00000040: 401f 07bd 1c17 9e3d ec75 123c aaaf c13d
00000050: 7a14 df3d 61f0 1d3e 2f85 f0bd 3e6d 74bd
00000060: 4d9d c9bd b468 3cbe a9be f6bd 0d0a f83d
00000070: c219 b0bd 0969 06be 29cf 21bd f3f0 d83d
-0.07233386 -0.002468946 0.024136947 0.03590315 0.17468031 -0.033120424 -0.013659455 -0.082849026
0.08660374 0.009545174 0.1787386 0.111403584 0.16235031 -0.010681774 -0.05621845 -0.14135617
-0.032988787 0.077192515 0.008939248 0.094573334 0.108925775 0.15423729 -0.11744153 -0.059674494
-0.09844456 -0.18399316 -0.12048084 0.12111292 -0.08598663 -0.13126005 -0.039504204 0.105928324

weight f4 [32, 32]
00000000: aeb6 863d be6e 9a3c e7c2 9f3d 4e90 b83c
00000010: 65ae 83bd 6124 043e 5d0c a43b 8c32 34bd
00000020: d184 243e 1750 e83d ac4b 24be 5068 ce3d
00000030: 1c20 66bb e03b 09be 9ecc 503c 02cb c5bc
00000040: 1e12 0d3e b9b0 74bb ae74 aabd 7784 93bd
00000050: d206 fbbd e8f4 413d a409 213d 7111 12bc
00000060: 4130 ec3d f777 3cbc 3ddc 56bd c4ef 183e
00000070: 5bed 273e 5dcc 913b 71a4 17be fa50 d9bd
00000080: b7cd b0bc 7972 92bd e88a 9b3d 00e2 1d3e
00000090: 9c48 273c 2f51 d33d d850 f63d 9f97 b4bd
000000a0: 90c3 273e c172 143d 0776 fdbd 03b5 063e
000000b0: 7a2b 2f3e 414a 3abe 2049 0d3e 3f6e 613c
000000c0: d3b5 233e 282b 33bd 0162 1a3e 0e6c 2dbe
000000d0: 31d9 593d d927 7d3d 83bf 5bbc 16c1 ec3c
000000e0: 1ca6 e73d 3c97 06bc 7e06 17be 41b4 b2bd
000000f0: 2bdf 873d a275 223e b196 e33d 1b6f c4bc
00000100: 47b0 1d3e 2ce4 81bc 9aa2 e33d 6df1 0c3e
00000110: 7c51 bfbc f673 06be fc91 f33d a081 0ebe
00000120: bdba b63c f053 093e ed6b 193d 0669 9cbc
00000130: f6b7 c5bc d30d c4bc f38f 5b3d 1e11 8cbc
00000140: 5a45 01be 3eeb debd 1550 b0bd b49d a4bd
00000150: 1f11 8abd f0e1 fabd 67af eb3d ac17 04be
00000160: f4e1 80bd 9653 09be 8ed9 073e 08f5 273e
00000170: bf7b 2d3e 0519 cfbd 9e83 e7bd 1449 2dbe
00000180: b019 acbd d1e4 393c 0252 5e3d c466 e23d
00000190: ff73 dabd fcd1 083e 0625 17be a076 df3d
000001a0: fe40 483c e903 223c c794 0cbe 9bf4 c6bc
000001b0: 650c c8bd 20bf f2bd 16ba 07bd 9c88 e4bb
000001c0: ecd9 713d dd47 aa3d 2e85 97bd 7b25 11be
000001d0: 5de0 33be fac6 f9bc 9071 c8bd e3b9 3a3d
000001e0: 12e1 33bc 6a2f e53d 384d 453d bf47 163d
000001f0: f4e0 843d 6aa0 85bd 72e1 173e 6777 3fbe
00000200: 7ac3 b8bd 839b 4d3e b2b8 3d3d 979a aebd
00000210: f031 09bb 5ef1 fa3b c99d a53c a5ba b33d
00000220: e03e 3a3e 6a31 15be 2fd0 0f3e 919d a9bd
00000230: a4dd 203d 749e 123e f551 06be e76c b33d
00000240: 39f0 aebd 53fd dfbd 2683 b03d 137f 193b
00000250: 302c 963d af68 db3d 40e1 fdbd 6b3a 5f3d
00000260: 171e febd fee3 ce3d 6e8b ea3d 012a 2ebd
00000270: be75 af3c 73ee 81bd 330b a63d 45be 24be
00000280: dbe7 24be c1c8 14be b993 e5bd e410 c4bd
00000290: 5b62 883d ca04 e83d c9c2 1cbe 0706 93bd
000002a0: 4ac8 143e 7b35 143e 7c48 783c 8811 893d
000002b0: 30af 803c 44af 903d 61e7 17bd b8f1 1abe
000002c0: 68cd a33d 2f10 21be 987b ef3d fd37 f83c
000002d0: 3061 14be ea73 01be 79a2 3c3e ed92 043d
000002e0: 85c0 aebd 4642 fbbc 49f4 febd 9288 54bd
000002f0: 552e e43d cd53 d6bd e406 893d cad0 1d3a
00000300: 06a8 cfbd 641e e53d b79a 093d 5e7c 0a3d
00000310: d1bf 7bbd 4d37 e8bc 8ac4 02be 5b83 043e
00000320: 58a2 a3bd 5d57 d93c ed17 f63d 6c0b 893d
00000330: e9a2 2dbe 874c 313e a911 963d 6339 2c3c
00000340: f40b 88bd 11c6 f2bd cd62 483e 8da9 36be
00000350: 5b5f 2bbc c2de 16be cc0f e3bd 9be5 173d
00000360: eff0 9dbd 6b85 8c3d 85bd cdbd 531c 24bd
00000370: b7bd 1bbd 7847 0abd 17ef 5dbd e9ab 18bd
00000380: 048b 05be bcf7 c73d 13c9 77bd 78f4 77bd
00000390: 5849 013d fe21 313e 15dc 8ebd 1f40 05bd
000003a0: cc25 513d 1f7f 66bd bb56 d63d 544a 433e
000003b0: e691 643d b66b 0e3e 2404 e93c b1bc 2a3c
000003c0: f637 0d3e fe88 2c3d 5845 dd3d 1917 bdbd
000003d0: 5514 02be d389 dabd 279a 043e 7218 893d
000003e0: 5e66 c7bd 1ea1 cbbd 6b44 4f3d d415 25bd
000003f0: 0176 943d 1e68 30bc d594 1d3e fb16 f83d
0.06577812 0.018851634 0.078008465 0.022529747 -0.064297475 0.12904502 0.0050063566 -0.043993518
0.1606629 0.11343401 -0.16044492 0.1007849 -0.0035114354 -0.13401747 0.012744097 -0.024144653
0.13776442 -0.003733678 -0.08323036 -0.07203 -0.1225716 0.0473527 0.039315835 -0.008915291
0.11532641 -0.011503211 -0.05245613 0.14935213 0.16399138 0.004449411 -0.14808823 -0.10611148
-0.021582467 -0.0715074 0.07594854 0.15418243 0.0102101825 0.10318219 0.120271385 -0.08817982
0.16383195 0.03624225 -0.123760276 0.13154988 0.17106429 -0.18192388 0.13797426 0.013759195
0.15987329 -0.04374233 0.15076448 -0.16935751 0.053185645 0.06180558 -0.013412359 0.028900664
0.1131098 -0.008214768 -0.1474857 -0.08725787 0.06634363 0.15865186 0.111127265 -0.02397876
0.15399276 -0.015855871 0.11114998 0.13763972 -0.023354284 -0.13130173 0.11893079 -0.13916636
0.02230584 0.13410926 0.03745644 -0.019093048 -0.024135571 -0.023932373 0.053604078 -0.017098006
-0.12624112 -0.10884713 -0.086090244 -0.08037892 -0.06741547 -0.122501254 0.11508065 -0.12899655
-0.06293097 -0.13410792 0.13266584 0.16402066 0.16941737 -0.10112194 -0.11304401 -0.16922408
-0.08403337 0.011346058 0.054277427 0.11054757 -0.10666656 0.13361353 -0.14760217 0.10911298
0.012222527 0.009888628 -0.13728629 -0.024286559 -0.09767989 -0.118528605 -0.03313645 -0.006974293
0.059045717 0.08314488 -0.07398449 -0.14174454 -0.17566057 -0.030490387 -0.09787285 0.04558743
-0.010978954 0.11190684 0.048169345 0.036689516 0.06488219 -0.06524737 0.14832094 -0.18697892
-0.09021659 0.20078854 0.046318717 -0.085255794 -0.0020934306 0.0076581677 0.02021684 0.08775834
0.18188047 -0.14569631 0.1404426 -0.082820065 0.039273873 0.14318258 -0.13117202 0.08761006
-0.085419126 -0.1093699 0.086187646 0.002342169 0.07332647 0.10713326 -0.12396479 0.05449907
-0.12408083 0.1010208 0.11452375 -0.042520527 0.021418449 -0.06344309 0.08107605 -0.16088207
-0.16104071 -0.14529707 -0.112098165 -0.09573534 0.06659385 0.113290384 -0.1530868 -0.07178884
0.14529529 0.14473526 0.015154 0.06692797 0.015708536 0.07064679 -0.037085894 -0.15131271
0.079981625 -0.1572883 0.116934955 0.030300135 -0.14490199 -0.12641874 0.18421353 0.03236668
-0.08532814 -0.03067125 -0.124489374 -0.051888056 0.1114165 -0.104652025 0.066907674 0.00060201867
-0.1013947 0.11187437 0.033594813 0.033810012 -0.061462227 -0.028346682 -0.12770286 0.12940733
-0.07989949 0.026530916 0.12016282 0.06691632 -0.16956677 0.17314349 0.07327587 0.010511729
-0.06642905 -0.118541844 0.1956894 -0.17838116 -0.010459746 -0.14733413 -0.110869974 0.037084203
-0.0771197 0.06861385 -0.100459136 -0.040066075 -0.038022723 -0.033759564 -0.054183092 -0.03727332
-0.13041312 0.097640485 -0.060494494 -0.060535878 0.031564087 0.17298123 -0.06975571 -0.032531854
0.051061437 -0.056273576 0.10465761 0.19071323 0.055803202 0.13908276 0.028444357 0.010420964
0.13790879 0.042122833 0.10804242 -0.09232921 -0.12703069 -0.10670819 0.1294943 0.06694116
-0.09736322 -0.0994284 0.050602358 -0.04030402 0.0724907 -0.010767011 0.15388806 0.12113758

bias f4 [32]
00000000: 17f0 023e 2a22 a53d 1253 c43b 6ffc 17bd
00000010: 62ce 243d f252 be3d 302e 24be d307 3dbb
00000020: f1f3 d03d c3b9 80bd f409 083e 3984 25be
00000030: f2e9 0f3e d653 14be 7431 a23d 3f5f 05be
00000040: a133 5b3c bb90 9b3d 2902 0a3e 611f f0bd
00000050: 1f25 6fbd 2221 0abe ac91 873c 1677 443d
00000060: 1437 f33d d8cb a23d d928 0fbd a832 073e
00000070: 1ebb 493d 1960 20be 453b 95bd 21fc 363c
0.127869 0.08063157 0.005991348 -0.037105974 0.040235884 0.09293164 -0.16033244 -0.0028843775
0.10202778 -0.06285431 0.13285047 -0.1616372 0.14054087 -0.14485106 0.07919589 -0.13024615
0.0133790085 0.075959645 0.13477387 -0.11724735 -0.05838501 -0.13489202 0.016548954 0.04796513
0.1187574 0.07949036 -0.034951065 0.13202918 0.049250714 -0.15661658 -0.072866954 0.011168511

weight f4 [32, 32]
00000000: 9fc6 e6bc 7367 3e3d e189 033e 0c07 443b
00000010: 9122 5b3c 6dd2 1bbe 491a b9bd e236 d93c
00000020: ddb7 6ebd b308 a23d 73f1 293e 28db 0dbe
00000030: 5046 b3bd d765 0dbe 9c6b 7c3d 11e1 a5bd
00000040: fac8 07be 5622 493d 925a 6ebd f9ba 78bd
00000050: d9d5 18be 3fab 933c 6216 42be 06e6 333b
00000060: 36c8 bf3d 5774 a73d c2e2 913d c109 b8bd
00000070: 8722 12be f3f6 953d 541b febd 7d9c 9eb8
00000080: de59 24bd 2632 b8bc 00d5 aabd a394 0d3e
00000090: 3a61 093e 58bb 8dbd f1e1 013e 1d53 273d
000000a0: 86f5 643a 5415 93bd 1f73 65bd 40dc 253d
000000b0: 9f67 ae3c a5ab b13d ff57 a43d fc1f 223e
000000c0: 5948 b3bd 1d7c 99bd 8f08 003b ba23 b7bd
000000d0: 4223 e53d 5119 f83d b8fb 21bd e0ae 5e3d
000000e0: eda0 873c ddec 1abe 86d9 643d fb6e a33d
000000f0: d153 a0bd a217 f03c b22c b53d e7f7 71bd
00000100: d018 0cbe 7873 363e 1ef6 c93d fc68 b13d
00000110: 2219 21be 65dd e0ba 6d0a d93d c69e dd3d
00000120: dc91 02be 2f5b 91bc 68e7 0c3e 771b fa3d
00000130: 936e c1bd 8775 2bbe 7093 abbd 3681 de3d
00000140: e5da 9c3c 7e0b 4dbd 2800 993d a963 36bd
00000150: 20a4 083e b70d 023e ff2f ae3d 5d19 023c
00000160: f53c 0dbe a675 503d c2fd 653d 3583 c1bd
00000170: 620a d13b 3871 acbb 19c2 1ebd 6d9a 03be
00000180: c40b 773c 7d3c 81bd 65f5 b73d 1dd0 c0bd
00000190: 270f 29bc 0709 c33d d9b5 ec3d 02c3 803d
000001a0: 6a43 1abe fac4 0dbe a086 083e e3f1 0d3d
000001b0: 724c 063e 0b49 bbbd 8d3b 103e ec83 11bd
000001c0: 1ece bb3d f226 143e fda4 0a3e bf8f 0c3c
000001d0: 5814 073d 8f2d e33d 59a6 be3d 45bc 5ebd
000001e0: 734e dc3d 8dbb 82bc a0bf b1bd fce2 d53c
000001f0: c546 143e 62dc b53c 9f03 103e 903b df3d
00000200: f99d 86ba dee3 053e d6d6 1a3d 1f78 e73b
00000210: 7b9f 473d e2a3 17be 34b7 afbd da98 d13c
00000220: aa3f 31bd 6971 073e 556f 2fbd 1ebe 9cbd
00000230: a63b d13d 3ec8 933c 57f4 e2bd 469a 47bc
00000240: ae79 8f3d dfc4 563d 8593 27be f9fd acbc
00000250: f93d e93c 7378 f1bd b1d2 fabd 59e2 a8bd
00000260: cc3b c43d 74d3 c63d 410d 3fbe ed0c 13be
00000270: 8d7a 0bbe 8870 bebd 93cd c03c 922a 13bd
00000280: 785b a8bd a6fe c93c e18e fc3d 9a2d 883d
00000290: 7beb ce3d 921f 633d 0eaf 063e 83b0 143e
000002a0: 59bd 453e 1519 c1bc abb8 11be 8522 a3bb
000002b0: 55d3 063e 6397 bb3d 359a 39bd 4eae bbbd
000002c0: f9d5 103e 1dfb 823c fe57 163d 1df8 62bd
000002d0: 4861 083d f910 1fbe 7892 f73d 6221 893d
000002e0: 42a9 20be 3f71 0ebe c436 c73c d2a3 d93d
000002f0: 8242 19bd ad75 953d f4df 323d 0617 0ebd
00000300: ec4b 1ebd fb47 113d a6e7 6f3d 2725 e6bc
00000310: 896e 20bd e2a0 bfbd 066f 2cbe 9759 76bb
00000320: f88d 24bd a975 ea3c 3097 df3d ed73 58bd
00000330: 6c9c b6bd 52a5 183e d25c 18be 8860 6dbd
00000340: bfb8 1b3d 9b6b 253e 2af0 2cbd 2b94 a1bd
00000350: 8992 f03d 1fa2 a5bd 05a6 043e 2304 d03c
00000360: 038b 003e 27bc 283e ffc9 473e 0c07 46ba
00000370: 7907 debd a40d 3bbe 42b5 cebd d9fe d1bd
00000380: 29c2 543d 6074 a73d f0c5 0dbe 52ea 8d3d
00000390: f470 8abd 87bb 0f3e 5bba 6c3d b986 95b9
000003a0: 7aad 27be 218c 08bd e6c0 f5bd d25f d3bc
000003b0: f493 82bd bead 1cbe c484 d03d 3a91 0abd
000003c0: 1df2 623d bd46 9fbd d8e4 26be cf25 58bd
000003d0: 4a6a d9bc aca2 553d ffce 7fbd b8c5 db3c
000003e0: ab9e 603c 59fc c23d fa64 8bbd dfd1 35be
000003f0: 4d94 1bbe 990e a1bd 757c 65bd 514c 59bd
-0.028170882 0.046485376 0.12845565 0.0029911427 0.0133749405 -0.1521699 -0.090382166 0.026515428
-0.058280814 0.079118155 0.16596012 -0.13853133 -0.087536454 -0.1380838 0.06162606 -0.08099569
-0.1326026 0.04910501 -0.058191843 -0.060725186 -0.14925326 0.018025992 -0.18953851 0.0027450337
0.09364359 0.08176487 0.07123329 -0.089862354 -0.14270984 0.073224925 -0.12407556 -7.563175e-05
-0.040124767 -0.02248485 -0.08341408 0.13826232 0.13415995 -0.069204986 0.12683846 0.040850747
0.00087340956 -0.071818024 -0.05601799 0.04049325 0.021289645 0.08675317 0.080245964 0.15832514
-0.087540336 -0.07494376 0.0019536351 -0.08942361 0.111883655 0.12114204 -0.0395467 0.054365993
0.016556228 -0.15129419 0.05587151 0.07980152 -0.07828487 0.029308144 0.088464156 -0.05907431
-0.1368134 0.17817485 0.09861396 0.08662602 -0.15732244 -0.0017155824 0.10597692 0.10821299
-0.12750953 -0.017743675 0.1376015 0.1221227 -0.094449185 -0.16744052 -0.08377731 0.10864489
0.019147346 -0.050059788 0.07470733 -0.044528637 0.13343859 0.12700544 0.08505248 0.007940617
-0.13792785 0.05089345 0.056150205 -0.09448854 0.0063794116 -0.00526252 -0.038759325 -0.12851878
0.015078489 -0.06310365 0.08982352 -0.094146945 -0.010318554 0.09523206 0.11558122 0.06287195
-0.15064779 -0.13844672 0.13332605 0.03465451 0.13115099 -0.09144791 0.14085217 -0.0355262
0.09170173 0.14467981 0.135395 0.008579194 0.032978386 0.11092674 0.09309072 -0.054378767
0.107571505 -0.015958572 -0.08679128 0.026109211 0.14480121 0.022199813 0.14063881 0.109000325
-0.0010270468 0.13075206 0.03780254 0.00706388 0.048736077 -0.1480861 -0.08579865 0.02558558
-0.043273605 0.13226856 -0.042830784 -0.076534495 0.10216455 0.018039819 -0.110817604 -0.012182778
0.070056304 0.052433845 -0.16364868 -0.021117197 0.028471934 -0.11790552 -0.122472174 -0.082462974
0.09581718 0.097083 -0.186574 -0.143604 -0.13620968 -0.092988074 0.023535525 -0.03592927
-0.08220571 0.024657559 0.123319395 0.06649323 0.10103508 0.05545003 0.13152716 0.14520459
0.19310512 -0.02357153 -0.14230601 -0.0049784803 0.13166554 0.09159734 -0.04531308 -0.09164105
0.14144124 0.01598888 0.03670501 -0.0554124 0.0332959 -0.15533818 0.120884836 0.066958204
-0.15689567 -0.13910387 0.024318106 0.10626949 -0.037416942 0.072978355 0.04367061 -0.034689926
-0.038646623 0.035469037 0.058570527 -0.028093887 -0.039167915 -0.09356858 -0.16839227 -0.003759002
-0.040174454 0.028620558 0.109175086 -0.05284493 -0.08916554 0.14906815 -0.14879158 -0.057953387
0.038017984 0.1615433 -0.042221226 -0.07889589 0.11746699 -0.08087563 0.12953956 0.025392598
0.12553029 0.16478024 0.19510649 -0.00075541507 -0.10841269 -0.18266922 -0.10093166 -0.102536865
0.051942978 0.08176494 -0.13845038 0.06929459 -0.06759825 0.1403638 0.05779491 -0.0002851987
-0.1637477 -0.033336762 -0.11999683 -0.025802527 -0.06375876 -0.15300652 0.10181573 -0.033829905
0.05540668 -0.07777164 -0.16298234 -0.052770432 -0.02653994 0.05215709 -0.062453266 0.026827678
0.013709704 0.09520788 -0.06806369 -0.1775584 -0.15193291 -0.078641124 -0.056026895 -0.053051297

bias f4 [32]
00000000: ad67 383c f4db 433d 0eb4 14bd 4e2b e33c
00000010: f2e7 e03d 1487 a23d 88b2 003e 7e3f 8c3d
00000020: a78a cf3c 7f2d a13d ae02 283d cba7 3abd
00000030: d234 273d 71bd b0bb e437 8bbd 6a8c 01bd
00000040: 266a a7bd 1318 cfbd 4e33 a1bd 27d5 00bd
00000050: 2111 68bd 2fae 21bd 01d7 fcbd 51b4 ccbc
00000060: 74c6 593d 8d40 a53d b184 9dbd 9f5d 1e3e
00000070: f566 093c 575f e93d f5d3 2d3d fbc1 25be
0.011255187 0.047817186 -0.036304526 0.02773061 0.1098174 0.0793592 0.12568104 0.06848048
0.02533467 0.07870006 0.04101818 -0.045570176 0.040821858 -0.005393677 -0.0679777 -0.03162805
-0.08174543 -0.10112014 -0.07871114 -0.031453278 -0.05665696 -0.039472755 -0.12345696 -0.024988325
0.053167775 0.08068953 -0.076913245 0.15465401 0.008386363 0.11395138 0.042438466 -0.16187279
