3_PatchTST/Best_PINN_PatchTST.pth (torch, 320639 bytes, 140 tensors)

affine_weight f4 [3]
0	0x3f8a366d	1.079786
1	0x3f851482	1.0396883
2	0x3f82c558	1.0216475

affine_bias f4 [3]
0	0xbc8fa075	-0.017532567
1	0x3d83a308	0.0642758
2	0xbd869c05	-0.06572727

mean f4 [206, 1, 3]
0	0x3d292699	0.041296575
1	0x00000000	0.0
2	0x3f0b8e9f	0.545145
3	0x3d27a7fd	0.04093169
4	0x00000000	0.0
5	0x3f0b8e9f	0.545145
6	0x3d26d4d6	0.04073032
7	0x00000000	0.0
8	0x3f0b8e9f	0.545145
9	0x3d261af3	0.040553045
10	0x00000000	0.0
11	0x3f0b8e9f	0.545145
12	0x3d257882	0.04039813
13	0x00000000	0.0
14	0x3f0b8e9f	0.545145
15	0x3d25bee0	0.040465236
16	0x00000000	0.0
17	0x3f0b8e9f	0.545145
18	0x3d269cdc	0.040676937
19	0x00000000	0.0
20	0x3f0b8e9f	0.545145
21	0x3d26ff3c	0.040770754
22	0x00000000	0.0
23	0x3f0b8e9f	0.545145
24	0x3d264470	0.04059261
25	0x00000000	0.0
26	0x3f0b8e9f	0.545145
27	0x3d25c9bb	0.04047559
28	0x00000000	0.0
29	0x3f0b8e9f	0.545145
30	0x3d25a8a7	0.040444043
31	0x00000000	0.0
32	0x3f0b8e9f	0.545145
33	0x3d25818f	0.04040676
34	0x00000000	0.0
35	0x3f0b8e9f	0.545145
36	0x3d2552a5	0.04036202
37	0x00000000	0.0
38	0x3f0b8e9f	0.545145
39	0x3d25a8ad	0.040444065
40	0x00000000	0.0
41	0x3f0b8e9f	0.545145
42	0x3d2686aa	0.04065577
43	0x00000000	0.0
44	0x3f0b8e9f	0.545145
45	0x3d26494d	0.04059725
46	0x00000000	0.0
47	0x3f0b8e9f	0.545145
48	0x3d25caf7	0.040476765
49	0x00000000	0.0
50	0x3f0b8e9f	0.545145
51	0x3d2567b3	0.0403821
52	0x00000000	0.0
53	0x3f0b8e9f	0.545145
54	0x3d25546e	0.04036372
55	0x00000000	0.0
56	0x3f0b8e9f	0.545145
57	0x3d25ec04	0.040508285
58	0x00000000	0.0
59	0x3f0b8e9f	0.545145
60	0x3d268907	0.040658023
61	0x00000000	0.0
62	0x3f0b8e9f	0.545145
63	0x3d279b5b	0.040919643
64	0x00000000	0.0
65	0x3f0b8e9f	0.545145
66	0x3d282484	0.04105045
67	0x00000000	0.0
68	0x3f0b8e9f	0.545145
69	0x3d28b1e1	0.041185264
70	0x00000000	0.0
71	0x3f0b8e9f	0.545145
72	0x3d289e09	0.04116634
73	0x00000000	0.0
74	0x3f0b8e9f	0.545145
75	0x3d2872bd	0.041125048
76	0x00000000	0.0
77	0x3f0b8e9f	0.545145
78	0x3d28d300	0.04121685
79	0x00000000	0.0
80	0x3f0b8e9f	0.545145
81	0x3d2930d8	0.041306347
82	0x00000000	0.0
83	0x3f0b8e9f	0.545145
84	0x3d298946	0.04139068
85	0x00000000	0.0
86	0x3f0b8e9f	0.545145
87	0x3d29da7c	0.04146813
88	0x00000000	0.0
89	0x3f0b8e9f	0.545145
90	0x3d2a596b	0.041589182
91	0x00000000	0.0
92	0x3f0b8e9f	0.545145
93	0x3d2ad559	0.04170737
94	0x00000000	0.0
95	0x3f0b8e9f	0.545145
96	0x3d2aaa0a	0.041666068
97	0x00000000	0.0
98	0x3f0b8e9f	0.545145
99	0x3d2a626e	0.041597776
100	0x00000000	0.0
101	0x3f0b8e9f	0.545145
102	0x3d2a6ad4	0.041605785
103	0x00000000	0.0
104	0x3f0b8e9f	0.545145
105	0x3d2af3fb	0.041736584
106	0x00000000	0.0
107	0x3f0b8e9f	0.545145
108	0x3d2bc720	0.041937947
109	0x00000000	0.0
110	0x3f0b8e9f	0.545145
111	0x3d2b8f30	0.0418846
112	0x00000000	0.0
113	0x3f0b8e9f	0.545145
114	0x3d2aad9c	0.041669473
115	0x00000000	0.0
116	0x3f0b8e9f	0.545145
117	0x3d2a3bed	0.041561056
118	0x00000000	0.0
119	0x3f0b8e9f	0.545145
120	0x3d2995e4	0.041402712
121	0x00000000	0.0
122	0x3f0b8e9f	0.545145
123	0x3d28bb84	0.041194454
124	0x00000000	0.0
125	0x3f0b8e9f	0.545145
126	0x3d28510a	0.04109291
127	0x00000000	0.0
128	0x3f0b8e9f	0.545145
129	0x3d273e22	0.04083074
130	0x00000000	0.0
131	0x3f0b8e9f	0.545145
132	0x3d26266a	0.04056398
133	0x00000000	0.0
134	0x3f0b8e9f	0.545145
135	0x3d247e50	0.040159523
136	0x00000000	0.0
137	0x3f0b8e9f	0.545145
138	0x3d22e977	0.03977343
139	0x00000000	0.0
140	0x3f0b8e9f	0.545145
141	0x3d227f99	0.039672468
142	0x00000000	0.0
143	0x3f0b8e9f	0.545145
144	0x3d21fbdd	0.039546836
145	0x00000000	0.0
146	0x3f0b8e9f	0.545145
147	0x3d204722	0.039130338
148	0x00000000	0.0
149	0x3f0b8e9f	0.545145
150	0x3d1ea9dd	0.038736213
151	0x00000000	0.0
152	0x3f0b8e9f	0.545145
153	0x3d1db2a0	0.03850043
154	0x00000000	0.0
155	0x3f0b8e9f	0.545145
156	0x3d1d616e	0.038422994
157	0x00000000	0.0
158	0x3f0b8e9f	0.545145
159	0x3d1d2b52	0.03837139
160	0x00000000	0.0
161	0x3f0b8e9f	0.545145
162	0x3d1c022d	0.038088012
163	0x00000000	0.0
164	0x3f0b8e9f	0.545145
165	0x3d1acf6a	0.03779546
166	0x00000000	0.0
167	0x3f0b8e9f	0.545145
168	0x3d1993a1	0.037494306
169	0x00000000	0.0
170	0x3f0b8e9f	0.545145
171	0x3d18bce4	0.037289515
172	0x00000000	0.0
173	0x3f0b8e9f	0.545145
174	0x3d17ed5e	0.037091605
175	0x00000000	0.0
176	0x3f0b8e9f	0.545145
177	0x3d16984e	0.036766343
178	0x00000000	0.0
179	0x3f0b8e9f	0.545145
180	0x3d1561eb	0.036470335
181	0x00000000	0.0
182	0x3f0b8e9f	0.545145
183	0x3d144a36	0.036203586
184	0x00000000	0.0
185	0x3f0b8e9f	0.545145
186	0x3d134f60	0.03596437
187	0x00000000	0.0
188	0x3f0b8e9f	0.545145
189	0x3d138927	0.03601947
190	0x00000000	0.0
191	0x3f0b8e9f	0.545145
192	0x3d13b2af	0.036059078
193	0x00000000	0.0
194	0x3f0b8e9f	0.545145
195	0x3d134100	0.03595066
196	0x00000000	0.0
197	0x3f0b8e9f	0.545145
198	0x3d12324b	0.035692494
199	0x00000000	0.0
200	0x3f0b8e9f	0.545145
201	0x3d1085fc	0.035284027
202	0x00000000	0.0
203	0x3f0b8e9f	0.545145
204	0x3d10248e	0.03519111
205	0x00000000	0.0
206	0x3f0b8e9f	0.545145
207	0x3d10809d	0.035278905
208	0x00000000	0.0
209	0x3f0b8e9f	0.545145
210	0x3d105382	0.03523589
211	0x00000000	0.0
212	0x3f0b8e9f	0.545145
213	0x3d0f9d3f	0.03506207
214	0x00000000	0.0
215	0x3f0b8e9f	0.545145
216	0x3d0fa47d	0.035068978
217	0x00000000	0.0
218	0x3f0b8e9f	0.545145
219	0x3d106939	0.0352566
220	0x00000000	0.0
221	0x3f0b8e9f	0.545145
222	0x3d114907	0.035470035
223	0x00000000	0.0
224	0x3f0b8e9f	0.545145
225	0x3d11b8f0	0.03557676
226	0x00000000	0.0
227	0x3f0b8e9f	0.545145
228	0x3d125b61	0.035731677
229	0x00000000	0.0
230	0x3f0b8e9f	0.545145
231	0x3d13bb54	0.036067322
232	0x00000000	0.0
233	0x3f0b8e9f	0.545145
234	0x3d14904e	0.036270432
235	0x00000000	0.0
236	0x3f0b8e9f	0.545145
237	0x3d15f3dd	0.03660952
238	0x00000000	0.0
239	0x3f0b8e9f	0.545145
240	0x3d17e7ce	0.0370863
241	0x00000000	0.0
242	0x3f0b8e9f	0.545145
243	0x3d195296	0.037432276
244	0x00000000	0.0
245	0x3f0b8e9f	0.545145
246	0x3d1ada3d	0.037805784
247	0x00000000	0.0
248	0x3f0b8e9f	0.545145
249	0x3d1c8261	0.038210277
250	0x00000000	0.0
251	0x3f0b8e9f	0.545145
252	0x3d1da892	0.03849084
253	0x00000000	0.0
254	0x3f0b8e9f	0.545145
255	0x3d1ed7c9	0.038780008

stdev f4 [206, 1, 3]
0	0x3c00c24e	0.007858826
1	0x3b4f3e37	0.0031622776
2	0x3b4f3e37	0.0031622776
3	0x3bf99042	0.007616074
4	0x3b4f3e37	0.0031622776
5	0x3b4f3e37	0.0031622776
6	0x3bf3bc5c	0.0074382257
7	0x3b4f3e37	0.0031622776
8	0x3b4f3e37	0.0031622776
9	0x3befb820	0.0073156506
10	0x3b4f3e37	0.0031622776
11	0x3b4f3e37	0.0031622776
12	0x3bed5908	0.0072432794
13	0x3b4f3e37	0.0031622776
14	0x3b4f3e37	0.0031622776
15	0x3bee1f3d	0.0072669075
16	0x3b4f3e37	0.0031622776
17	0x3b4f3e37	0.0031622776
18	0x3bf136f3	0.007361287
19	0x3b4f3e37	0.0031622776
20	0x3b4f3e37	0.0031622776
21	0x3bf459f9	0.0074570146
22	0x3b4f3e37	0.0031622776
23	0x3b4f3e37	0.0031622776
24	0x3bf1371a	0.007361305
25	0x3b4f3e37	0.0031622776
26	0x3b4f3e37	0.0031622776
27	0x3beeb35c	0.007284565
28	0x3b4f3e37	0.0031622776
29	0x3b4f3e37	0.0031622776
30	0x3bee1851	0.0072660823
31	0x3b4f3e37	0.0031622776
32	0x3b4f3e37	0.0031622776
33	0x3bed81bf	0.007248133
34	0x3b4f3e37	0.0031622776
35	0x3b4f3e37	0.0031622776
36	0x3becf9e8	0.0072319396
37	0x3b4f3e37	0.0031622776
38	0x3b4f3e37	0.0031622776
39	0x3bec7f16	0.0072172983
40	0x3b4f3e37	0.0031622776
41	0x3b4f3e37	0.0031622776
42	0x3bed7441	0.0072465246
43	0x3b4f3e37	0.0031622776
44	0x3b4f3e37	0.0031622776
45	0x3bee3c9e	0.0072704097
46	0x3b4f3e37	0.0031622776
47	0x3b4f3e37	0.0031622776
48	0x3bef7cd5	0.0073085823
49	0x3b4f3e37	0.0031622776
50	0x3b4f3e37	0.0031622776
51	0x3bf1ad3f	0.007375389
52	0x3b4f3e37	0.0031622776
53	0x3b4f3e37	0.0031622776
54	0x3bf51ffe	0.0074806204
55	0x3b4f3e37	0.0031622776
56	0x3b4f3e37	0.0031622776
57	0x3bf55be1	0.0074877595
58	0x3b4f3e37	0.0031622776
59	0x3b4f3e37	0.0031622776
60	0x3bf5b233	0.0074980496
61	0x3b4f3e37	0.0031622776
62	0x3b4f3e37	0.0031622776
63	0x3bf86d23	0.0075813695
64	0x3b4f3e37	0.0031622776
65	0x3b4f3e37	0.0031622776
66	0x3bf86a11	0.0075810035
67	0x3b4f3e37	0.0031622776
68	0x3b4f3e37	0.0031622776
69	0x3bf8710c	0.0075818356
70	0x3b4f3e37	0.0031622776
71	0x3b4f3e37	0.0031622776
72	0x3bf51927	0.007479805
73	0x3b4f3e37	0.0031622776
74	0x3b4f3e37	0.0031622776
75	0x3bf23e8d	0.0073927105
76	0x3b4f3e37	0.0031622776
77	0x3b4f3e37	0.0031622776
78	0x3bf1b743	0.007376583
79	0x3b4f3e37	0.0031622776
80	0x3b4f3e37	0.0031622776
81	0x3bf14149	0.007362519
82	0x3b4f3e37	0.0031622776
83	0x3b4f3e37	0.0031622776
84	0x3bf0e263	0.007351206
85	0x3b4f3e37	0.0031622776
86	0x3b4f3e37	0.0031622776
87	0x3bf0a266	0.007343578
88	0x3b4f3e37	0.0031622776
89	0x3b4f3e37	0.0031622776
90	0x3bf13bfb	0.0073618866
91	0x3b4f3e37	0.0031622776
92	0x3b4f3e37	0.0031622776
93	0x3bf22cf8	0.0073906146
94	0x3b4f3e37	0.0031622776
95	0x3b4f3e37	0.0031622776
96	0x3bf0ef26	0.0073527275
97	0x3b4f3e37	0.0031622776
98	0x3b4f3e37	0.0031622776
99	0x3beff4ed	0.0073228986
100	0x3b4f3e37	0.0031622776
101	0x3b4f3e37	0.0031622776
102	0x3beff903	0.0073233857
103	0x3b4f3e37	0.0031622776
104	0x3b4f3e37	0.0031622776
105	0x3bf30ef5	0.0074175545
106	0x3b4f3e37	0.0031622776
107	0x3b4f3e37	0.0031622776
108	0x3bf7a728	0.0075577684
109	0x3b4f3e37	0.0031622776
110	0x3b4f3e37	0.0031622776
111	0x3bf6d0dd	0.0075322227
112	0x3b4f3e37	0.0031622776
113	0x3b4f3e37	0.0031622776
114	0x3bf51644	0.007479461
115	0x3b4f3e37	0.0031622776
116	0x3b4f3e37	0.0031622776
117	0x3bfa0311	0.00762976
118	0x3b4f3e37	0.0031622776
119	0x3b4f3e37	0.0031622776
120	0x3c002ba7	0.0078229075
121	0x3b4f3e37	0.0031622776
122	0x3b4f3e37	0.0031622776
123	0x3c0403af	0.008057519
124	0x3b4f3e37	0.0031622776
125	0x3b4f3e37	0.0031622776
126	0x3c067df4	0.0082087405
127	0x3b4f3e37	0.0031622776
128	0x3b4f3e37	0.0031622776
129	0x3c049a1d	0.008093384
130	0x3b4f3e37	0.0031622776
131	0x3b4f3e37	0.0031622776
132	0x3c02d1fc	0.0079846345
133	0x3b4f3e37	0.0031622776
134	0x3b4f3e37	0.0031622776
135	0x3bfab8a3	0.007651405
136	0x3b4f3e37	0.0031622776
137	0x3b4f3e37	0.0031622776
138	0x3bf1bb22	0.0073770443
139	0x3b4f3e37	0.0031622776
140	0x3b4f3e37	0.0031622776
141	0x3bf79760	0.007555887
142	0x3b4f3e37	0.0031622776
143	0x3b4f3e37	0.0031622776
144	0x3bfce16b	0.0077173016
145	0x3b4f3e37	0.0031622776
146	0x3b4f3e37	0.0031622776
147	0x3bf34212	0.0074236477
148	0x3b4f3e37	0.0031622776
149	0x3b4f3e37	0.0031622776
150	0x3bec379c	0.0072087776
151	0x3b4f3e37	0.0031622776
152	0x3b4f3e37	0.0031622776
153	0x3becbf68	0.007224966
154	0x3b4f3e37	0.0031622776
155	0x3b4f3e37	0.0031622776
156	0x3be6c5c3	0.007042618
157	0x3b4f3e37	0.0031622776
158	0x3b4f3e37	0.0031622776
159	0x3be07a84	0.0068505425
160	0x3b4f3e37	0.0031622776
161	0x3b4f3e37	0.0031622776
162	0x3be3163e	0.0069301417
163	0x3b4f3e37	0.0031622776
164	0x3b4f3e37	0.0031622776
165	0x3be67b7b	0.007033763
166	0x3b4f3e37	0.0031622776
167	0x3b4f3e37	0.0031622776
168	0x3bead025	0.007165926
169	0x3b4f3e37	0.0031622776
170	0x3b4f3e37	0.0031622776
171	0x3beb41a6	0.0071794568
172	0x3b4f3e37	0.0031622776
173	0x3b4f3e37	0.0031622776
174	0x3bebd015	0.007196436
175	0x3b4f3e37	0.0031622776
176	0x3b4f3e37	0.0031622776
177	0x3bea8527	0.0071569863
178	0x3b4f3e37	0.0031622776
179	0x3b4f3e37	0.0031622776
180	0x3beb4713	0.0071801036
181	0x3b4f3e37	0.0031622776
182	0x3b4f3e37	0.0031622776
183	0x3bedb40c	0.0072541293
184	0x3b4f3e37	0.0031622776
185	0x3b4f3e37	0.0031622776
186	0x3bf15e9f	0.007366016
187	0x3b4f3e37	0.0031622776
188	0x3b4f3e37	0.0031622776
189	0x3bf14d50	0.0073639527
190	0x3b4f3e37	0.0031622776
191	0x3b4f3e37	0.0031622776
192	0x3bf1b82b	0.007376691
193	0x3b4f3e37	0.0031622776
194	0x3b4f3e37	0.0031622776
195	0x3bf3acd8	0.007436376
196	0x3b4f3e37	0.0031622776
197	0x3b4f3e37	0.0031622776
198	0x3bfc7a56	0.0077050133
199	0x3b4f3e37	0.0031622776
200	0x3b4f3e37	0.0031622776
201	0x3c04a2ee	0.008095486
202	0x3b4f3e37	0.0031622776
203	0x3b4f3e37	0.0031622776
204	0x3c0488de	0.008089272
205	0x3b4f3e37	0.0031622776
206	0x3b4f3e37	0.0031622776
207	0x3c027429	0.007962265
208	0x3b4f3e37	0.0031622776
209	0x3b4f3e37	0.0031622776
210	0x3c03286e	0.008005245
211	0x3b4f3e37	0.0031622776
212	0x3b4f3e37	0.0031622776
213	0x3c05e3fb	0.008172031
214	0x3b4f3e37	0.0031622776
215	0x3b4f3e37	0.0031622776
216	0x3c05c214	0.008163948
217	0x3b4f3e37	0.0031622776
218	0x3b4f3e37	0.0031622776
219	0x3c02d686	0.007985717
220	0x3b4f3e37	0.0031622776
221	0x3b4f3e37	0.0031622776
222	0x3c000625	0.007813965
223	0x3b4f3e37	0.0031622776
224	0x3b4f3e37	0.0031622776
225	0x3c002578	0.007821433
226	0x3b4f3e37	0.0031622776
227	0x3b4f3e37	0.0031622776
228	0x3c008f2f	0.007846638
229	0x3b4f3e37	0.0031622776
230	0x3b4f3e37	0.0031622776
231	0x3bfcdd3f	0.0077168043
232	0x3b4f3e37	0.0031622776
233	0x3b4f3e37	0.0031622776
234	0x3bf9414e	0.007606662
235	0x3b4f3e37	0.0031622776
236	0x3b4f3e37	0.0031622776
237	0x3bf1fde8	0.0073850043
238	0x3b4f3e37	0.0031622776
239	0x3b4f3e37	0.0031622776
240	0x3bf088ed	0.0073405416
241	0x3b4f3e37	0.0031622776
242	0x3b4f3e37	0.0031622776
243	0x3bf66f7d	0.0075206147
244	0x3b4f3e37	0.0031622776
245	0x3b4f3e37	0.0031622776
246	0x3bffdd53	0.0078083663
247	0x3b4f3e37	0.0031622776
248	0x3b4f3e37	0.0031622776
249	0x3c067f2c	0.008209031
250	0x3b4f3e37	0.0031622776
251	0x3b4f3e37	0.0031622776
252	0x3c0a8cc3	0.008456412
253	0x3b4f3e37	0.0031622776
254	0x3b4f3e37	0.0031622776
255	0x3c0f0f5a	0.008731687

W_pos f4 [11, 32]
0	0x3bd36618	0.0064513795
1	0xbc89581f	-0.016765652
2	0x3cbc6cf9	0.023001181
3	0xbb3e9cd5	-0.0029085178
4	0xbcb81118	-0.022469088
5	0x3cd526ef	0.026019542
6	0x3c08d5a9	0.008351722
7	0xbb95461e	-0.0045554778
8	0xbc2065c2	-0.009789886
9	0x3c85f733	0.016353225
10	0xbd267d3c	-0.040646777
11	0xbbcffdce	-0.0063473945
12	0x3c913add	0.017728264
13	0x3c013b2a	0.007887641
14	0xbba51982	-0.005038441
15	0x3abce4e6	0.0014411479
16	0xbd0d0405	-0.03442766
17	0x3be6da0c	0.007045036
18	0xbc0c4889	-0.008562216
19	0x3c6b0a48	0.014345713
20	0xbcb22fa2	-0.021751229
21	0x3c32e65f	0.010919183
22	0xbd26faa9	-0.040766392
23	0xbc98734f	-0.01860967
24	0x3cb3c705	0.021945486
25	0xbd1f4b56	-0.038890205
26	0x3ab4b55c	0.001378696
27	0x3acc46e2	0.001558509
28	0xbc9d0b9c	-0.019170575
29	0xbb38a1e2	-0.0028172662
30	0x3cc234d2	0.023706827
31	0xbc289926	-0.01029042
32	0x3c587f9e	0.01321402
33	0x3c9358d9	0.017986702
34	0x39829248	0.0002490452
35	0xbca50108	-0.020142093
36	0xbc367c80	-0.011138082
37	0x3c15b72f	0.009137913
38	0xbd2587c0	-0.040412664
39	0xbbc8bd36	-0.0061260713
40	0x3caab203	0.020836836
41	0xbc07cd34	-0.00828867
42	0x3c78904a	0.01517112
43	0xbcdbe18f	-0.026840953
44	0x3d0c5ea5	0.034269948
45	0x3bbed745	0.005824002
46	0xbc2172b3	-0.009854007
47	0x3b9aeed7	0.004728179
48	0xbbf31f4b	-0.007419502
49	0x3babd2f8	0.0052436553
50	0x3d19a62d	0.037511993
51	0xbcd0f456	-0.025507133
52	0x3cf6fe9e	0.030150708
53	0xbcb3c61c	-0.021945052
54	0x3c901ec0	0.017592788
55	0x3c5524c3	0.013009253
56	0x3cc17c39	0.023618804
57	0xbac111ae	-0.001473
58	0x3c850406	0.01623727
59	0xbc9e3039	-0.019310104
60	0x3d032bc2	0.032024153
61	0xbcad5a12	-0.021161113
62	0xbc3e5382	-0.0116165895
63	0x3d245edb	0.040129524
64	0xbcad821d	-0.021180207
65	0xb981d9d3	-0.0002476709
66	0x3b3d6f30	0.0028905384
67	0x3c012275	0.00788175
68	0xbcb3a60a	-0.02192976
69	0x3c038d74	0.0080293305
70	0xbc1bdc64	-0.009512994
71	0xbc096816	-0.008386632
72	0x3c50fb34	0.012755204
73	0xbc96db7f	-0.01841521
74	0xbc97dfd2	-0.018539343
75	0xba6c54d7	-0.00090153277
76	0xbc9a9d4b	-0.018873831
77	0x3bab79f2	0.005233043
78	0x3b632e9d	0.0034665235
79	0xbb5dd47b	-0.0033848572
80	0xbc7c6920	-0.015405923
81	0xbc37ab73	-0.01121031
82	0xbc3bf1c7	-0.011471218
83	0xbc87bc91	-0.016569408
84	0x3becbbfb	0.0072245575
85	0xbcb03eee	-0.021514382
86	0xbbffbbfd	-0.0078043924
87	0xbcdccd37	-0.026953323
88	0xb92fe29b	-0.00016773718
89	0x3c72f3ae	0.014828606
90	0xbd047749	-0.03234032
91	0x3c903fa5	0.017608473
92	0x3cd79711	0.026317151
93	0x3b4f44ab	0.0031626623
94	0x3c3ded70	0.011592254
95	0x3c6ecf75	0.014575829
96	0xbd0b6699	-0.03403339
97	0xbc83078e	-0.015994813
98	0x3cb93058	0.02260606
99	0x3c817fa1	0.015807929
100	0x3cac34c1	0.021021249
101	0xbbc8622a	-0.0061152177
102	0xbcff3585	-0.03115345
103	0x3b7bfcdb	0.0038450274
104	0x3ca9c79c	0.020725064
105	0xbcccb8e4	-0.024990506
106	0x3cba80d1	0.022766503
107	0xbcdeab6f	-0.027181355
108	0x3c449376	0.011998048
109	0xbbfd4276	-0.00772887
110	0x3cbe0702	0.023196701
111	0x3cc7e134	0.024399377
112	0x3ccb2184	0.024796255
113	0xbc964868	-0.018345073
114	0xba51eb80	-0.00080078095
115	0xbc0cd1c8	-0.008594938
116	0xbc59203d	-0.013252315
117	0x3c17d8bf	0.009267985
118	0x3c4fb866	0.012678241
119	0xbcc9ae7b	-0.024619332
120	0x3a8d7118	0.0010791151
121	0xbbd70cbb	-0.006562797
122	0xbcb0e301	-0.021592619
123	0xbd080cbd	-0.033215273
124	0x3ac519a0	0.0015037544
125	0xbc36fd02	-0.01116872
126	0x3cbf1586	0.023325693
127	0xbc926653	-0.017871058
128	0x3ab24ae3	0.001360264
129	0x3ce6b9e1	0.028164806
130	0x3c1f2556	0.009713491
131	0x3b94912d	0.004533908
132	0xbca61c8c	-0.020277284
133	0xbc8a6a98	-0.016896531
134	0x3caa61d1	0.020798596
135	0xbc9ed6a0	-0.01938945
136	0x3c27e2ef	0.010246976
137	0xbd218749	-0.03943566
138	0xbcfa01dc	-0.030518465
139	0xbd2cdba9	-0.04220167
140	0x3cc2b238	0.023766622
141	0xbbf6512e	-0.0075170016
142	0x3bc96b04	0.0061467905
143	0xbcb6e667	-0.022326661
144	0xbb0c651e	-0.0021422575
145	0xbd288276	-0.041140042
146	0x3c917eab	0.017760595
147	0xbd0f969c	-0.03505574
148	0x3b948911	0.004532941
149	0x3c9911df	0.01868528
150	0x3cc79f3f	0.024367927
151	0xba780eab	-0.0009462635
152	0xbc8d9ab7	-0.017285688
153	0xbc540953	-0.012941676
154	0x3cdccbf1	0.026952716
155	0x3b86ad8f	0.0041100453
156	0x3c8d7679	0.017268406
157	0xbc1c638c	-0.009545218
158	0x3cb840ee	0.022491898
159	0xbc8bbb54	-0.017057098
160	0xbd0154d4	-0.03157504
161	0xbbb7cb4f	-0.005608953
162	0x3d612914	0.054970816
163	0x3d168faf	0.03675812
164	0xbbc0f5a9	-0.00588866
165	0x3d0bb2c9	0.03410605
166	0x3cfe12ac	0.031014763
167	0xb9098bf1	-0.0001311747
168	0xbd09cb6d	-0.033641268
169	0xbc7b6c98	-0.015345715
170	0x3ca3e624	0.0200072
171	0xbc89fb6c	-0.01684352
172	0xbbb07d8a	-0.005386059
173	0xbcd79f28	-0.026321009
174	0x3c6f2adb	0.01459762
175	0x3cfef8ad	0.031124437
176	0xbc2a6be4	-0.0104017
177	0xbc7eda14	-0.015554924
178	0xbb45590e	-0.0030112895
179	0x3c06ec39	0.008235031
180	0x3d1a7d25	0.037717003
181	0xbcb11f82	-0.02162147
182	0xbc220fc4	-0.009891454
183	0xbcf646fd	-0.030063147
184	0xbc349cd9	-0.0110237235
185	0xbcf6bf7c	-0.030120604
186	0x3be42376	0.006962235
187	0x3a2d7e06	0.0006618205
188	0x3ca7911c	0.020454936
189	0x3cab8be8	0.020940736
190	0xbc38428d	-0.011246336
191	0xbc83004c	-0.015991352
192	0xbbe351e0	-0.0069372505
193	0xbbc73abe	-0.0060800007
194	0x3b21ad13	0.002466981
195	0x3cb79f0f	0.022414712
196	0x3cc57240	0.02410233
197	0x3d0301da	0.031984188
198	0x3cae8c60	0.02130717
199	0xbbcadcd1	-0.006190874
200	0xbbc0a86e	-0.0058794534
201	0xbc25222a	-0.010078946
202	0x3cb4f3f4	0.022088982
203	0x3ccb210f	0.024796037
204	0xbb6b4cda	-0.0035903961
205	0xbbfb404c	-0.007667577
206	0xbba5c0d4	-0.0050583873
207	0x3d1e75f9	0.038686726
208	0xbcad43f4	-0.021150567
209	0xbcbf71b3	-0.023369646
210	0x3d0f03f2	0.034915872
211	0xbcd60949	-0.026127474
212	0xbbb87757	-0.005629461
213	0xbc86c919	-0.016453313
214	0xbc13350f	-0.008984818
215	0xbd3123e6	-0.043247126
216	0x3d048fe5	0.03236379
217	0x3cf5d2b7	0.030007703
218	0x3c457c00	0.01205349
219	0x3d253600	0.0403347
220	0x3c43816e	0.011932714
221	0x3cc815c0	0.024424434
222	0x3c02e3f8	0.007988922
223	0x3d182d82	0.037152775
224	0xbce1b556	-0.027552288
225	0xbb983fe7	-0.0046462896
226	0xbb3b034c	-0.00285359
227	0x3d2e79a2	0.042596467
228	0x3bb0053f	0.005371719
229	0xbafb9d6b	-0.0019196694
230	0xbc0df25b	-0.008663739
231	0xbcea79bb	-0.028622499
232	0x3c97cd81	0.01853061
233	0xbce9e0ec	-0.028549634
234	0xbb97db47	-0.004634294
235	0xbcdd5265	-0.027016828
236	0xbd1a4b9d	-0.037669767
237	0x3bfb7af3	0.007674569
238	0x3c9a8a97	0.018864913
239	0x3cd0b52f	0.02547702
240	0x3c264efd	0.010150668
241	0xbbf240dc	-0.0073929857
242	0x3ba6a46f	0.00508552
243	0xbd08f3e4	-0.033435717
244	0x3aae1afc	0.0013283188
245	0xbc8dd2e7	-0.01731248
246	0xbcbeba41	-0.023282172
247	0x3cf21e01	0.029555323
248	0xbc97791c	-0.018490367
249	0xbb4c660f	-0.0031188761
250	0xbc7e7269	-0.015530207
251	0x3b82cecb	0.003991937
252	0xbb19aa2f	-0.0023447385
253	0x3bca0afa	0.0061658593
254	0x3cc0ee0a	0.023551006
255	0x3c75fef6	0.015014401

weight f4 [32, 16]
0	0xbe501915	-0.20322068
1	0xbd97ef2c	-0.07418665
2	0xbe080475	-0.1328295
3	0xbdabaf48	-0.083830416
4	0xbd81d9e4	-0.063403875
5	0x3d8c4258	0.068485916
6	0x3e45670f	0.19277595
7	0x3e2318c5	0.15927418
8	0xbd00429f	-0.031313535
9	0xbd1a48a3	-0.037666928
10	0x3e5b337e	0.21406361
11	0xbe5923f0	-0.21205115
12	0xbe66aae1	-0.22526123
13	0xbe29bf9c	-0.16577
14	0xbd529646	-0.051412843
15	0xbded24ce	-0.115792856
16	0xbd3a1b7f	-0.04543638
17	0x3db60038	0.088867605
18	0x3e6093bf	0.2193136
19	0xbe12d60e	-0.14339468
20	0x3df91ae9	0.12163336
21	0x3de068d3	0.10957494
22	0xbaac9042	-0.0013165551
23	0x3dbca008	0.09210211
24	0x3d150c59	0.03638873
25	0xbe62a05e	-0.22131488
26	0x3c86629b	0.01640444
27	0x3e39fd77	0.18163095
28	0xbd5670c8	-0.05235365
29	0xbe5ed65e	-0.21761462
30	0xbd253809	-0.040336642
31	0xbe3f6f49	-0.18694796
32	0x3e7b224a	0.24524799
33	0x3e068c8c	0.13139552
34	0xbe766347	-0.24061309
35	0xbd5ea576	-0.054357015
36	0xbe3688e1	-0.17825653
37	0xbe31c58f	-0.17360519
38	0x3d8804ee	0.06641565
39	0x3e74d383	0.2390881
40	0xbe4e186e	-0.20126507
41	0x3c964155	0.0183417
42	0xbe22413c	-0.15845197
43	0xbcef4768	-0.029208854
44	0x3d273817	0.040824976
45	0x3e4be807	0.1991273
46	0x3e2e71dd	0.17035623
47	0x3d739ea0	0.05947745
48	0xbcbf7bc9	-0.023374455
49	0x3dd029d7	0.1016423
50	0x3e6c3de8	0.2307049
51	0xbe15acd8	-0.14616716
52	0xbe06187d	-0.13095279
53	0xbe3365d8	-0.17519319
54	0xbe4988b2	-0.19681051
55	0x3e413c31	0.18870617
56	0x3e25ad33	0.16179352
57	0x3e334b93	0.17509298
58	0x3e3fe0b0	0.18738055
59	0x3e79fde6	0.24413261
60	0x3e79a5e8	0.24379694
61	0xbe7876cf	-0.24264072
62	0x3e128a98	0.14310682
63	0xbe3a3fd7	-0.18188415
64	0xbd2a01ee	-0.041505747
65	0x3d1a95fe	0.0377407
66	0x3d9bbcbb	0.07604357
67	0xbd3809a1	-0.044931058
68	0xbe8079d8	-0.2509296
69	0x3d01cea5	0.031691212
70	0x3ddfec8d	0.1093379
71	0xbbdf85a6	-0.006821352
72	0xbe30848d	-0.17238064
73	0xbbd66c60	-0.006543681
74	0xbe475eaa	-0.19469705
75	0xbe16d43d	-0.147294
76	0x3d96613b	0.07342764
77	0xbe5be4bb	-0.21473972
78	0x3dbf6e48	0.09347206
79	0x3d1e0647	0.038580205
80	0x3e51dd95	0.20494683
81	0x3c3f1c4d	0.011664462
82	0xbd9a4723	-0.075330995
83	0xbdfed9ae	-0.12443863
84	0xbdba33f6	-0.09091942
85	0x3dc0baa1	0.09410597
86	0x3dc501d2	0.09619488
87	0xbe340838	-0.1758126
88	0x3e7bee19	0.24602546
89	0xbe3fa50e	-0.18715307
90	0xbdafe312	-0.08588232
91	0x3e110c6c	0.14164895
92	0x3e0b0497	0.1357597
93	0x3d928fae	0.07156311
94	0x3cefaddb	0.029257705
95	0x3e21b788	0.15792668
96	0x3c7fdc73	0.015616524
97	0xbcb2cc03	-0.021825796
98	0xbe04d786	-0.1297284
99	0x3bb7a3f2	0.0056042606
100	0x3dadf1d9	0.084933944
101	0xbd8be0ef	-0.06830012
102	0x3ce26bda	0.027639318
103	0x3c163988	0.00916899
104	0x3e82ec67	0.25570986
105	0xbe280f4b	-0.16412084
106	0xbe36bca6	-0.17845401
107	0xbe1e6f15	-0.15472062
108	0x3e52811b	0.20557062
109	0x3dad64d0	0.08466494
110	0x3d71bbc7	0.05901697
111	0x3dfae31d	0.1225035
112	0xbe456cb3	-0.19279747
113	0xbe71c407	-0.23609935
114	0xbda88b11	-0.0822965
115	0x3d2e4ede	0.042555682
116	0xbe51b1ab	-0.20477931
117	0x3e65db5f	0.22446965
118	0xbe038684	-0.12844282
119	0xbcf52352	-0.029924069
120	0xbe5ab15b	-0.21356718
121	0xbdb1ffed	-0.08691392
122	0x3e14b34f	0.14521526
123	0xbd2128b1	-0.039345447
124	0x3dbeafd8	0.09310883
125	0xbe135d56	-0.14391074
126	0x3e389771	0.1802652
127	0x3d6577b0	0.056022346
128	0xbe379df8	-0.17931354
129	0x3e695c2c	0.22789067
130	0x3e73fcb2	0.23826864
131	0x3d447492	0.047962733
132	0xbd32b7d6	-0.04363235
133	0xbcdf2f85	-0.027244339
134	0x3dbb35b3	0.09141102
135	0x3e7f3c8c	0.2492544
136	0x3e02f854	0.12790042
137	0x3d908926	0.07057409
138	0x3df84851	0.12123168
139	0x3d8301af	0.063968055
140	0x3db0797c	0.08616921
141	0xbd75399d	-0.059869397
142	0xbdf85aaf	-0.121266715
143	0xbe46bcd2	-0.19407967
144	0xbe074909	-0.13211454
145	0xbd5c9294	-0.053850725
146	0x3dbf9501	0.09354592
147	0xbdb4f69f	-0.08836102
148	0xbe396155	-0.18103535
149	0xbe031c4e	-0.12803766
150	0x3e01da54	0.12680942
151	0xbdd7f5cd	-0.1054493
152	0x3cb3a90a	0.02193119
153	0xbe4ef114	-0.20209152
154	0xbc92ee6b	-0.017935952
155	0xbe38ea94	-0.18058234
156	0x3e09d704	0.13460928
157	0x3d66b739	0.05632708
158	0xbe7f22b2	-0.24915579
159	0x3d86d64b	0.06583842
160	0xbcff95a1	-0.031199278
161	0x3d67e373	0.056613397
162	0xbe240f1c	-0.16021389
163	0xbd1dff32	-0.03857345
164	0xbd7fd6f5	-0.06246086
165	0x3d806429	0.06269104
166	0xbda375f8	-0.07981485
167	0xbe858bc6	-0.260832
168	0x3e593570	0.21211791
169	0x3d24021f	0.040041085
170	0xbe8184be	-0.25296587
171	0x3d4a6a6a	0.04941789
172	0xbdab6058	-0.083679855
173	0x3d95fd93	0.07323756
174	0x3e2c4696	0.16823801
175	0xbe80533d	-0.25063506
176	0x3e74f9fb	0.23923485
177	0xbe2d61c4	-0.16931826
178	0x3e2885fc	0.16457361
179	0xbd455746	-0.048178934
180	0xbde0b441	-0.10971881
181	0x3e590d18	0.21196401
182	0xbd94ce32	-0.07265891
183	0x3e716850	0.23574948
184	0x3d8e7c46	0.06957297
185	0xbe3b1a9e	-0.18271872
186	0xbe72c563	-0.2370811
187	0xbe1fcef8	-0.15606296
188	0xbe70aec4	-0.23504168
189	0x3d9e19ad	0.07719741
190	0xbe12fce9	-0.1435429
191	0xbe23245c	-0.15931839
192	0x3d139638	0.03603193
193	0x3e35581e	0.17709395
194	0x3e19a84a	0.15005603
195	0xbddf2a91	-0.10896791
196	0x3e697174	0.22797185
197	0xbd29c1e9	-0.041444693
198	0xbd4b9384	-0.04970123
199	0xbd8f866e	-0.07008062
200	0xbdfbb6c8	-0.12290722
201	0x3d4b38d7	0.049614754
202	0x3e178042	0.1479502
203	0xbd8cd436	-0.068764135
204	0x3c2baea1	0.0104786465
205	0x3ce7e327	0.028306557
206	0x3e5e3d19	0.21702994
207	0x3e21aae8	0.15787852
208	0xbe1806c2	-0.14846328
209	0x3e1288cf	0.14310001
210	0x3d35aceb	0.04435436
211	0xbe5b7b54	-0.21433765
212	0x3e25dd80	0.16197777
213	0x3ba28d71	0.004960709
214	0x3ddc9cbf	0.107720844
215	0x3df6714c	0.120333284
216	0xbc5ef84a	-0.013609001
217	0xbdea45f3	-0.11439123
218	0x3d169b66	0.036769293
219	0xbe1fe02a	-0.15612856
220	0xbde28f2e	-0.110624656
221	0x3e821f98	0.2541473
222	0x3e6b358f	0.2296965
223	0xbe5787db	-0.21047918
224	0x3da82a05	0.082111396
225	0xbe782984	-0.24234587
226	0x3e1854c2	0.14876083
227	0x3dea3944	0.11436704
228	0xbe37beba	-0.1794385
229	0x3e124f52	0.14288071
230	0x3ded9226	0.11600141
231	0xbe27527e	-0.16340062
232	0xbe7c419c	-0.24634403
233	0xbe52c018	-0.2058109
234	0xbd0a3541	-0.033742193
235	0x3dc724d0	0.09723818
236	0xbd87ad2e	-0.06624828
237	0xbe395739	-0.18099679
238	0xbe64082a	-0.2226874
239	0x3c6eea28	0.014582194
240	0xbd04d4db	-0.032429557
241	0xbe44c62d	-0.19216223
242	0xbcb5186e	-0.022106376
243	0x3defa7fb	0.117019616
244	0xbdcc017e	-0.09961222
245	0x3e239bf8	0.15977466
246	0xbddcbca7	-0.1077817
247	0x3de5cbb7	0.11220496
248	0xbd19cd91	-0.03754956
249	0x3e09b359	0.13447322
250	0x3e6f8368	0.23389971
251	0xbe16217a	-0.14661208
252	0x3e70d85e	0.23520038
253	0x3e73d8a8	0.23813117
254	0x3e4ddbd1	0.20103385
255	0xbe5bca5c	-0.21463913

bias f4 [32]
0	0x3d3b828f	0.045778807
1	0xbc291735	-0.010320474
2	0xbd83d19a	-0.06436463
3	0xbd96058f	-0.07325279
4	0x3d7b2a30	0.06131953
5	0xbd3bea66	-0.045877837
6	0xbd17bf79	-0.037047837
7	0xbe4310de	-0.19049403
8	0x3e2808d2	0.16409615
9	0x3e6232cf	0.22089694
10	0x3df8a7a4	0.1214135
11	0x3e1f4268	0.15552676
12	0x3d854a5f	0.06508326
13	0x3d134f08	0.035964042
14	0xbe070bdf	-0.13188122
15	0xbe6955e3	-0.2278667
16	0x3e0b2bee	0.13590977
17	0x3da2e9ae	0.07954727
18	0xbe250537	-0.1611527
19	0x3e1bed09	0.1522714
20	0xbe6b7dfa	-0.22997275
21	0x3dabc1d4	0.08386579
22	0xbe7f24b7	-0.2491635
23	0x3de3ef06	0.111295745
24	0x3e00da60	0.12583303
25	0x3da3c376	0.079962656
26	0xbdf2c8ee	-0.118547305
27	0xbdb1d81c	-0.08683798
28	0x3c676fbb	0.01412576
29	0xbe0917da	-0.13388005
30	0xbe56943b	-0.20954983
31	0x3d1880ec	0.037232324

weight f4 [32, 32]
0	0x3d756c1b	0.05991755
1	0xbd61b282	-0.05510188
2	0x3ba634c5	0.0050722086
3	0x3e072a58	0.13199747
4	0x3cf3eee0	0.02977699
5	0x3e105076	0.14093193
6	0x3dcdceb0	0.10049188
7	0xbc329068	-0.010898687
8	0x3d0af746	0.033927225
9	0xbdc9c81c	-0.09852621
10	0xbdacce92	-0.08437838
11	0xbe2d95b4	-0.16951638
12	0xbc8bc77c	-0.017062895
13	0xbd0bd3ed	-0.034137655
14	0x3d1ffa2d	0.039056946
15	0x3c213706	0.009839779
16	0x3e099e9f	0.13439415
17	0x3e09c924	0.13455635
18	0x3ddf73dc	0.1091077
19	0xbd35519f	-0.044267293
20	0xbd3a7743	-0.045523893
21	0x3d135f2f	0.035979446
22	0xbe2644f4	-0.16237241
23	0xbdda9727	-0.10673361
24	0x3e2ed180	0.17072105
25	0xbe2da360	-0.16956854
26	0xbda0569d	-0.0782902
27	0xbde876e6	-0.11350803
28	0x3ddd1dd2	0.107967034
29	0xbc3b98ca	-0.011450002
30	0xbda5a835	-0.080887236
31	0x3e2f3caa	0.17112985
32	0x3c5d62e4	0.013512347
33	0x3dab6105	0.083681144
34	0xbcd81d13	-0.026381051
35	0xbdf8af33	-0.121427916
36	0xbe144fa9	-0.14483513
37	0xbe073241	-0.13202764
38	0xbdadf3de	-0.084937796
39	0x3db474a7	0.08811312
40	0xbcbf8547	-0.023378981
41	0x3debdcb8	0.11516708
42	0xbd5718f7	-0.052514043
43	0x3d266069	0.040619288
44	0x3cf9ea1c	0.03050714
45	0x3d734c78	0.0593991
46	0x3e110e89	0.14165701
47	0xbe14baa7	-0.14524327
48	0x3c66d4ae	0.014088793
49	0xbd258251	-0.040407483
50	0x3dd11c9a	0.102105334
51	0x3e1b55a7	0.15169393
52	0x3d46199b	0.048364263
53	0x3dddd140	0.10830927
54	0x3e046196	0.12927851
55	0x3bc9a683	0.006153883
56	0xbcd1bce7	-0.025602771
57	0x3c4fcff6	0.012683859
58	0x3cd33862	0.025783721
59	0xbd98170a	-0.07426269
60	0x3dbb0130	0.09131086
61	0x3e24478b	0.16042916
62	0x3d46d3c1	0.048541788
63	0x3dc1591f	0.094408266
64	0xbdf42a6b	-0.11922153
65	0x3e14b552	0.14522293
66	0x3d93046d	0.071785785
67	0xbe1891b1	-0.14899327
68	0x3e238f8b	0.15972726
69	0x3e3e2613	0.18569212
70	0x3e2e4b6c	0.17020959
71	0xbdb41bfe	-0.087944016
72	0x3d1bde6b	0.03805391
73	0xbd8f071d	-0.069837786
74	0x3e1961a1	0.14978649
75	0x3d9114fd	0.07084081
76	0x3e2d5189	0.16925634
77	0xbe372e8a	-0.17888847
78	0x3d9f62d8	0.07782525
79	0x3e323393	0.17402487
80	0xbe0743e9	-0.132095
81	0xbd9c7a88	-0.076405585
82	0xbd247afc	-0.04015635
83	0xbe3683f4	-0.17823774
84	0xbe04bf07	-0.12963496
85	0xbe05648e	-0.1302664
86	0x3e021e15	0.12706788
87	0x3d96370b	0.07334717
88	0xbdfe8464	-0.12427595
89	0xbe2d9798	-0.1695236
90	0x3de6919e	0.11258243
91	0x3d63db49	0.05562905
92	0xbd70e122	-0.058808453
93	0xbdcf6175	-0.1012601
94	0xbce907ff	-0.028446196
95	0x3d110728	0.035407215
96	0xbdf0539c	-0.11734697
97	0xba1f116e	-0.0006067966
98	0xbde046db	-0.109510146
99	0xbe2b6c3a	-0.16740504
100	0xbe0d9264	-0.13825375
101	0x3e1c832d	0.15284415
102	0xbd349b8c	-0.044093654
103	0xbe12763f	-0.1430292
104	0xbdace6e6	-0.08442478
105	0x3d403689	0.04692701
106	0x3bd86e65	0.006604957
107	0xbdd9d538	-0.106363714
108	0xbd9f943c	-0.07791945
109	0x3e167434	0.14692765
110	0x3d6bc2a0	0.057558656
111	0x3d1787cf	0.03699475
112	0xbe378e79	-0.17925443
113	0xbdd414d3	-0.103555344
114	0xbdd0b441	-0.10190631
115	0x3d2b6b77	0.041850533
116	0x3e2fdb9f	0.17173623
117	0xbe150d73	-0.14555912
118	0x3e1a053a	0.15041056
119	0xbe02c14b	-0.12769048
120	0x3d94f746	0.07273726
121	0xbdccb839	-0.09996075
122	0x3e2c0915	0.1680034
123	0x3e14b4e8	0.14522135
124	0xbe1add6d	-0.1512353
125	0xbe3f054e	-0.18654367
126	0x3c75a96c	0.014994007
127	0xbc441191	-0.011967079
128	0x3cd05115	0.025429288
129	0xbe07395a	-0.13205472
130	0xbe0b5136	-0.13605198
131	0xbc056534	-0.0081418045
132	0x3df9b256	0.12192218
133	0x3e0a77ce	0.13522264
134	0x3e249029	0.16070618
135	0xbc27a434	-0.01023202
136	0x3db9e991	0.090777524
137	0x3d6e711e	0.058213346
138	0xbd4bf7fa	-0.049797036
139	0x3d232576	0.039830647
140	0x3e0ba01b	0.13635294
141	0x3ddf3894	0.10899463
142	0xbd5dc740	-0.054145098
143	0xbdc6c199	-0.097048946
144	0x3b91a06f	0.004444174
145	0x3df063cf	0.11737787
146	0x3dfe24dc	0.12409374
147	0x3dee0c57	0.116234474
148	0xbccc8699	-0.024966525
149	0xbe008781	-0.1255169
150	0xbc27f557	-0.010251365
151	0x3dbf4eb4	0.09341183
152	0xbbc18c2c	-0.0059066024
153	0xbda7eb36	-0.0819916
154	0xbd91c3ff	-0.071174614
155	0xbd819615	-0.06327454
156	0x3e0596f4	0.13045865
157	0xbdb86a6a	-0.09004672
158	0xbdd9b1f2	-0.106296435
159	0xbdb8b640	-0.090191364
160	0xbe26e723	-0.16299109
161	0xbe0c9c5d	-0.13731523
162	0xbc2968ff	-0.010339974
163	0x3df3aa2d	0.11897693
164	0x3d86c9e6	0.06581478
165	0xbe04f68f	-0.1298468
166	0x3e14b735	0.14523013
167	0x3d901071	0.07034386
168	0xbdf6c19d	-0.120486476
169	0x3e14eec7	0.14544211
170	0xbe22c376	-0.15894875
171	0x3c871f35	0.016494373
172	0x3d3ae6b3	0.04563017
173	0xbe13423d	-0.14380737
174	0xbe07ee74	-0.13274556
175	0x3e268481	0.16261484
176	0x3dec0673	0.115246676
177	0x3dff102d	0.12454257
178	0xbcca9e18	-0.024733588
179	0xbd4d5a55	-0.050134975
180	0xbde87916	-0.1135122
181	0xbe263d39	-0.16234292
182	0xbc9e678b	-0.019336483
183	0xbd228dc0	-0.039685965
184	0xbe1e16c4	-0.15438372
185	0xbd8f5067	-0.069977574
186	0xbde4af60	-0.111662626
187	0x3b4c0f88	0.0031137187
188	0xbdaa747e	-0.08323
189	0xbde25998	-0.11052245
190	0x3b70df40	0.003675416
191	0xbcb37a87	-0.021909012
192	0x3d882f4c	0.06649646
193	0x3d05c4db	0.03265844
194	0x3db60f53	0.088896416
195	0x3cda260b	0.026629468
196	0xbd2a57fb	-0.04158781
197	0xbd796a5f	-0.06089246
198	0x3e155dd1	0.1458657
199	0xbbaef1c2	-0.0053388784
200	0x3dde8205	0.10864643
201	0x3e0e841d	0.13917585
202	0xbd0014b9	-0.031269763
203	0xbdc062f1	-0.093938716
204	0xbc8cf5fa	-0.017207135
205	0xbd84a555	-0.06476847
206	0x3e021cdb	0.1270632
207	0x3d1b952f	0.03798407
208	0x3cab1f2d	0.02088889
209	0x3e256a24	0.1615377
210	0xbe214f0b	-0.15752809
211	0x3af63cc0	0.0018786415
212	0xbd0fa6d9	-0.035071228
213	0x3e073dd6	0.13207182
214	0xbe3e718e	-0.18598005
215	0x3e1da867	0.15396272
216	0x3e045e86	0.12926683
217	0x3dcd57f6	0.10026543
218	0xbe183223	-0.14862876
219	0x3dd13539	0.102152295
220	0xbde76ed4	-0.11300436
221	0x3df4dd6a	0.11956294
222	0x3e192f40	0.1495943
223	0x3d2d524e	0.04231482
224	0xbe170025	-0.14746149
225	0x3ddaa25e	0.106755
226	0x3d29dd46	0.04147079
227	0x3e2b92b7	0.16755186
228	0xbe238542	-0.15968803
229	0x3ca2ebfe	0.01988792
230	0xbd98756b	-0.07444271
231	0x3de3f116	0.11129968
232	0xbe1c351b	-0.15254633
233	0xbd1b9805	-0.037986774
234	0x3cf16cb9	0.029470788
235	0x3d0ffbf7	0.0351524
236	0x3d4b71f6	0.04966923
237	0xbd5131ba	-0.051072814
238	0xbddcd266	-0.10782318
239	0x3dc1da75	0.094654955
240	0xbe0f3127	-0.13983594
241	0xbe08da25	-0.13364466
242	0xbde4ec38	-0.11177868
243	0xbe397f93	-0.18115072
244	0x3c37f7cc	0.011228513
245	0xbd48497b	-0.0488982
246	0x3e046a7a	0.12931243
247	0xbe3047e3	-0.17214923
248	0x3db17bd2	0.08666195
249	0x3ddbc712	0.10731329
250	0x3d660499	0.05615673
251	0xbda6a77e	-0.08137415
252	0x3e1a593c	0.15073103
253	0xbd8d8f0d	-0.069120504
254	0xbe0e0186	-0.13867769
255	0xbe1fca1b	-0.15604441

bias f4 [32]
0	0xbcc72110	-0.024307758
1	0x3d45e49e	0.04831373
2	0x3d1a6f0e	0.037703566
3	0x3c9461c4	0.018113025
4	0xbe2b08cc	-0.16702574
5	0x3e3d960e	0.18514273
6	0x3d1bf48e	0.038075022
7	0xbdf7f2d2	-0.12106861
8	0xbe3ad47d	-0.1824512
9	0xbc655b15	-0.013998766
10	0x3d22dcea	0.03976146
11	0x3e47603c	0.19470304
12	0x3d084492	0.03326852
13	0x3e295697	0.16536938
14	0x3d762420	0.060093045
15	0x3d1309bc	0.035897955
16	0x3e1da90c	0.15396518
17	0x3d69609d	0.056976903
18	0xbc1e6dc7	-0.009669728
19	0x3d3efbfd	0.046627034
20	0x3d803dfa	0.06261821
21	0x3e350af5	0.17679961
22	0x3e2b2224	0.16712242
23	0x3dc1a98e	0.09456168
24	0x3d4403e3	0.04785527
25	0x3e1f5584	0.15559965
26	0x3e02ef4c	0.12786597
27	0xbd922209	-0.07135398
28	0xbcc56d6f	-0.024100034
29	0x3db90e2a	0.09035905
30	0x3e1d4e40	0.15361881
31	0xbdf43720	-0.11924577

weight f4 [32, 32]
0	0x3d573a0c	0.052545592
1	0xbddba126	-0.10724096
2	0xba370a8d	-0.0006982468
3	0x3deac6f7	0.11463731
4	0x3d81824c	0.0632368
5	0x3d816dc1	0.06319762
6	0x3d9a496f	0.075335376
7	0x3e0417ab	0.12899654
8	0x3dec1d39	0.11529011
9	0x3e202efd	0.15642925
10	0xbe1f7a59	-0.15574016
11	0x3d80017d	0.06250284
12	0x3e328f60	0.17437506
13	0x3d8cde27	0.0687831
14	0xbbdd54db	-0.0067545003
15	0xbe2f5731	-0.17123105
16	0xbd663d71	-0.05621094
17	0x3ddb9007	0.107208304
18	0x3e2ea59a	0.1705536
19	0x3b5949a6	0.003315547
20	0x3e09894b	0.1343128
21	0xbe3b5f35	-0.18298037
22	0x3cc46065	0.023971746
23	0x3c99a1bc	0.018753879
24	0xbd5021a5	-0.050813336
25	0x3dd34b80	0.10317135
26	0x3e36abc6	0.17838964
27	0x3d82f67b	0.06394669
28	0x3e01987a	0.12655821
29	0xbcd86b56	-0.02641837
30	0x3c3cd8af	0.011526271
31	0x3e38cd4c	0.18047065
32	0xbd58cd3d	-0.052930105
33	0x3dc8cf8a	0.0980521
34	0xbd730221	-0.059328202
35	0x3dec6ff6	0.11544792
36	0x3e2b6296	0.16736826
37	0xbdc41b87	-0.09575563
38	0xbd85eaf7	-0.065389566
39	0x3e1c389f	0.15255974
40	0xbd89c369	-0.06726725
41	0xbcbc8f25	-0.023017475
42	0xbd9ba6a1	-0.07600141
43	0x3be95b5a	0.0071214857
44	0x3dd04143	0.10168698
45	0x3dc607fb	0.09669491
46	0xbdc00d4a	-0.09377535
47	0xbd55d8c9	-0.052208696
48	0xbe01f4a9	-0.12690987
49	0x3d0be47c	0.034153447
50	0xbe065f26	-0.13122234
51	0x3db5698b	0.08858021
52	0x3daa9dad	0.083308555
53	0x3d363253	0.044481587
54	0x3d6171a1	0.055040006
55	0xbce6af19	-0.028159665
56	0x3dc5f94a	0.09666689
57	0xbd1aab3a	-0.03776095
58	0xbd7f4660	-0.062322974
59	0x3d8d7d5b	0.06908675
60	0x3d048420	0.032352567
61	0x3dbc6662	0.091992155
62	0xbc8d3cf1	-0.017240973
63	0x3d9b10b4	0.07571545
64	0x3c2be29b	0.010491039
65	0xbbe75de3	-0.0070607527
66	0xbe2142ff	-0.15748213
67	0x3c7cd3e1	0.015431375
68	0x3e193b1a	0.14963952
69	0x3d89a1e7	0.067203335
70	0x3e156009	0.14587416
71	0xbd1677df	-0.03673541
72	0xbb5557db	-0.0032553587
73	0x3d9ddc21	0.07708002
74	0xbde392a5	-0.111119546
75	0xbd902fb3	-0.07040348
76	0xbe0f067d	-0.13967319
77	0x3e1a45ec	0.15065736
78	0xbdd01987	-0.10161119
79	0x3d88df48	0.066832125
80	0x3d25c5bd	0.04047178
81	0x3df4db35	0.11955873
82	0xbdcdae42	-0.10043003
83	0x3d49cba6	0.04926648
84	0xbbb1970f	-0.005419619
85	0x3deca62b	0.115551315
86	0xbe35a4d8	-0.17738664
87	0x3d807732	0.06272735
88	0xbdd4f47e	-0.10398196
89	0xbdc52921	-0.09626985
90	0x3e188ba4	0.14897019
91	0x3d8a2e16	0.067470714
92	0xbddd9ebd	-0.108212925
93	0xbe2ea1f2	-0.17053965
94	0x3de25342	0.110510364
95	0x3d6323db	0.055454116
96	0xbc4fa34a	-0.0126732085
97	0x3e256995	0.16153558
98	0xbe061c0d	-0.13096638
99	0x3e12c8fa	0.14334479
100	0xbd4f1aee	-0.05056279
101	0x3d00d482	0.031452663
102	0x3e104dad	0.14092131
103	0x3d0083de	0.03137576
104	0x3c3367bb	0.010950024
105	0x3caeb066	0.021324348
106	0xbd3b4ae9	-0.045725737
107	0x3ddcdeed	0.10784707
108	0xbb6e49a0	-0.0036359802
109	0xbdb99897	-0.09062307
110	0xbe032ff0	-0.12811255
111	0x3e1994ec	0.14998215
112	0xbe05a11a	-0.13049737
113	0xbbdd61f5	-0.006756062
114	0xbd77951d	-0.06044494
115	0xbdeb09f0	-0.11476505
116	0xbe1e5bbd	-0.15464683
117	0x3d4f0077	0.050537553
118	0xbdd8c9a3	-0.10585334
119	0x3d1f7c95	0.03893717
120	0x3cffdc08	0.031232849
121	0x3e1a272a	0.15054002
122	0xbd840460	-0.06446147
123	0x3cd56e56	0.026053589
124	0xbde33a87	-0.110951476
125	0xbdf2ae08	-0.118496
126	0xbdcd859a	-0.10035248
127	0xbad83753	-0.001649598
128	0x3e2dc99c	0.16971439
129	0xbe2ac19d	-0.1667542
130	0xbe0fd888	-0.14047444
131	0xbdf472c7	-0.119359545
132	0xbe0427ee	-0.12905857
133	0xbc92047f	-0.01782441
134	0xbdd5376c	-0.104109615
135	0xbe201f9c	-0.15637058
136	0x3da0b1f4	0.07846442
137	0x3b550ed7	0.0032510066
138	0x3e0c9e3c	0.13732237
139	0x3e2f1e9c	0.1710152
140	0xbd93a109	-0.072084494
141	0xbda6cbab	-0.08144315
142	0xbe08b25c	-0.13349289
143	0x3dfe1a92	0.12407412
144	0x3bbaae65	0.005697059
145	0xbc977f57	-0.018493338
146	0xbd30ae19	-0.043134782
147	0xbc4c6a09	-0.012476453
148	0xbe2a365c	-0.16622299
149	0xbdd04a0c	-0.10170373
150	0xbe289263	-0.16462092
151	0x3ca1eddd	0.019766742
152	0x3da55d13	0.08074393
153	0xbd9980d1	-0.07495273
154	0x3d311e3a	0.043241717
155	0xbcd9004a	-0.026489396
156	0x3d056d48	0.03257492
157	0x3da7c1f5	0.08191291
158	0x3e33ad48	0.1754657
159	0x3db7779d	0.08958361
160	0x3dd32b62	0.10311009
161	0xbdc7e365	-0.09760169
162	0xbde2fec3	-0.11083748
163	0x3dd363e9	0.10321791
164	0x3d7db237	0.061937537
165	0xbca22e91	-0.019797595
166	0x3d04ac6f	0.032391008
167	0x3e1c3c20	0.15257311
168	0xbcb599cc	-0.022168063
169	0x3dd33df7	0.10314553
170	0x3d53329c	0.051561937
171	0xbe125086	-0.1428853
172	0xbe2a76bd	-0.16646858
173	0xbdd8c5d5	-0.105846085
174	0xbd9ed1e8	-0.0775488
175	0x3dcab610	0.09898007
176	0xbd20a2f0	-0.03921789
177	0xbe0d1d58	-0.13780725
178	0xbda506cc	-0.08057937
179	0xbdf43960	-0.11925006
180	0x3e16270b	0.14663331
181	0x3dffa53f	0.1248269
182	0xbe1d286d	-0.15347452
183	0x3c53cb36	0.012926867
184	0x3e23f46c	0.16011208
185	0x3bffcf2f	0.0078066806
186	0xbe0323fa	-0.12806693
187	0xbad875ee	-0.0016514638
188	0x3df94ffc	0.12173459
189	0x3dd6ed46	0.10494475
190	0xbe2162f7	-0.15760408
191	0xbdda8a1c	-0.106708735
192	0x3dc3e397	0.09564894
193	0xbd89e7dd	-0.067336775
194	0xbdfcfd6a	-0.123530224
195	0xbd4e3da8	-0.05035177
196	0x3e0ec9fc	0.13944238
197	0xbd937c65	-0.07201461
198	0x3e0f7c0d	0.14012165
199	0xbd92b7d5	-0.071639694
200	0xbe364969	-0.17801441
201	0x3e262524	0.16225106
202	0x3e013f88	0.12621891
203	0x3e2681eb	0.16260497
204	0x3e17a96f	0.14810728
205	0x3d6e4082	0.05816699
206	0x3de97231	0.113987334
207	0x3d57778a	0.052604236
208	0x3c7cd056	0.0154305305
209	0xbe09c800	-0.134552
210	0xbde954a3	-0.11393096
211	0xbd069bef	-0.032863554
212	0x3ded5e74	0.11590281
213	0xbd9d6f20	-0.07687211
214	0x3d57a0d2	0.052643605
215	0x3d1dc27f	0.038515564
216	0x3de0876f	0.10963332
217	0xbdcd7137	-0.1003136
218	0x3dc90de9	0.09817106
219	0x3cf10d2a	0.029425222
220	0xbc6a2ab6	-0.01429241
221	0x3c897ccf	0.016783146
222	0x3c7f5ff7	0.015586845
223	0x3e378364	0.17921215
224	0x3dd02574	0.101633936
225	0xbdc729d1	-0.09724773
226	0xbdbf45cd	-0.09339485
227	0xbe0c5bbc	-0.13706869
228	0xbe00da3e	-0.12583253
229	0x3ca92a25	0.020649979
230	0xbd3ab3c9	-0.045581613
231	0xbdc99026	-0.09841947
232	0x3e116235	0.1419762
233	0xbde3c7ec	-0.111221164
234	0xbd536eb8	-0.05161926
235	0x3dcfc3f7	0.10144799
236	0x3e250f0f	0.16119026
237	0xbd85b50a	-0.06528671
238	0xbdb51366	-0.088415906
239	0x3e378350	0.17921185
240	0xbe12aa9f	-0.143229
241	0xbdfb53d5	-0.12271849
242	0x3ce02c1a	0.02736478
243	0x3c9e7105	0.019341001
244	0xbcaa94e7	-0.020822955
245	0x3d7f5a23	0.06234182
246	0xbe23ecf9	-0.16008367
247	0x3dad8a17	0.08473604
248	0xbc8800a0	-0.01660186
249	0xbe1c6d0b	-0.15275972
250	0xbd37e109	-0.044892345
251	0x3e3faf84	0.18719298
252	0x3df18fa9	0.11794979
253	0x3dedd4e2	0.1161287
254	0x3d95ed45	0.07320646
255	0x3e2ff9b0	0.17185092

bias f4 [32]
0	0x3d1ee194	0.038789347
1	0x3e3f14d5	0.1866029
2	0xbdb13c19	-0.08654041
3	0x3e2ecc70	0.17070174
4	0xbdc93b1b	-0.098257266
5	0x3be60f9c	0.0070209038
6	0xbd1524e9	-0.036412153
7	0x3e182edd	0.14861627
8	0xbdd3d6f6	-0.10343735
9	0x3e0b8471	0.13624741
10	0x3e21c692	0.15798405
11	0x3e158852	0.14602783
12	0x3dd83d74	0.10558596
13	0xbd1aed58	-0.037824005
14	0x3e307c08	0.17234814
15	0xbe1d17c2	-0.15341094
16	0xbc8c812c	-0.017151438
17	0x3a8e387d	0.0010850575
18	0x3e087907	0.13327418
19	0xbdef9bbc	-0.11699626
20	0xbdcac9c9	-0.09901769
21	0xbdb85627	-0.09000807
22	0x3d1b5c07	0.03792956
23	0x3e0b69d3	0.13614587
24	0xbd974b13	-0.07387366
25	0x3dbc009a	0.09179802
26	0xbe10cb77	-0.14140116
27	0xbe1623d7	-0.1466211
28	0x3e1a3319	0.15058555
29	0xbe13943f	-0.1441202
30	0xbe371e2d	-0.17882605
31	0x3d78a4c3	0.060704004

weight f4 [32, 32]
0	0xbe11f83f	-0.14254855
1	0x3d901139	0.07034535
2	0x3dbcf77d	0.09226892
3	0x3e137e28	0.14403594
4	0xbdd9422a	-0.10608323
5	0xbc091e2c	-0.00836901
6	0x3c110f11	0.00885369
7	0xbcdfc482	-0.027315382
8	0xbdc8d44e	-0.09806119
9	0xbd9b3e33	-0.07580223
10	0xbba73ea7	-0.0051039043
11	0xbe2965fa	-0.16542807
12	0xbcd59e2e	-0.026076403
13	0xbe02935e	-0.12751529
14	0xbda33c97	-0.07970541
15	0x3e199ab6	0.15000424
16	0xbdda5ec4	-0.10662606
17	0x3d093f1f	0.033507463
18	0xbda19729	-0.0789016
19	0x3e0124f0	0.12611747
20	0x3d484430	0.048893154
21	0xbc10a8d5	-0.008829315
22	0x3e322050	0.17395139
23	0xbdf3df8f	-0.11907875
24	0xbd293570	-0.041310728
25	0xbd82a828	-0.063797295
26	0x3be1d5b9	0.006891933
27	0x3d03c4fa	0.032170273
28	0x3d280651	0.04102165
29	0xbe084b63	-0.13310008
30	0xbd71cc4b	-0.05903272
31	0x3d1fb89a	0.03899441
32	0x3e2e80e8	0.17041361
33	0x3d9ab439	0.07553906
34	0xbe1ecf06	-0.1550866
35	0x3cf29c3b	0.029615512
36	0xbdad66da	-0.08466883
37	0xbe0eda2d	-0.13950415
38	0xbcd516cd	-0.026011849
39	0xbe29ccff	-0.16582106
40	0xbe3220cd	-0.17395325
41	0xbbfc66c0	-0.0077026784
42	0x3db61a34	0.088917166
43	0xbe042944	-0.12906367
44	0x3e11e1a8	0.14246237
45	0xbc39a2e0	-0.011330336
46	0x3dd906dd	0.10597012
47	0x3da35de1	0.0797689
48	0xbdd5299b	-0.10408326
49	0xbe1ff442	-0.1562052
50	0x3dc6ffc3	0.097167514
51	0xbd90f3bc	-0.07077739
52	0xbd40d5c8	-0.047078878
53	0xbc0ba8f2	-0.008524166
54	0x3dd61afd	0.10454366
55	0xbd2315bb	-0.039815646
56	0x3dd613a7	0.10452967
57	0xbde32514	-0.110910565
58	0xbda91606	-0.08256154
59	0x3d37b04b	0.04484586
60	0x3d1a27b5	0.037635524
61	0x3cf26216	0.029587787
62	0xbe10322c	-0.14081639
63	0x3e249e45	0.16076
64	0x3c154b3e	0.009112177
65	0xbdd74b7b	-0.10512444
66	0x3e036e23	0.12834983
67	0xbe149b6f	-0.14512418
68	0xbd512531	-0.05106086
69	0x3e097d28	0.1342665
70	0xbe1f1bc1	-0.15537931
71	0xbd785279	-0.060625527
72	0x3dd761e4	0.10516718
73	0xbe1a9212	-0.15094784
74	0xbda3fc87	-0.0800715
75	0x3dd8bd20	0.10582948
76	0x3dcd4c87	0.10024362
77	0xbdfbb48c	-0.12290296
78	0x3dbcb51d	0.09214232
79	0xbe39f58f	-0.1816008
80	0xbe0ab969	-0.13547291
81	0xbc624202	-0.013809683
82	0xbe3703c0	-0.17872524
83	0x3d359558	0.04433188
84	0xbe1d7455	-0.15376408
85	0xbc750ec4	-0.014957134
86	0x3d12fbaa	0.035884537
87	0x3e1d7282	0.15375713
88	0x3e28f03e	0.16497895
89	0x3e10a56d	0.14125605
90	0xbdb8f0f4	-0.09030333
91	0xbe2e103d	-0.16998382
92	0xbe31dde0	-0.17369795
93	0x3e454be1	0.19267227
94	0x3e2e8074	0.17041188
95	0xbe0e8ff4	-0.13922101
96	0xbe094a65	-0.13407286
97	0x3e14fa39	0.14548577
98	0x3e1c2bbe	0.15251061
99	0x3dbc5dc0	0.09197569
100	0x3dec2960	0.11531329
101	0x3e1e8182	0.15479091
102	0xbd8793b8	-0.06619972
103	0x3c3378d9	0.010954105
104	0x3dc46c50	0.095909715
105	0x3e1ec8a8	0.15506232
106	0x3e18d47f	0.14924811
107	0xbd0747a2	-0.0330273
108	0x3cfce36c	0.030870162
109	0xbcd6983d	-0.02619564
110	0x3c54f624	0.012998138
111	0x3de1ba34	0.110218436
112	0x3cf76420	0.03019911
113	0xbcdbf21a	-0.026848841
114	0xbcaf85fb	-0.021426192
115	0xbe149882	-0.14511302
116	0x3df87771	0.12132157
117	0x3dee5177	0.11636632
118	0xbdc2a49b	-0.09504052
119	0xbdf49a52	-0.11943497
120	0x3d6236c2	0.055228002
121	0xbddbff06	-0.10742001
122	0x3e002f3e	0.12518021
123	0xbdf4d262	-0.1195419
124	0x3cb258d9	0.021770881
125	0x3d46f118	0.04856977
126	0x3c78c27a	0.015183086
127	0x3d4149f7	0.04718968
128	0xbe1d01de	-0.15332744
129	0xbe0201f4	-0.12696058
130	0x3e337ad8	0.1752733
131	0xbc7f84e4	-0.015595648
132	0xbd4db002	-0.050216682
133	0xbe163dec	-0.14672059
134	0x3d24362a	0.040090717
135	0xbc2c3e64	-0.010512922
136	0x3e1187de	0.14211985
137	0xbcd73dd9	-0.026274608
138	0xbe19bbaa	-0.15012994
139	0xbd4c21ec	-0.049837038
140	0xbe00188b	-0.12509362
141	0x3d928719	0.07154674
142	0x3d99df8d	0.07513342
143	0x3e08720c	0.13324755
144	0xbdf9255e	-0.1216533
145	0x3de1ed91	0.1103164
146	0x3b20855e	0.0024493556
147	0x3d92d3ef	0.071693294
148	0xbdee0eda	-0.116239265
149	0x3dbf6238	0.093449056
150	0x3c89dede	0.016829904
151	0x3dcf98fa	0.101366
152	0x3c785543	0.015157047
153	0xbe01340f	-0.12617515
154	0x3e0a81fa	0.13526145
155	0x3be13a68	0.0068734176
156	0x3da1369d	0.07871745
157	0x3e0732f8	0.13203037
158	0x3d01bd18	0.031674474
159	0xbd771bc0	-0.0603292
160	0xbde13cdd	-0.10997937
161	0x3d1dba43	0.03850771
162	0x3d217af1	0.039423887
163	0x3d368f78	0.044570416
164	0xbcc621fa	-0.024186123
165	0xbe3632c4	-0.17792803
166	0xbe06a441	-0.13148595
167	0xbdf59fac	-0.119933456
168	0xbe30061e	-0.17189834
169	0x3c3152be	0.01082295
170	0x3dee6890	0.116410375
171	0xbbf1caea	-0.0073789256
172	0xbd6e276e	-0.05814307
173	0x3bb91bdf	0.0056490744
174	0x3d32b2cf	0.043627556
175	0x3dc12394	0.09430614
176	0x3e20bd3e	0.1569719
177	0x3deb8b3c	0.11501166
178	0xbd88652a	-0.066599205
179	0xbc83c73e	-0.016086217
180	0x3d8534e3	0.06504228
181	0xbcea64c9	-0.028612511
182	0xbd285e81	-0.04110575
183	0x3dfe3de3	0.12414148
184	0x3db8b205	0.090183295
185	0x3e231bb7	0.15928541
186	0x3e2be8a8	0.1678797
187	0xbe08b109	-0.13348784
188	0x3e153624	0.14571434
189	0x3c511154	0.012760479
190	0xbd77ad67	-0.060468104
191	0x3d900457	0.07032078
192	0xbc5add4c	-0.013358425
193	0x3d9136b1	0.0709051
194	0xbd5192d9	-0.051165435
195	0x3dcd7bc3	0.10033371
196	0xbda8ae8d	-0.08236418
197	0xbd249b29	-0.040187035
198	0x3e19f637	0.1503533
199	0xbdff5751	-0.12467826
200	0x3dddae43	0.108242534
201	0xbda73883	-0.08165076
202	0x3de5d538	0.11222309
203	0xbe3e818d	-0.18604107
204	0x3da352ef	0.07974803
205	0xbde58895	-0.112076916
206	0xbd7e3fd1	-0.06207258
207	0x3db66a46	0.08906989
208	0xbdbee270	-0.09320533
209	0x3deed60b	0.11661919
210	0x3e12c5a2	0.14333203
211	0x3de85a55	0.113453545
212	0x3d73146f	0.05934566
213	0xbdd63d9c	-0.1046097
214	0xbc5e5508	-0.013570078
215	0xbe122f0d	-0.14275761
216	0xbdddd8d7	-0.108323745
217	0x3d1c6c13	0.038189005
218	0xbe38d8c0	-0.18051434
219	0x3e26d35c	0.16291565
220	0x3e24e236	0.16101918
221	0x3e142f42	0.14471152
222	0xbdbdd595	-0.09269253
223	0xbdb24b98	-0.087058246
224	0xbd63c1d4	-0.05560477
225	0x3e0ddc9a	0.13853684
226	0x3bbebaf9	0.0058206287
227	0xbd2a4fdd	-0.04158007
228	0xbd221678	-0.03957221
229	0xbd395f04	-0.04525663
230	0x3dd9187d	0.10600374
231	0x3dc75d02	0.09734537
232	0xbd9c2bfd	-0.076255776
233	0xbe0c0d1c	-0.13676876
234	0x3ddc1996	0.10747068
235	0xbd5d4f42	-0.054030664
236	0xbbecace7	-0.00722276
237	0xbd067dbd	-0.032834757
238	0x3d847f3a	0.06469579
239	0xbe2506f7	-0.16115938
240	0x3d83613c	0.0641503
241	0x3cf2b5eb	0.02962776
242	0x3d46f857	0.04857668
243	0x3cb14ccb	0.021643063
244	0x3dc0d2a1	0.09415174
245	0xbde0d832	-0.10978736
246	0xbad58056	-0.0016288857
247	0x3dc8f6bf	0.09812688
248	0xbdf30d72	-0.11867799
249	0xbcf73fd0	-0.030181795
250	0xb9919756	-0.0002776931
251	0xbde37c5e	-0.111077055
252	0x3e18be58	0.1491636
253	0x3b880330	0.0041507706
254	0x3b30d995	0.0026985158
255	0x3cf2789c	0.029598527
