2_CTFT_TSMixer_GR/Best_PINN_TSMixer.pth (torch, 186695 bytes, 45 tensors)

weight f4 [300]
0	0x3f616c88	0.8805623
1	0x3f5d49f7	0.86440986
2	0x3f85cfc0	1.0454025
3	0x3f5bbc94	0.8583462
4	0x3f658db2	0.89669335
5	0x3f9201ba	1.1406777
6	0x3f97c6ab	1.1857504
7	0x3f64e580	0.8941269
8	0x3f688052	0.908208
9	0x3f8034c3	1.0016102
10	0x3f59a1a6	0.8501228
11	0x3f73399c	0.9500978
12	0x3f6ced91	0.9255
13	0x3f5b206f	0.85596365
14	0x3f884100	1.0644836
15	0x3f84302a	1.0327199
16	0x3f556930	0.8336363
17	0x3f7b16f7	0.98081917
18	0x3f877f42	1.0585711
19	0x3f58cc34	0.8468659
20	0x3f7efeec	0.9960773
21	0x3f6822b0	0.9067793
22	0x3f5c210c	0.85987926
23	0x3f8460e5	1.034207
24	0x3f62ebad	0.8864086
25	0x3f63d956	0.89003503
26	0x3f8d98a2	1.1062205
27	0x3f82a6ef	1.0207194
28	0x3f54363b	0.8289525
29	0x3f7c58ef	0.985732
30	0x3f86b9f6	1.0525501
31	0x3f5545d8	0.833097
32	0x3f6d4ff7	0.9270014
33	0x3f8a60ba	1.0810769
34	0x3f6fc09c	0.93653274
35	0x3f6be266	0.9214233
36	0x3f7b6d13	0.9821331
37	0x3f5ad49e	0.8548068
38	0x3f888bd1	1.0667669
39	0x3f5703ab	0.8398997
40	0x3f64ab61	0.89324003
41	0x3f91fee8	1.1405916
42	0x3f6c6a8b	0.9235007
43	0x3f51ca60	0.81949425
44	0x3f83183d	1.0241772
45	0x3f7d59b1	0.98964983
46	0x3f700e03	0.9377138
47	0x3f78bcd5	0.97163135
48	0x3f7c964b	0.9866683
49	0x3f6197d0	0.8812227
50	0x3f65c5b2	0.89754784
51	0x3f602185	0.87551147
52	0x3f5ed8cc	0.87049556
53	0x3f86578f	1.0495471
54	0x3f5fa720	0.8736439
55	0x3f4e9148	0.8069043
56	0x3f86217b	1.0478967
57	0x3f8eb5e4	1.1149259
58	0x3f4e3c2b	0.8056056
59	0x3f54a887	0.8306965
60	0x3f882dd1	1.0638982
61	0x3f68d479	0.9094921
62	0x3f74c009	0.9560552
63	0x3f87a3e4	1.059689
64	0x3f4c45f3	0.79794234
65	0x3f592867	0.84827274
66	0x3f68e285	0.9097064
67	0x3f59b755	0.8504537
68	0x3f92b3ce	1.1461122
69	0x3f51cf82	0.81957257
70	0x3f5eba1e	0.8700274
71	0x3f8a8e77	1.0824727
72	0x3f56799a	0.837793
73	0x3f57a501	0.8423615
74	0x3f8c60fd	1.0967098
75	0x3f8da123	1.10648
76	0x3f5d431e	0.8643054
77	0x3f774c49	0.96600777
78	0x3f83e9a8	1.0305681
79	0x3f607bb6	0.8768877
80	0x3f717a7e	0.94327533
81	0x3f77fc08	0.96868944
82	0x3f5d2776	0.8638834
83	0x3f82c452	1.0216162
84	0x3f70f301	0.94120795
85	0x3f63ecf1	0.8903342
86	0x3f964007	1.173829
87	0x3f75b572	0.9597999
88	0x3f5055ca	0.81380904
89	0x3f66cc40	0.9015541
90	0x3f63e532	0.890216
91	0x3f52834b	0.8223159
92	0x3f8463c0	1.0342941
93	0x3f4dfcd1	0.8046389
94	0x3f69eac7	0.91373867
95	0x3f975496	1.1822689
96	0x3f591976	0.84804475
97	0x3f5b8900	0.8575592
98	0x3f8b8c48	1.0902185
99	0x3f86b8b1	1.0525113
100	0x3f75a6d7	0.959577
101	0x3f50d328	0.815722
102	0x3f9196f7	1.1374196
103	0x3f5bb503	0.85823077
104	0x3f6f4bda	0.93475115
105	0x3f6d99c3	0.92812747
106	0x3f5dd02e	0.8664578
107	0x3f8514f9	1.0397025
108	0x3f83d4f3	1.0299362
109	0x3f5343da	0.8252541
110	0x3f5fd4bc	0.8743398
111	0x3f819329	1.0123035
112	0x3f5436d9	0.8289619
113	0x3f7b4974	0.98158956
114	0x3f8aec88	1.0853434
115	0x3f7a2a47	0.9772076
116	0x3f4d80c5	0.8027461
117	0x3f828a29	1.0198413
118	0x3f5f5dad	0.8725231
119	0x3f8331d6	1.0249584
120	0x3f514e86	0.8176044
121	0x3f5ecca5	0.8703101
122	0x3f8eb7af	1.1149806
123	0x3f5124b7	0.8169665
124	0x3f55ef60	0.8356838
125	0x3f8edc16	1.1160915
126	0x3f7f3612	0.9969188
127	0x3f61612e	0.8803891
128	0x3f72b039	0.94800144
129	0x3f74e3d3	0.9566013
130	0x3f584b07	0.8448948
131	0x3f5eba80	0.87003326
132	0x3f744828	0.954226
133	0x3f595bdd	0.849058
134	0x3f9f450e	1.2442949
135	0x3f8675c3	1.0504688
136	0x3f679779	0.90465504
137	0x3f72dbf3	0.94866866
138	0x3f58ce55	0.8468984
139	0x3f5710f9	0.84010273
140	0x3f8f19f5	1.1179796
141	0x3f5929f0	0.84829617
142	0x3f50dc70	0.8158636
143	0x3f93c72c	1.1545157
144	0x3f869be5	1.0516325
145	0x3f6e0fec	0.92993045
146	0x3f764083	0.9619219
147	0x3f8e8489	1.1134197
148	0x3f5e81cc	0.86916804
149	0x3f6f4b14	0.93473935
150	0x3f939880	1.1530914
151	0x3f67b39a	0.90508425
152	0x3fa1ffd6	1.26562
153	0x3f86cf04	1.0531926
154	0x3f63199c	0.8871095
155	0x3f884cf7	1.0648488
156	0x3f61dd5f	0.8822841
157	0x3f6f6afe	0.9352263
158	0x3f78e031	0.9721709
159	0x3f5f8df1	0.8732596
160	0x3f637417	0.88849014
161	0x3f93de8d	1.1552292
162	0x3f736c6a	0.950873
163	0x3f60b0fb	0.8777005
164	0x3f61acc6	0.88154256
165	0x3f7c4f00	0.98558044
166	0x3f6d9125	0.927996
167	0x3f4a36a1	0.7898961
168	0x3f803596	1.0016353
169	0x3f57234b	0.8403823
170	0x3f843aef	1.0330485
171	0x3f853fb0	1.0410061
172	0x3f5b2754	0.85606885
173	0x3f789770	0.97106075
174	0x3f6e36bd	0.93052274
175	0x3f60b551	0.87776667
176	0x3f9621d7	1.1729077
177	0x3f6ddd61	0.9291592
178	0x3f5ab9da	0.85439837
179	0x3f90cf7f	1.1313323
180	0x3f717acc	0.94328
181	0x3f5c8542	0.86140835
182	0x3f94fffe	1.1640623
183	0x3f6c0df5	0.92208797
184	0x3f5aa0d3	0.8540165
185	0x3f95646d	1.1671273
186	0x3f705886	0.93885076
187	0x3f58ca82	0.84684
188	0x3f813226	1.0093429
189	0x3f5ea92c	0.86976886
190	0x3f63623e	0.8882178
191	0x3f743edc	0.95408416
192	0x3f8182d2	1.0118048
193	0x3f573e50	0.84079456
194	0x3f92f0d4	1.1479745
195	0x3f83f2dc	1.030849
196	0x3f577e95	0.84177524
197	0x3f963905	1.1736151
198	0x3f7fe6be	0.9996146
199	0x3f5bd4eb	0.8587176
200	0x3fa00b90	1.2503529
201	0x3f774887	0.9659504
202	0x3f7d6d46	0.98994863
203	0x3f55e9ea	0.8356005
204	0x3f744d16	0.95430124
205	0x3f5f6c7a	0.872749
206	0x3f96435d	1.1739308
207	0x3f6793ac	0.90459704
208	0x3f561494	0.8362515
209	0x3f92741b	1.1441683
210	0x3f792256	0.9731802
211	0x3f5c7f4f	0.8613176
212	0x3f71f00f	0.94506925
213	0x3f713c3e	0.9423255
214	0x3f62c307	0.8857884
215	0x3f910540	1.1329727
216	0x3f6893d8	0.9085059
217	0x3f5a1bad	0.8519848
218	0x3f84cc3d	1.0374829
219	0x3f65c666	0.89755857
220	0x3f61a0fa	0.88136256
221	0x3f8b7d5f	1.0897635
222	0x3f59060d	0.8477486
223	0x3f54b78b	0.83092564
224	0x3f8fc9ba	1.1233437
225	0x3f6028b4	0.8756211
226	0x3f613e86	0.8798603
227	0x3f6e5923	0.9310476
228	0x3f4c1054	0.79712415
229	0x3f5e8f0e	0.86937034
230	0x3f8b2a5c	1.0872302
231	0x3f7baed6	0.98313653
232	0x3f65206a	0.89502585
233	0x3f850c6d	1.0394417
234	0x3f55287d	0.83264905
235	0x3f63924c	0.88895106
236	0x3f3dfcd4	0.7421391
237	0x3f7064e5	0.9390395
238	0x3f5ea7c5	0.86974746
239	0x3f85603e	1.0419996
240	0x3f4a8602	0.7911073
241	0x3f3ead53	0.7448322
242	0x3f719dd7	0.9438147
243	0x3f7e37df	0.99304
244	0x3f64a58d	0.8931511
245	0x3f8ff69a	1.1247132
246	0x3f81fb04	1.0154729
247	0x3f5e74bf	0.8689689
248	0x3f97fb14	1.1873498
249	0x3f5efc86	0.8710407
250	0x3f619c8b	0.8812949
251	0x3f95bd36	1.1698368
252	0x3f79b5d8	0.97543097
253	0x3f5d2906	0.8639072
254	0x3f9db499	1.2320739
255	0x3f611dde	0.879362

bias f4 [300]
0	0x3d6cb0f0	0.05778593
1	0xbd524cca	-0.051342763
2	0xbdca4cb3	-0.098779105
3	0x3dcf55d1	0.1012379
4	0x3e92c7a9	0.28667954
5	0x3e7fcf1a	0.24981347
6	0x3e1d9db3	0.15392189
7	0xbdce305d	-0.10067818
8	0xbe4cf7de	-0.20016429
9	0x3e00e1ab	0.12586085
10	0xbd89589e	-0.067063555
11	0xbe887245	-0.2664968
12	0x3dbfae73	0.093594454
13	0x3d9a1113	0.07522788
14	0xbd5b12c1	-0.053484682
15	0x3e8bb123	0.27283582
16	0xbe49c3ed	-0.19703646
17	0xbe9e1e67	-0.3088257
18	0x3e07682d	0.13223334
19	0x3d974d10	0.073877454
20	0xbdccade5	-0.09994105
21	0x3dd85731	0.105635054
22	0xbd34aed9	-0.04411206
23	0xbe35bb7c	-0.17747301
24	0x3d90b5df	0.07065939
25	0x3df459cc	0.1193119
26	0x3dacc012	0.08435072
27	0x3dc61bd7	0.09673279
28	0xbdf34238	-0.118778646
29	0xbe8c5a52	-0.2741266
30	0x3d67fab7	0.056635585
31	0xba5b3fb7	-0.0008363681
32	0xbe55e7be	-0.20889184
33	0x3dbdfa66	0.09276275
34	0xbe38a912	-0.18033245
35	0xbe13d586	-0.14436921
36	0x3e011929	0.12607254
37	0xbd32f16c	-0.04368727
38	0xbdddffd2	-0.108398095
39	0x3e13b51d	0.14424558
40	0x3e184ad9	0.14872302
41	0x3ca1ff3c	0.019775026
42	0x3d90a9f8	0.07063669
43	0xbe779bf9	-0.24180593
44	0xbe72f9be	-0.23728082
45	0xba889bb9	-0.0010422386
46	0x3e00e330	0.12586665
47	0x3db01664	0.08598021
48	0x3e06c2dd	0.13160272
49	0xbb66f59e	-0.0035241614
50	0xbe17d9b6	-0.14829144
51	0x3e07e5c6	0.13271245
52	0xbd9b7c26	-0.07592039
53	0xbe717ddd	-0.2358317
54	0x3d4d4d47	0.050122526
55	0xbdbe358a	-0.092875555
56	0xbe1515f5	-0.14559157
57	0x3e33d48c	0.17561549
58	0xbe4e7d60	-0.20165014
59	0xbe78d3aa	-0.24299493
60	0x3d16a306	0.036776565
61	0x3d5dfdbc	0.054197058
62	0x3c9668c3	0.018360501
63	0x3e2c2e27	0.1681448
64	0xbe8d73ff	-0.2762756
65	0xbeb7c5b6	-0.3589303
66	0x3dad4477	0.08460324
67	0x3e51ea25	0.20499475
68	0x3db735ec	0.08945832
69	0x3d295500	0.041340828
70	0x3daee72d	0.08540187
71	0x3d7b7e76	0.0613999
72	0x3e008061	0.12548973
73	0x3d2e67d8	0.042579502
74	0xbd0e32b9	-0.03471634
75	0x3de4183f	0.11137437
76	0x3c06d8cd	0.0082304
77	0x3c84a4ba	0.016191829
78	0x3db70abe	0.08937596
79	0x3d64fec3	0.055907022
80	0xbdce2628	-0.100658715
81	0xbb5fa0e9	-0.003412301
82	0x3cbdcdf2	0.023169491
83	0xbc2683f0	-0.010163292
84	0xbe25d259	-0.16193523
85	0x3e2aa51c	0.16664547
86	0x3e5a5a86	0.21323594
87	0x3e3c2ebc	0.18377203
88	0xbdb59e86	-0.088681266
89	0xbe8dcf13	-0.27697048
90	0x3dc03807	0.09385686
91	0xbe2b4b84	-0.16728026
92	0xbea5dcbc	-0.3239497
93	0x3d868417	0.06568163
94	0x3e39d778	0.18148601
95	0x3e33d086	0.17560014
96	0x3dc2c1eb	0.09509643
97	0x3dcb3527	0.099222474
98	0xbd9cc2c8	-0.07654339
99	0x3dcba94f	0.099444024
100	0xbe354f51	-0.17706038
101	0xbe8a5d56	-0.27024335
102	0x3d3052c3	0.043047678
103	0xbdcfc8f1	-0.101457484
104	0xbe6457d8	-0.22299135
105	0xbd71162f	-0.058859047
106	0xbd0e70c7	-0.03477552
107	0xbe0a5091	-0.13507296
108	0x3955f0a9	0.00020402916
109	0xbe0f3f42	-0.13988975
110	0xbe7c3254	-0.24628574
111	0x3e3d841f	0.18507431
112	0xbdb8aa62	-0.09016873
113	0xbe75ad1e	-0.2399182
114	0x3da8c842	0.08241321
115	0x3d1e612a	0.03866688
116	0xbe429df3	-0.19005565
117	0xbe1e86ce	-0.15481111
118	0x3dda440e	0.10657512
119	0x3e3bcade	0.18339106
120	0x3d8d6a4a	0.06905039
121	0x3ddb979f	0.10722279
122	0xbd563329	-0.052294884
123	0x3e0420d7	0.12903152
124	0x3c8bbc32	0.017057512
125	0x3c9bcbfa	0.019018162
126	0x3d4b73c6	0.049670957
127	0x3d2f81d8	0.042848438
128	0xbe11d87a	-0.14242736
129	0x3ddc5d53	0.10759988
130	0xbe5f326d	-0.2179658
131	0xbea61388	-0.32436776
132	0xbd8af70f	-0.06785404
133	0x3e61e6e7	0.22060739
134	0x3e6d821d	0.23194166
135	0xbc96d432	-0.01841173
136	0xbd73b7cd	-0.059501458
137	0xbdcf6596	-0.10126798
138	0xbd140a8c	-0.03614287
139	0x3d557733	0.05211563
140	0x3d96f84a	0.07371576
141	0x3d917de9	0.071040936
142	0x3dc9d896	0.098557636
143	0xbd330bc3	-0.04371239
144	0x3da259dc	0.079272956
145	0x3db50c33	0.088402174
146	0xbd2aaf1a	-0.041670896
147	0xbba94f92	-0.005166956
148	0xbe10c307	-0.14136897
149	0xbe28ec9d	-0.16496511
150	0xbb350be0	-0.0027625486
151	0x3e9216ff	0.2853317
152	0x3eb3ab67	0.35091707
153	0x3c68ee73	0.014217007
154	0x3dc15158	0.09439343
155	0x3c8c7385	0.017144928
156	0xbe1604a3	-0.14650206
157	0x3d7319f1	0.05935091
158	0x3cad762d	0.021174515
159	0x3d4e71ea	0.050401606
160	0x3d08c2fa	0.03338907
161	0x3dad96b1	0.08476008
162	0x3e0350cb	0.12823789
163	0xbdff2628	-0.124584496
164	0xbe414fbe	-0.18878075
165	0x3e107546	0.14107236
166	0xbe0b61bf	-0.13611506
167	0xbe86eb2c	-0.26351297
168	0xbca510dd	-0.020149643
169	0xbd82327c	-0.063572854
170	0x3bc837ec	0.006110182
171	0x3de095ee	0.10966097
172	0xbdc19b95	-0.09453503
173	0xbe1d2fe0	-0.15350294
174	0x3d31c103	0.04339696
175	0x3e3b991c	0.18320125
176	0x3d9af0f4	0.075654894
177	0x3dbdb421	0.092628725
178	0xbcbd7578	-0.023127303
179	0xbd0ec648	-0.034857064
180	0x3cd7aa30	0.026326269
181	0x3e2bb717	0.16769062
182	0x3dd08ced	0.101831295
183	0xbbc89c17	-0.006122123
184	0x3df93b97	0.12169569
185	0xbb7e7ebd	-0.0038832866
186	0x3d3ec451	0.04657394
187	0xbd37d2da	-0.044878818
188	0xbe2b9d1c	-0.16759151
189	0x3da8b1a2	0.08237006
190	0x3ca054e9	0.019571738
191	0xbe05069d	-0.12990804
192	0xbbe489d1	-0.006974437
193	0x3da63fbc	0.08117625
194	0x3d404d52	0.04694874
195	0x3de45b9a	0.11150284
196	0x3deccfe7	0.11563092
197	0x3d9f6ddd	0.07784627
198	0xbe1a9274	-0.1509493
199	0x3e606cea	0.21916547
200	0x3e56960e	0.20955679
201	0x3d39863a	0.045294024
202	0xbe34882d	-0.17630072
203	0xbe2bb857	-0.16769539
204	0x3d5af31b	0.0534545
205	0x3dc09af0	0.09404552
206	0xbce71512	-0.02820829
207	0xbcbb6604	-0.022875793
208	0x3dc6ae11	0.09701169
209	0x3d649fbb	0.055816393
210	0xbcdc653d	-0.026903743
211	0xbddabcd0	-0.106805444
212	0xbdcf6e3e	-0.10128449
213	0x3d6afe44	0.057371393
214	0x3d7f6b2d	0.06235807
215	0x3d46d565	0.048543353
216	0x3b940b4e	0.004517949
217	0xbdb3b23e	-0.087742314
218	0xbe6d4064	-0.23169094
219	0xbd8bc4e5	-0.06824664
220	0xbda7955f	-0.08182787
221	0xbbcbe4d9	-0.006222349
222	0x3d30d99c	0.04317628
223	0x3d166def	0.036725935
224	0xbd8ec786	-0.0697165
225	0x3d02d441	0.031940702
226	0xbcf91148	-0.030403748
227	0xbe4801c8	-0.1953193
228	0x3a4a8d1b	0.0007726715
229	0x3bf1ee40	0.007383138
230	0xbdacd078	-0.084382
231	0x3d553e22	0.052061208
232	0xbd694823	-0.05695356
233	0xbc820671	-0.015872212
234	0x3deeb509	0.116556235
235	0xbe431c72	-0.1905382
236	0xbe98717e	-0.29774088
237	0xbc90acab	-0.01766046
238	0xbcc00e6e	-0.02344438
239	0xbdda4ff4	-0.10659781
240	0x3d512d34	0.0510685
241	0xbdef802e	-0.1169437
242	0xbe81618f	-0.25269744
243	0xbd823612	-0.06357969
244	0xbda314ba	-0.07962938
245	0xbbb10416	-0.0054020984
246	0xbe2fbf82	-0.17162898
247	0x3e3159f3	0.17319469
248	0x3e478a50	0.19486356
249	0xbd05615c	-0.032563552
250	0x3d9c2c4b	0.07625636
251	0x3dc6fb67	0.0971592
252	0xbde8721a	-0.11349888
253	0x3dbebc22	0.09313227
254	0x3e2551af	0.16144441
255	0x3daf0f30	0.08547819

running_mean f4 [300]
0	0x3e6f9ac5	0.23398884
1	0x3e142206	0.14466104
2	0x3ec4b17c	0.3841666
3	0x3e6308c7	0.22171317
4	0x3e040a21	0.12894489
5	0x3ec48f32	0.383905
6	0x3e630077	0.22168146
7	0x3e0419af	0.12900423
8	0x3ec48f32	0.383905
9	0x3e6304c1	0.22169782
10	0x3e0422a6	0.12903842
11	0x3ec48f32	0.383905
12	0x3e75e7f3	0.24014263
13	0x3e1f3adb	0.15549795
14	0x3ec4db9d	0.38448802
15	0x3e6ae1e5	0.22937734
16	0x3e0e7698	0.13912427
17	0x3ec49dbe	0.38401598
18	0x3e6327fe	0.22183225
19	0x3e044b9a	0.12919465
20	0x3ec48f32	0.383905
21	0x3e6cda97	0.2313026
22	0x3e1021bc	0.14075369
23	0x3ec4a6c7	0.3840849
24	0x3e635cf5	0.22203429
25	0x3e047266	0.12934265
26	0x3ec48f32	0.383905
27	0x3e75f1f1	0.24018075
28	0x3e1ee905	0.15518577
29	0x3ec4d10c	0.3844074
30	0x3e633348	0.22187531
31	0x3e0499aa	0.12949243
32	0x3ec48f32	0.383905
33	0x3e632110	0.22180581
34	0x3e04aff8	0.12957752
35	0x3ec48f32	0.383905
36	0x3e631d4f	0.22179149
37	0x3e04b9e7	0.12961541
38	0x3ec48f32	0.383905
39	0x3e632103	0.22180562
40	0x3e04be50	0.12963223
41	0x3ec48f32	0.383905
42	0x3e631856	0.22177252
43	0x3e04ba93	0.12961797
44	0x3ec48f32	0.383905
45	0x3e630afe	0.22172162
46	0x3e04b04d	0.12957878
47	0x3ec48f32	0.383905
48	0x3e72a923	0.23697333
49	0x3e1a4a4d	0.15067406
50	0x3ec4d5bc	0.38444316
51	0x3e630497	0.2216972
52	0x3e04c6ad	0.12966414
53	0x3ec48f32	0.383905
54	0x3e7215ea	0.23641172
55	0x3e196c05	0.14982612
56	0x3ec4cdf9	0.38438395
57	0x3e7aa71b	0.24477808
58	0x3e36e57f	0.17860983
59	0x3ec4922b	0.38392767
60	0x3e681c8d	0.22667141
61	0x3e0bfcdc	0.13670677
62	0x3ec49457	0.38394424
63	0x3e6320bd	0.22180457
64	0x3e04ed03	0.12981038
65	0x3ec48f32	0.383905
66	0x3e776520	0.2415967
67	0x3e215439	0.15754785
68	0x3ec4e6ae	0.38457245
69	0x3e62f490	0.22163606
70	0x3e050bb1	0.12992741
71	0x3ec48f32	0.383905
72	0x3e761831	0.24032666
73	0x3e2071cd	0.15668412
74	0x3ec4d540	0.38443947
75	0x3e629e56	0.22130713
76	0x3e051816	0.1299747
77	0x3ec48f32	0.383905
78	0x3e62739d	0.22114415
79	0x3e050e2e	0.1299369
80	0x3ec48f32	0.383905
81	0x3e672e42	0.2257624
82	0x3e0b012b	0.13574664
83	0x3ec491f5	0.38392606
84	0x3e744fe1	0.23858596
85	0x3e1f72fc	0.15571207
86	0x3ec4d66c	0.3844484
87	0x3e6885ff	0.22707365
88	0x3e0d22a1	0.13782741
89	0x3ec49332	0.3839355
90	0x3e625abe	0.22104928
91	0x3e0519b2	0.12998083
92	0x3ec48f32	0.383905
93	0x3e6264fa	0.22108832
94	0x3e051044	0.12994486
95	0x3ec48f32	0.383905
96	0x3e62614e	0.22107431
97	0x3e050a41	0.12992193
98	0x3ec48f32	0.383905
99	0x3e625ade	0.22104976
100	0x3e05027a	0.12989226
101	0x3ec48f32	0.383905
102	0x3e8e2a7d	0.2776679
103	0x3e412299	0.18860854
104	0x3ec49185	0.38392273
105	0x3e62359f	0.22090767
106	0x3e050bf8	0.12992847
107	0x3ec48f32	0.383905
108	0x3e6218f6	0.22079834
109	0x3e05185b	0.12997572
110	0x3ec48f32	0.383905
111	0x3e83078d	0.25591698
112	0x3e2b1fc9	0.16711344
113	0x3ec4926d	0.38392964
114	0x3e61e74a	0.22060886
115	0x3e05111f	0.12994812
116	0x3ec48f32	0.383905
117	0x3e65bbba	0.22434893
118	0x3e0a35dc	0.13497108
119	0x3ec49032	0.38391262
120	0x3e667487	0.22505389
121	0x3e0b4651	0.13601042
122	0x3ec49121	0.38391975
123	0x3e66178d	0.22469921
124	0x3e0ab89b	0.13546984
125	0x3ec4903c	0.38391292
126	0x3e73f62b	0.23824374
127	0x3e2e0769	0.16995014
128	0x3ec48f41	0.38390544
129	0x3e61d609	0.22054304
130	0x3e053b3f	0.13010882
131	0x3ec48f32	0.383905
132	0x3e61dc8d	0.2205679
133	0x3e053e7f	0.13012122
134	0x3ec48f32	0.383905
135	0x3e61f87a	0.22067443
136	0x3e054d41	0.13017751
137	0x3ec48f32	0.383905
138	0x3e621983	0.22080044
139	0x3e05590d	0.13022251
140	0x3ec48f32	0.383905
141	0x3e622432	0.2208412
142	0x3e055c41	0.13023473
143	0x3ec48f32	0.383905
144	0x3e7be460	0.24598837
145	0x3e1fdc28	0.15611327
146	0x3ec491fe	0.38392633
147	0x3e7b664f	0.24550746
148	0x3e3ebda1	0.18627025
149	0x3ec48f32	0.383905
150	0x3e8264a4	0.25467408
151	0x3e2dff0a	0.16991821
152	0x3ec48f32	0.383905
153	0x3e61dfa9	0.22057976
154	0x3e052e73	0.13006
155	0x3ec48f32	0.383905
156	0x3e61bbc6	0.22044286
157	0x3e0532c8	0.13007653
158	0x3ec48f32	0.383905
159	0x3e619b02	0.22031787
160	0x3e053df3	0.13011913
161	0x3ec48f32	0.383905
162	0x3e618f8b	0.22027414
163	0x3e054ce5	0.13017614
164	0x3ec48f32	0.383905
165	0x3e619bc4	0.22032076
166	0x3e055f5e	0.13024661
167	0x3ec48f32	0.383905
168	0x3e65f559	0.22456874
169	0x3e0be85d	0.13662858
170	0x3ec48f32	0.383905
171	0x3e61b289	0.22040762
172	0x3e05685a	0.13028088
173	0x3ec48f32	0.383905
174	0x3e61b5d1	0.22042014
175	0x3e0570c6	0.13031301
176	0x3ec48f32	0.383905
177	0x3e61a1f8	0.22034442
178	0x3e057afe	0.13035199
179	0x3ec48f32	0.383905
180	0x3e65a033	0.22424392
181	0x3e0bd463	0.13655238
182	0x3ec48f32	0.383905
183	0x3e65af29	0.224301
184	0x3e0b7350	0.13618207
185	0x3ec48f41	0.38390544
186	0x3e615062	0.2200332
187	0x3e055f6e	0.13024685
188	0x3ec48f32	0.383905
189	0x3e831b93	0.25606975
190	0x3e2888e2	0.16458467
191	0x3ecd6031	0.4011245
192	0x3e640962	0.22269204
193	0x3e07f762	0.13277963
194	0x3ec48f32	0.383905
195	0x3e743595	0.23848565
196	0x3e2a2279	0.16614713
197	0x3ec48f34	0.38390505
198	0x3e60ff24	0.21972328
199	0x3e053f0a	0.13012329
200	0x3ec48f32	0.383905
201	0x3e60d567	0.21956407
202	0x3e053e4a	0.13012043
203	0x3ec48f32	0.383905
204	0x3e60b5bc	0.21944326
205	0x3e053e96	0.13012156
206	0x3ec48f32	0.383905
207	0x3e609ee5	0.21935613
208	0x3e053845	0.13009746
209	0x3ec48f32	0.383905
210	0x3e609c20	0.21934557
211	0x3e053b50	0.13010907
212	0x3ec48f32	0.383905
213	0x3e60a96d	0.21939631
214	0x3e054478	0.130144
215	0x3ec48f32	0.383905
216	0x3e60b21e	0.21942946
217	0x3e054d11	0.1301768
218	0x3ec48f32	0.383905
219	0x3e60b0cc	0.21942443
220	0x3e05567d	0.13021274
221	0x3ec48f32	0.383905
222	0x3e65f41f	0.22456406
223	0x3e0c7779	0.1371745
224	0x3ec48f59	0.38390616
225	0x3e6082e7	0.21924935
226	0x3e055c7f	0.13023566
227	0x3ec48f32	0.383905
228	0x3e64e1d0	0.22351766
229	0x3e0ba7a6	0.13638172
230	0x3ec48f54	0.383906
231	0x3e6057d8	0.2190851
232	0x3e055530	0.13020778
233	0x3ec48f32	0.383905
234	0x3e60495b	0.21902983
235	0x3e054239	0.13013543
236	0x3ec48f32	0.383905
237	0x3e6d6c3e	0.23185822
238	0x3e2055ac	0.15657681
239	0x3ec48f32	0.383905
240	0x3e603f0f	0.21899055
241	0x3e052758	0.1300329
242	0x3ec48f32	0.383905
243	0x3e604b4a	0.2190372
244	0x3e051f1d	0.1300015
245	0x3ec48f32	0.383905
246	0x3e604f07	0.21905147
247	0x3e051bbe	0.12998864
248	0x3ec48f32	0.383905
249	0x3e6463b9	0.22303666
250	0x3e099e1c	0.1343922
251	0x3ec48f3c	0.3839053
252	0x3e6c208d	0.23059292
253	0x3e14fac5	0.14548786
254	0x3ec4c721	0.38433173
255	0x3e600bf1	0.21879555

running_var f4 [300]
0	0x3d989fb4	0.07452336
1	0x3d622858	0.055214256
2	0x3d874917	0.06605738
3	0x3da09466	0.07840805
4	0x3d6c43e1	0.057681922
5	0x3d87aebd	0.066251256
6	0x3da08d40	0.07839441
7	0x3d6c50cf	0.057694253
8	0x3d87aebd	0.066251256
9	0x3da09645	0.07841162
10	0x3d6c5ad5	0.05770381
11	0x3d87aebd	0.066251256
12	0x3d9580e9	0.07299978
13	0x3d694280	0.056948185
14	0x3d86d5db	0.065837584
15	0x3d9ce757	0.07661312
16	0x3d6b842b	0.057499092
17	0x3d8782af	0.06616723
18	0x3da0eefc	0.07858083
19	0x3d6c8802	0.057746895
20	0x3d87aebd	0.066251256
21	0x3d9b1a6f	0.07573401
22	0x3d65a234	0.056062892
23	0x3d87679e	0.0661156
24	0x3da12cf2	0.07869901
25	0x3d6ca837	0.05777761
26	0x3d87aebd	0.066251256
27	0x3d982429	0.07428772
28	0x3d71311c	0.058884725
29	0x3d86f223	0.06589153
30	0x3da0f006	0.07858281
31	0x3d6ce608	0.057836562
32	0x3d87aebd	0.066251256
33	0x3da0cabc	0.078511685
34	0x3d6d36bf	0.057913538
35	0x3d87aebd	0.066251256
36	0x3da0b771	0.07847489
37	0x3d6d5134	0.05793877
38	0x3d87aebd	0.066251256
39	0x3da0c082	0.07849218
40	0x3d6d556e	0.0579428
41	0x3d87aebd	0.066251256
42	0x3da0c5cf	0.07850229
43	0x3d6d160c	0.057882354
44	0x3d87aebd	0.066251256
45	0x3da0cab2	0.07851161
46	0x3d6cd49f	0.05781996
47	0x3d87aebd	0.066251256
48	0x3d9650fa	0.07339664
49	0x3d621a54	0.05520089
50	0x3d86e499	0.0658657
51	0x3da0f1f2	0.078586474
52	0x3d6cf9aa	0.057855286
53	0x3d87aebd	0.066251256
54	0x3d97f3f6	0.07419579
55	0x3d665729	0.056235466
56	0x3d86fad0	0.065908074
57	0x3daa2cd3	0.08309331
58	0x3ddc0530	0.10743177
59	0x3d87a5a1	0.06623388
60	0x3d9f340a	0.077735975
61	0x3d6e08d3	0.058113884
62	0x3d879efe	0.06622122
63	0x3da197d6	0.078902885
64	0x3d6d1aa4	0.057886735
65	0x3d87aebd	0.066251256
66	0x3d958c6c	0.07302174
67	0x3d651e64	0.055937186
68	0x3d86b524	0.065775186
69	0x3da185ed	0.078868724
70	0x3d6d5df6	0.057950936
71	0x3d87aebd	0.066251256
72	0x3d97248d	0.073800184
73	0x3d6e30ff	0.058152195
74	0x3d86e5f1	0.065868266
75	0x3da13336	0.07871096
76	0x3d6d501b	0.057937723
77	0x3d87aebd	0.066251256
78	0x3da112cd	0.07864914
79	0x3d6d0b53	0.057872128
80	0x3d87aebd	0.066251256
81	0x3d9efc6b	0.07762989
82	0x3d6de482	0.05807925
83	0x3d87a645	0.0662351
84	0x3d95a354	0.07306543
85	0x3d6390ca	0.055558003
86	0x3d86e3b7	0.06586402
87	0x3d9ec710	0.07752812
88	0x3d6f8ca1	0.058483724
89	0x3d87a289	0.06622798
90	0x3da12491	0.078683026
91	0x3d6d22ed	0.057894636
92	0x3d87aebd	0.066251256
93	0x3da143d1	0.07874263
94	0x3d6cf948	0.05785492
95	0x3d87aebd	0.066251256
96	0x3da154e5	0.078775205
97	0x3d6cea7f	0.05784082
98	0x3d87aebd	0.066251256
99	0x3da16040	0.07879686
100	0x3d6ce14d	0.05783205
101	0x3d87aebd	0.066251256
102	0x3dec12f3	0.11527052
103	0x3df569e9	0.119830914
104	0x3d87a7f2	0.0662383
105	0x3da158a8	0.07878238
106	0x3d6d1658	0.057882637
107	0x3d87aebd	0.066251256
108	0x3da130d5	0.07870642
109	0x3d6d3be7	0.057918455
110	0x3d87aebd	0.066251256
111	0x3dc5c9ba	0.09657617
112	0x3db5fb64	0.088858396
113	0x3d87a513	0.06623282
114	0x3da0db8e	0.07854377
115	0x3d6d4cef	0.057934698
116	0x3d87aebd	0.066251256
117	0x3d9eecac	0.07759985
118	0x3d6df2e4	0.058092967
119	0x3d87aba4	0.06624535
120	0x3d9eb721	0.07749773
121	0x3d6df61f	0.058096047
122	0x3d87a8c6	0.06623988
123	0x3d9ef36e	0.07761274
124	0x3d6e7a77	0.05822226
125	0x3d87ab86	0.066245124
126	0x3da87528	0.08225471
127	0x3dcc090c	0.09962663
128	0x3d87ae8b	0.06625088
129	0x3da10948	0.078630984
130	0x3d6e2cdd	0.058148254
131	0x3d87aebd	0.066251256
132	0x3da123f5	0.078681864
133	0x3d6e4a1e	0.058176152
134	0x3d87aebd	0.066251256
135	0x3da153de	0.078773245
136	0x3d6e8363	0.05823077
137	0x3d87aebd	0.066251256
138	0x3da1837e	0.07886408
139	0x3d6eab3f	0.05826878
140	0x3d87aebd	0.066251256
141	0x3da198ef	0.07890498
142	0x3d6ea761	0.058265094
143	0x3d87aebd	0.066251256
144	0x3db7bc4f	0.08971464
145	0x3d9cd8f4	0.07658568
146	0x3d87a66d	0.0662354
147	0x3db5d852	0.088791505
148	0x3e0f2b68	0.13981402
149	0x3d87aebd	0.066251256
150	0x3dd0f825	0.1020358
151	0x3dd2e472	0.10297479
152	0x3d87aebd	0.066251256
153	0x3da1a394	0.07892528
154	0x3d6e3ac2	0.058161505
155	0x3d87aebd	0.066251256
156	0x3da183ab	0.07886442
157	0x3d6e6292	0.058199473
158	0x3d87aebd	0.066251256
159	0x3da161e6	0.07880001
160	0x3d6eb020	0.058273435
161	0x3d87aebd	0.066251256
162	0x3da1605b	0.078797065
163	0x3d6f06b3	0.058356
164	0x3d87aebd	0.066251256
165	0x3da183e3	0.078864835
166	0x3d6f584d	0.05843382
167	0x3d87aebd	0.066251256
168	0x3d9fb628	0.077984154
169	0x3d70c4db	0.058781486
170	0x3d87aeba	0.06625123
171	0x3da1de95	0.07903782
172	0x3d6fc0f0	0.05853361
173	0x3d87aebd	0.066251256
174	0x3da1f060	0.07907176
175	0x3d6febf2	0.058574624
176	0x3d87aebd	0.066251256
177	0x3da1e58c	0.07905111
178	0x3d702823	0.058632027
179	0x3d87aebd	0.066251256
180	0x3d9fc94f	0.078020684
181	0x3d709e5f	0.058744784
182	0x3d87aebd	0.066251256
183	0x3d9f9fb5	0.077941336
184	0x3d7054ce	0.058674626
185	0x3d87ae8d	0.0662509
186	0x3da1bdbd	0.07897518
187	0x3d70025c	0.058596
188	0x3d87aebd	0.066251256
189	0x3dc52d16	0.0962774
190	0x3da9cad0	0.082906365
191	0x3d939334	0.07205811
192	0x3d9fe85c	0.07807991
193	0x3d6e6d6e	0.05820983
194	0x3d87aebd	0.066251256
195	0x3db11b1b	0.08647748
196	0x3dd3c590	0.103404164
197	0x3d87aeb4	0.06625119
198	0x3da1a2d4	0.07892385
199	0x3d700ed7	0.058607902
200	0x3d87aebd	0.066251256
201	0x3da18f62	0.07888676
202	0x3d703a10	0.058649123
203	0x3d87aebd	0.066251256
204	0x3da18461	0.078865774
205	0x3d706ef6	0.05869957
206	0x3d87aebd	0.066251256
207	0x3da17a75	0.07884685
208	0x3d709744	0.05873801
209	0x3d87aebd	0.066251256
210	0x3da1a130	0.07892072
211	0x3d70dd89	0.058805022
212	0x3d87aebd	0.066251256
213	0x3da1ce5e	0.079006895
214	0x3d712f41	0.058882955
215	0x3d87aebd	0.066251256
216	0x3da1faf5	0.079091944
217	0x3d716ed2	0.058943577
218	0x3d87aebd	0.066251256
219	0x3da20869	0.0791176
220	0x3d71b34f	0.059008893
221	0x3d87aebd	0.066251256
222	0x3d9f1fea	0.07769759
223	0x3d71e5fd	0.059057225
224	0x3d87ae42	0.06625034
225	0x3da1cf7f	0.07900905
226	0x3d72192b	0.059106033
227	0x3d87aebd	0.066251256
228	0x3d9f3bee	0.077751026
229	0x3d70fdb3	0.058835696
230	0x3d87ae52	0.06625046
231	0x3da1b4b4	0.078957945
232	0x3d723e61	0.05914152
233	0x3d87aebd	0.066251256
234	0x3da1c215	0.07898346
235	0x3d722141	0.059113745
236	0x3d87aebd	0.066251256
237	0x3dac34cd	0.084085084
238	0x3dbc2385	0.09186462
239	0x3d87aebd	0.066251256
240	0x3da1ec3b	0.079063855
241	0x3d7205fc	0.05908774
242	0x3d87aebd	0.066251256
243	0x3da1fd79	0.07909674
244	0x3d72171f	0.05910408
245	0x3d87aebd	0.066251256
246	0x3da21ffe	0.07916258
247	0x3d72410b	0.05914406
248	0x3d87aebd	0.066251256
249	0x3d9fc0de	0.07800458
250	0x3d70d3ac	0.058795616
251	0x3d87aea0	0.06625104
252	0x3d9859b7	0.07438987
253	0x3d6400b0	0.05566472
254	0x3d870d71	0.065943606
255	0x3da21c3e	0.07915543

weight f4 [100, 100]
0	0x3deb4b8c	0.11489019
1	0x3dafd4bd	0.085854985
2	0x3da06a94	0.07832828
3	0x3deab35b	0.114599906
4	0x3e541db6	0.20714459
5	0x3cb9546f	0.022623269
6	0x3ddc63fd	0.10761259
7	0x3dea5c6e	0.11443411
8	0x3dec82af	0.115483634
9	0x3cedceff	0.029029367
10	0x3e0ef372	0.13960055
11	0x3d9ec58e	0.07752524
12	0xbd1b4a8c	-0.03791289
13	0x3d1907cb	0.037360948
14	0xbd349a5d	-0.044092525
15	0x3dc42e67	0.09579163
16	0x3c074058	0.008255087
17	0x3c669d80	0.014075637
18	0x3cac297b	0.021015873
19	0xbcb8c5f0	-0.022555321
20	0x3c95c786	0.018283617
21	0xbd8b43b7	-0.06800025
22	0x3d8e72d2	0.06955494
23	0xbde433f1	-0.111427195
24	0x3d64a817	0.055824365
25	0xbbe06f4b	-0.0068492047
26	0xbd6f35c2	-0.058400877
27	0xbd3ec54f	-0.046574887
28	0xbde6a21e	-0.1126139
29	0xbdb79b5f	-0.089651816
30	0xbd84a5ab	-0.06476911
31	0xbd350aed	-0.044199873
32	0xbdf2437d	-0.118292786
33	0xbd191e8f	-0.03738266
34	0xbd652f5a	-0.05595336
35	0xbd848cd8	-0.06472176
36	0xbd2fdcb9	-0.042935107
37	0xbd1da1e0	-0.038484454
38	0x3ce25474	0.027628161
39	0x3c616759	0.01375755
40	0xbdd903ad	-0.10596404
41	0xbdb5b6ba	-0.08872743
42	0x3d283577	0.041066613
43	0xbd990cef	-0.0747317
44	0x3c5274f0	0.012845263
45	0xbbb24498	-0.005440306
46	0xbd8bc75c	-0.06825134
47	0x3c3c5cc7	0.011496729
48	0xbda0e5ae	-0.07856308
49	0xbd2df367	-0.042468455
50	0xbdd0cdc8	-0.101955
51	0x3d019a03	0.031641018
52	0x3d016508	0.03159049
53	0xbdcb28c0	-0.09919882
54	0xbd1098fd	-0.03530215
55	0xbdfcec44	-0.123497516
56	0xbc9812f1	-0.01856372
57	0xbc167185	-0.009182339
58	0x3c3c0588	0.011475928
59	0xbde0b308	-0.109716475
60	0xbda22bae	-0.079184875
61	0xbe015ae8	-0.12632334
62	0x3cb08ec6	0.021552455
63	0x3d76bebd	0.060240496
64	0xbc91b7bd	-0.017787809
65	0x3cad5cf8	0.021162495
66	0x3d07031a	0.032961942
67	0xbcff0c35	-0.03113375
68	0xbd11b38e	-0.035571627
69	0x3c9e8923	0.019352501
70	0xbd84da8d	-0.06486998
71	0xbd057378	-0.032580823
72	0xbc15fd60	-0.009154648
73	0xbcc29dfe	-0.023756977
74	0xbd7ea1c4	-0.06216599
75	0xbdb9c344	-0.09070447
76	0xbd634f4c	-0.055495545
77	0xbdb93f72	-0.09045304
78	0xbd4ace52	-0.04951317
79	0x3d40ac16	0.047039114
80	0x3bc49f40	0.0060004294
81	0xbd92effa	-0.07174678
82	0x3d96dbcd	0.073661424
83	0xbcc958a3	-0.024578398
84	0x3d751bf4	0.05984111
85	0xbda72059	-0.08160467
86	0xbc9ac6e2	-0.018893663
87	0xbd7ad7da	-0.06124101
88	0xbd9d94bd	-0.07694385
89	0xbdd6f541	-0.10495997
90	0x3d674387	0.056460883
91	0xbda8ae2d	-0.082363464
92	0xbd9d2b07	-0.076742224
93	0xbe024523	-0.12721686
94	0xbd8803ab	-0.066413246
95	0x3cd4a930	0.025959581
96	0xbe0d3626	-0.13790187
97	0xbdbcf275	-0.092259325
98	0xbd6b6700	-0.057471275
99	0xbdf55c65	-0.119805135
100	0xbd2b2a99	-0.04178867
101	0xbd4041a2	-0.046937592
102	0xbd915dee	-0.07097994
103	0x3d61af6d	0.05509894
104	0x3de26e26	0.110561654
105	0xbd0437c8	-0.03227976
106	0xbd8ba22b	-0.068180405
107	0xbd4ef4d1	-0.050526444
108	0x3ca61d5e	0.020277675
109	0xbd7b1904	-0.061303154
110	0xbceae860	-0.028675258
111	0x3dcbbe1f	0.09948372
112	0xbd9122c0	-0.07086706
113	0x3da1343f	0.07871293
114	0xbda7f0da	-0.08200236
115	0xbd0cc3ca	-0.034366407
116	0x3dc8aa78	0.09798139
117	0xbd794d7f	-0.06086492
118	0xbd16c914	-0.036812857
119	0x3ddc3695	0.10752598
120	0xbc695812	-0.014242189
121	0xbd675f3b	-0.056487303
122	0x3da8278f	0.0821067
123	0x3d88494a	0.06654604
124	0x3d41fd4e	0.04736071
125	0xbd8c9de0	-0.0686605
126	0x3d8910f5	0.066926874
127	0xbdcf1d5f	-0.10113024
128	0x3c9e6cd4	0.019339003
129	0xbda0a148	-0.07843262
130	0xbc54d3d9	-0.012989962
131	0xbbff72e7	-0.00779568
132	0x3d63d4f2	0.055623002
133	0xbdc77824	-0.09739712
134	0xbd7af6ef	-0.06127065
135	0x3d5a4b29	0.053294335
136	0xbbcab31d	-0.0061859027
137	0x3d8f0a71	0.069844134
138	0x3bbc2e79	0.0057428447
139	0x3d1472f9	0.03624246
140	0xbb7690d3	-0.0037622943
141	0xbdd9d142	-0.10635616
142	0x3d8915a8	0.06693584
143	0x3d5683d4	0.052371815
144	0xbdac82d7	-0.08423393
145	0xbc3f47da	-0.011674846
146	0xbce6a5e2	-0.028155271
147	0xbd2cfb01	-0.042231563
148	0x3d85141b	0.064979754
149	0x3c59d823	0.01329616
150	0xbc6f388b	-0.014600883
151	0xbc0ea11c	-0.008705404
152	0x3da7a521	0.08185793
153	0x3c12223f	0.008919298
154	0x3cbade2b	0.022811016
155	0xbcc25e51	-0.023726614
156	0xbddc56d7	-0.10758751
157	0x3d9e1a73	0.077198885
158	0xbc39f7ab	-0.011350553
159	0x3d45f13e	0.04832577
160	0xbda332ab	-0.079686485
161	0xbc9adf87	-0.018905414
162	0xbd8b4f75	-0.068022646
163	0x3c466ffd	0.012111661
164	0xbd8e3a1d	-0.06944678
165	0xbd8124cd	-0.06305847
166	0x3d9adf2b	0.07562097
167	0xbd87129c	-0.06595346
168	0xbdd07f5f	-0.10180544
169	0xbddf75ee	-0.10911165
170	0xbdc699de	-0.096973166
171	0x3bddece0	0.0067726225
172	0xbd404279	-0.046938393
173	0x3d5f7f4e	0.054564767
174	0x3d41e4b0	0.047337234
175	0xbd03616b	-0.032075327
176	0x3cdd2f68	0.027000144
177	0xbce93f11	-0.028472455
178	0x3ccd5020	0.02506262
179	0xbdc933a3	-0.09824302
180	0xbbe9a6a4	-0.007130461
181	0xbc8ffc7a	-0.017576445
182	0x3cfc5a7a	0.030804861
183	0x3d070e85	0.03297283
184	0x3c95491e	0.018223342
185	0xbdc1e588	-0.09467608
186	0xbcf0a1bc	-0.029373996
187	0xbd40f61a	-0.0471097
188	0x3ba8d202	0.005151988
189	0x3cd72617	0.02626328
190	0xbced7aca	-0.028989214
191	0x3ba1ad3d	0.0049339817
192	0xbc970f89	-0.018440025
193	0xbd4d6ad6	-0.050150715
194	0x3d5deaea	0.05417911
195	0xbb3eab6a	-0.002909387
196	0xbcbc63e1	-0.022996845
197	0x3d2e6972	0.04258103
198	0xbb9feaa3	-0.004880266
199	0xbdeac97d	-0.11464212
200	0x3bfb25fe	0.007664441
201	0xbd941200	-0.07229996
202	0xbd1dbc6b	-0.038509768
203	0x3da6790f	0.08128559
204	0xbd226856	-0.039650284
205	0xbda4347e	-0.080178246
206	0x3d5f5aef	0.05453008
207	0x3d3a8dcd	0.045545388
208	0xbc35100d	-0.01105119
209	0xbd2f0011	-0.042724673
210	0xbd3812bf	-0.044939753
211	0x3be06800	0.0068483353
212	0x3a433da8	0.0007447847
213	0x3da0bf38	0.07848972
214	0xbc5d8874	-0.0135213025
215	0xbd6eb932	-0.058282085
216	0x3c9ba31f	0.01899868
217	0xbd31d84c	-0.043419167
218	0x3dbcf766	0.09226875
219	0xbbac1bf4	-0.0052523557
220	0xbdb5ec22	-0.088829294
221	0x3caea25a	0.02131765
222	0x3d81765a	0.06321402
223	0xbc116ad5	-0.008875568
224	0x3dc2c802	0.09510805
225	0x3c0a4a43	0.008440557
226	0x3c989a38	0.018628225
227	0x3db94068	0.09045488
228	0xbdaa990b	-0.08329972
229	0xbd1d49ab	-0.038400333
230	0x3da2afee	0.07943712
231	0xbdb0629f	-0.086125605
232	0x3c6cce25	0.014453446
233	0xbd41ec7f	-0.04734468
234	0x3c68d07d	0.014209864
235	0xbcfa34c2	-0.030542735
236	0x3d9ef286	0.077611014
237	0xbdbb2591	-0.091380246
238	0x3a7c6cd4	0.0009629254
239	0x3d9dab29	0.07698662
240	0xbd17d83e	-0.03707146
241	0xbcf9896f	-0.030461041
242	0xbd3153b4	-0.043292716
243	0xbdad5d27	-0.08465033
244	0xbdb36380	-0.087592125
245	0xbd466b83	-0.048442375
246	0x3d01c548	0.031682283
247	0x3d83d3c1	0.06436873
248	0x3c7d2acd	0.015452099
249	0x3dac2670	0.08405769
250	0x3bc90bed	0.006135455
251	0xbce9882e	-0.028507318
252	0x3d5cd3c6	0.0539129
253	0x3da76ab1	0.08174647
254	0x3d9f62b3	0.07782497
255	0x3c10a0f3	0.008827436

bias f4 [100]
0	0x3c96e1c7	0.018418206
1	0xba87e351	-0.0010367428
2	0xbda7ca09	-0.08192832
3	0xbd3239cd	-0.043512154
4	0x3cdc7bad	0.026914442
5	0x3bf84c17	0.00757743
6	0xbd220b14	-0.039561346
7	0x3c4e596c	0.012594562
8	0xbd78f9f4	-0.06078525
9	0x3cb93d53	0.02261225
10	0xbc0456e7	-0.00807736
11	0xbd920987	-0.071307234
12	0xbda35fed	-0.07977281
13	0xbdc32d3e	-0.09530114
14	0xb955316f	-0.00020331678
15	0xbc64c52c	-0.013963025
16	0x3cbf6843	0.023365146
17	0xbbc40486	-0.0059819845
18	0x3ca9abbd	0.020711774
19	0x3ac5f169	0.0015101853
20	0x3b37a4f2	0.00280219
21	0xbd14f558	-0.03636679
22	0x3cebe263	0.028794473
23	0xbd08b840	-0.03337884
24	0x3cbb94dd	0.022898132
25	0xbd94571d	-0.07243178
26	0xbdbf88bd	-0.09352253
27	0x3aac3562	0.0013138468
28	0x3cd877fd	0.026424402
29	0x3b0f8626	0.0021900027
30	0xbdaf68ef	-0.08564936
31	0xbdd7bb34	-0.10533753
32	0xbda6168f	-0.081097715
33	0xbc41ad1e	-0.0118210595
34	0x3a4448c7	0.00074876513
35	0xbd85f9c3	-0.06541779
36	0xbd7f9e9a	-0.062407114
37	0x3a857d9a	0.0010184527
38	0xb932dfdf	-0.00017058801
39	0x3a03aa50	0.0005022632
40	0x3a90b8fa	0.0011041455
41	0x39f2d371	0.00046315373
42	0x37bd4efb	2.2567334e-05
43	0xbdd2bb25	-0.10289601
44	0xbda2c02c	-0.0794681
45	0xbdc3e7f0	-0.09565723
46	0xbc7de713	-0.015496987
47	0xbb9c25f0	-0.0047652647
48	0x3a7e921a	0.0009711102
49	0xb81be382	-3.7166763e-05
50	0x364fe14e	3.0976548e-06
51	0xbda4fd5a	-0.080561355
52	0xbcdd1eb3	-0.026992178
53	0xbb8f7f7a	-0.00437921
54	0xbdaff63a	-0.08591886
55	0xbbeed573	-0.0072886287
56	0xb78aaca8	-1.6531281e-05
57	0xbdabc3e0	-0.083869696
58	0xbda72f8a	-0.08163364
59	0xbd2a00a1	-0.041504506
60	0xb6d71522	-6.4099595e-06
61	0x38123e1e	3.4866964e-05
62	0xbd31213c	-0.043244585
63	0x3a8db2f8	0.0010810783
64	0xb6964498	-4.4783337e-06
65	0x371b76be	9.266367e-06
66	0xbae5864d	-0.0017511338
67	0xbd51781d	-0.05113994
68	0xbd6bc3e4	-0.057559863
69	0xbcddf9f3	-0.027096724
70	0xbd914e70	-0.07095039
71	0xbc6d6f87	-0.014491922
72	0xbdb7fde1	-0.089839704
73	0xbd8d6b86	-0.06905274
74	0x38a3805f	7.796357e-05
75	0xbcd7f527	-0.026362015
76	0x386e31e1	5.6790075e-05
77	0xbd3e13e7	-0.0464057
78	0xbdbf99fc	-0.09355542
79	0xb72c600c	-1.0274362e-05
80	0xbd4bcda4	-0.04975666
81	0xbd8040c6	-0.062623546
82	0xbd1d2421	-0.038364533
83	0x36d5f65b	6.376574e-06
84	0x3ca444d0	0.020052344
85	0xbcdd41e6	-0.027008962
86	0xb6c30f62	-5.8132437e-06
87	0xbda78d4c	-0.08181247
88	0x3754f911	1.2694175e-05
89	0xb7353e62	-1.0802965e-05
90	0xbd802c27	-0.062584214
91	0xb47625e2	-2.2924317e-07
92	0xb7b74155	-2.1845723e-05
93	0x37299499	1.0107783e-05
94	0xbd97b5f2	-0.0740775
95	0xb72eb222	-1.0412683e-05
96	0xbd6bd93e	-0.057580225
97	0xbda301f4	-0.07959357
98	0xbd8b51ea	-0.06802733
99	0x3d2b28e6	0.04178705

weight f4 [300]
0	0x3f33fe89	0.70310265
1	0x3f8b6bb3	1.0892242
2	0x3f8aca80	1.0843048
3	0x3f41eb57	0.75749725
4	0x3f892f3b	1.0717539
5	0x3f83a3ab	1.0284323
6	0x3f3e0896	0.7423185
7	0x3f7f9441	0.9983559
8	0x3f8c0f6a	1.0942204
9	0x3f47acd9	0.7799812
10	0x3f8637c2	1.0485766
11	0x3f8ca980	1.0989227
12	0x3f3879d7	0.7206091
13	0x3f8b0259	1.0860091
14	0x3f892c09	1.0716563
15	0x3f3bfe10	0.73434544
16	0x3f834989	1.0256816
17	0x3f915901	1.1355287
18	0x3f49cfa7	0.7883248
19	0x3f859763	1.0436825
20	0x3f89f50d	1.0777909
21	0x3f39b5bf	0.7254295
22	0x3f89e986	1.0774391
23	0x3f8b7ea4	1.0898023
24	0x3f450fd4	0.76977277
25	0x3f844231	1.03327
26	0x3f864e78	1.0492697
27	0x3f3875e5	0.7205489
28	0x3f8584ac	1.0431113
29	0x3f8cb047	1.0991296
30	0x3f553fae	0.8330029
31	0x3f7e0fcf	0.9924287
32	0x3f93caf4	1.1546311
33	0x3f4c4d5f	0.7980556
34	0x3f7c83b8	0.98638487
35	0x3f8c6693	1.0968803
36	0x3f4eb28a	0.8074118
37	0x3f7df611	0.9920359
38	0x3f8aca4b	1.0842985
39	0x3f51dfb0	0.81981945
40	0x3f7f75bb	0.9978902
41	0x3f874bb0	1.0569973
42	0x3f4d6e79	0.8024669
43	0x3f7f27bb	0.9967
44	0x3f8deeb3	1.108847
45	0x3f4aa545	0.7915843
46	0x3f718044	0.9433634
47	0x3f87131b	1.0552706
48	0x3f664295	0.89945346
49	0x3f80996a	1.0046818
50	0x3f96306d	1.1733528
51	0x3f54cd85	0.831261
52	0x3f7831c3	0.9695093
53	0x3f8b8e92	1.0902884
54	0x3f476d49	0.7790113
55	0x3f8447ab	1.0334371
56	0x3f8b967a	1.0905297
57	0x3f672b8f	0.9030084
58	0x3f770bb3	0.96502227
59	0x3f9adc8d	1.2098557
60	0x3f46b785	0.7762378
61	0x3f7b208b	0.9809653
62	0x3f85a2d7	1.044032
63	0x3f6ff978	0.93740034
64	0x3f82a5a9	1.0206805
65	0x3fa5529e	1.2915838
66	0x3f4314dd	0.7620371
67	0x3f7d35fd	0.98910505
68	0x3f84747e	1.034805
69	0x3f4be770	0.7965002
70	0x3f704f51	0.9387103
71	0x3f83a663	1.0285152
72	0x3f4025f6	0.75057924
73	0x3f7febcf	0.9996919
74	0x3f86857f	1.050949
75	0x3f5dd064	0.86646104
76	0x3f74c049	0.95605904
77	0x3f86b17d	1.0522915
78	0x3f62d646	0.88608205
79	0x3f7ab9c8	0.9793973
80	0x3f889daa	1.0673115
81	0x3f4df185	0.80446655
82	0x3f844593	1.0333732
83	0x3f87f96f	1.0622996
84	0x3f49b215	0.78787357
85	0x3f80493d	1.002235
86	0x3f780b0b	0.9689185
87	0x3f688c98	0.9083953
88	0x3f81d802	1.0144045
89	0x3f9e6862	1.2375605
90	0x3f5f7351	0.87285334
91	0x3f6bce7c	0.92111945
92	0x3f8ad68b	1.0846723
93	0x3f503bf2	0.8134147
94	0x3f632a3e	0.8873633
95	0x3f810035	1.0078188
96	0x3f5ca4e4	0.86189103
97	0x3f6bae31	0.9206267
98	0x3f859aed	1.0437905
99	0x3f80e1ae	1.0068872
100	0x3f824ced	1.0179726
101	0x3f993f61	1.1972467
102	0x3f5c61e0	0.86086845
103	0x3f82d949	1.022256
104	0x3f8ce9f5	1.1008898
105	0x3f5bec40	0.85907364
106	0x3f71427a	0.9424206
107	0x3f8490c5	1.035668
108	0x3f761d18	0.96138144
109	0x3f82885c	1.0197864
110	0x3f9ad8aa	1.2097371
111	0x3f5bb97a	0.8582989
112	0x3f81ae77	1.0131367
113	0x3f8c9961	1.0984308
114	0x3f77c6fd	0.9678801
115	0x3f6bad81	0.9206162
116	0x3f8e2b28	1.110692
117	0x3f59aedb	0.85032433
118	0x3f76a2d9	0.96342236
119	0x3f80d42d	1.0064751
120	0x3f55f0f4	0.8357079
121	0x3f7124c7	0.9419674
122	0x3f86dfd6	1.0537059
123	0x3f56f5d6	0.83968866
124	0x3f78274f	0.9693498
125	0x3f868fee	1.0512674
126	0x3f607178	0.8767314
127	0x3f813eb3	1.0097259
128	0x3f91ad5e	1.1381032
129	0x3f6e5e53	0.9311268
130	0x3f7fe4b8	0.9995837
131	0x3f9ce114	1.2256188
132	0x3f5931fa	0.84841883
133	0x3f5fa451	0.873601
134	0x3f764ecd	0.9621399
135	0x3f5ff12f	0.8747739
136	0x3f6e3a85	0.93058044
137	0x3f86e7da	1.0539505
138	0x3f5de4b8	0.8667712
139	0x3f6317d1	0.88708216
140	0x3f829f0a	1.0204785
141	0x3f606ad7	0.87663025
142	0x3f64f16f	0.894309
143	0x3f838c8c	1.0277267
144	0x3f51b6b8	0.8191943
145	0x3f76a994	0.96352506
146	0x3f854660	1.0412102
147	0x3f619ee5	0.8813308
148	0x3f5f556e	0.8723973
149	0x3f86f30d	1.0542923
150	0x3f5f4cf9	0.87226826
151	0x3f48ca29	0.7843347
152	0x3f69b487	0.9129109
153	0x3f630ea0	0.8869419
154	0x3f635640	0.8880348
155	0x3f81fe03	1.0155643
156	0x3f531aa2	0.82462513
157	0x3f73ac15	0.9518445
158	0x3f819ceb	1.0126013
159	0x3f641ae8	0.89103556
160	0x3f64e698	0.8941436
161	0x3f80d5a2	1.0065196
162	0x3f616273	0.88040847
163	0x3f7e50c8	0.9934201
164	0x3f8ff238	1.1245794
165	0x3f8243ba	1.0176919
166	0x3f83f81c	1.0310092
167	0x3f92e06a	1.1474736
168	0x3f5e802c	0.86914325
169	0x3f6c0cd5	0.9220708
170	0x3f84ced7	1.0375623
171	0x3f6c1a63	0.9222776
172	0x3f61e3dd	0.88238317
173	0x3f88b378	1.067977
174	0x3f640931	0.89076525
175	0x3f5e9d27	0.86958545
176	0x3f8016ae	1.0006921
177	0x3f6a9636	0.91635454
178	0x3f5d3b29	0.86418396
179	0x3f8410ff	1.0317687
180	0x3f654d1a	0.8957077
181	0x3f679a50	0.9046984
182	0x3f7ea0d8	0.9946418
183	0x3f608b24	0.8771231
184	0x3f6284e6	0.88484037
185	0x3f8131a5	1.0093275
186	0x3f6c5ce1	0.9232922
187	0x3f69f02d	0.91382104
188	0x3f888600	1.0665894
189	0x3f61c0c1	0.88184744
190	0x3f7fcba3	0.999201
191	0x3f8c2ef7	1.0951833
192	0x3f5d8682	0.8653337
193	0x3f67b5c0	0.90511703
194	0x3f7a5130	0.9778013
195	0x3f67acfd	0.90498334
196	0x3f45f7da	0.77331316
197	0x3f7d8bc2	0.9904138
198	0x3f5ed964	0.8705046
199	0x3f53981c	0.82653975
200	0x3f755e79	0.9584728
201	0x3f80081a	1.0002472
202	0x3f85d6db	1.0456194
203	0x3f902c7f	1.1263579
204	0x3f63b197	0.88942856
205	0x3f532c2e	0.8248929
206	0x3f7f7071	0.99780947
207	0x3f646fb9	0.89232975
208	0x3f560d50	0.83614063
209	0x3f809946	1.0046775
210	0x3f705091	0.93872935
211	0x3f646ec6	0.89231527
212	0x3f87fd66	1.0624206
213	0x3f689524	0.9085257
214	0x3f5d273d	0.86388
215	0x3f80b1a3	1.005421
216	0x3f6e5803	0.93103045
217	0x3f5ad649	0.85483223
218	0x3f86cda1	1.0531503
219	0x3f66d692	0.9017116
220	0x3f56151e	0.8362597
221	0x3f812a36	1.0091007
222	0x3f681345	0.906544
223	0x3f667cd7	0.9003424
224	0x3f83f26f	1.030836
225	0x3f60c38a	0.8779837
226	0x3f780c2f	0.9689359
227	0x3f918bec	1.1370826
228	0x3f638534	0.88875127
229	0x3f620679	0.88291126
230	0x3f843e29	1.033147
231	0x3f6640fa	0.89942896
232	0x3f5ce032	0.86279595
233	0x3f823d24	1.0174909
234	0x3f781529	0.9690729
235	0x3f8988e8	1.0744905
236	0x3f9de544	1.2335591
237	0x3f613525	0.8797172
238	0x3f4e844c	0.8067062
239	0x3f8365c7	1.0265435
240	0x3f6e1845	0.9300578
241	0x3f8183d9	1.0118362
242	0x3f9442b2	1.1582854
243	0x3f68e54f	0.909749
244	0x3f449b1e	0.7679919
245	0x3f80fb0e	1.0076616
246	0x3f6b4a49	0.91910225
247	0x3f48f146	0.78493154
248	0x3f79cbb5	0.9757646
249	0x3f6add05	0.917435
250	0x3f54f77b	0.83190125
251	0x3f813453	1.0094093
252	0x3f6e65f1	0.931243
253	0x3f3fd48f	0.74933714
254	0x3f75b8b3	0.95984954
255	0x3f6bfc38	0.9218173

bias f4 [300]
0	0xbe34c7f4	-0.17654401
1	0xbe62efc8	-0.22161782
2	0x3d883348	0.06650406
3	0xbdf15159	-0.11783094
4	0xbe1fd6f0	-0.15609336
5	0x3ca8d7b0	0.02061066
6	0xbe0682d0	-0.13135839
7	0xbe3848b4	-0.17996484
8	0x3d45a1c4	0.048249975
9	0xbdd42630	-0.10358846
10	0xbe16c610	-0.14723992
11	0x3d822f44	0.063566715
12	0xbe18c000	-0.14916992
13	0xbe4aff12	-0.19823864
14	0x3d3815ea	0.044942774
15	0xbe1085de	-0.14113566
16	0xbe4f03c4	-0.2021628
17	0x3d9958b7	0.07487624
18	0xbdc4f8c8	-0.09617764
19	0xbe1cf5a1	-0.15328075
20	0x3d0290a7	0.031876232
21	0xbe13f0b1	-0.14447285
22	0xbe36801c	-0.17822307
23	0x3d7df54c	0.06200151
24	0xbdfa113d	-0.12210319
25	0xbdf57de1	-0.119869
26	0x3d0bdb76	0.03414484
27	0xbe1bc36d	-0.15211268
28	0xbe3d0ec9	-0.18462671
29	0x3d80aa48	0.062824786
30	0xbdb4fffe	-0.08837889
31	0xbe378d21	-0.1792493
32	0x3d8a3024	0.06747463
33	0xbde21647	-0.11039405
34	0xbe031364	-0.12800366
35	0x3d45118b	0.048112433
36	0xbddafbac	-0.10692534
37	0xbdc937ec	-0.098251194
38	0x3d3b95d0	0.04579717
39	0xbdcd01dc	-0.1001012
40	0xbdaea5d5	-0.08527724
41	0x3cbb8fc6	0.022895705
42	0xbdeeae1d	-0.11654303
43	0xbdb6f94a	-0.08934267
44	0x3d71c291	0.059023444
45	0xbc68596c	-0.014181476
46	0xbe322688	-0.17397511
47	0x3c532e84	0.012889508
48	0xbc0b0864	-0.008485887
49	0xbe364dce	-0.17803118
50	0x3c6cf997	0.014463804
51	0xbdc8b21b	-0.09799596
52	0xbd8a7548	-0.06760651
53	0x3d141076	0.03614851
54	0xbdfe7d02	-0.12426187
55	0xbdc7ca2f	-0.0975536
56	0x3d7d2995	0.061807234
57	0xbcf61193	-0.030037677
58	0xbd217f40	-0.039427996
59	0x3d4231dd	0.047410835
60	0xbdbbdd1d	-0.091730334
61	0xbe1a867c	-0.15090364
62	0x3c1c910b	0.009556065
63	0xbd825f9a	-0.06365891
64	0xbda9f3be	-0.08298443
65	0x3d624901	0.055245403
66	0xbdc2e889	-0.09517009
67	0xbdd5a8cf	-0.10432588
68	0x3c8c66cf	0.017138867
69	0xbdfc007b	-0.12304779
70	0xbd1961d5	-0.037446816
71	0x3bf80bdb	0.0075697727
72	0xbdce8e36	-0.10085718
73	0xbdf749ca	-0.12074621
74	0x3d22e4f9	0.039769147
75	0xbd8db7bf	-0.069198124
76	0xbd11ff63	-0.035643946
77	0x3bd60f44	0.0065325815
78	0xbd68bb0e	-0.056819014
79	0xbbfe32b4	-0.007757509
80	0x3ce303d6	0.02771179
81	0xbdbe55d5	-0.09293715
82	0xbdd539e2	-0.10411431
83	0x3cf234d9	0.029566215
84	0xbdf16e6c	-0.117886394
85	0xbd03a65e	-0.032141082
86	0xbce46fd4	-0.027885355
87	0xbd6d2307	-0.057894733
88	0xbdf547d6	-0.11976592
89	0x3d37fe33	0.044920158
90	0xbda79b41	-0.08183909
91	0x3ba15fbf	0.004924744
92	0x3cedb731	0.029018017
93	0xbdfc5e86	-0.123227164
94	0xbcadf9b3	-0.02123723
95	0xbb49a97c	-0.0030771187
96	0xbdb3c1dc	-0.0877721
97	0x3c6ef7ce	0.014585448
98	0x3c25c3e8	0.0101175085
99	0xbd3e9428	-0.04652801
100	0xbd916d94	-0.071009785
101	0x3d6905c1	0.056890253
102	0xbd299bc9	-0.041408334
103	0xbd88b470	-0.06675041
104	0x3d49b3f9	0.0492439
105	0xbda931f8	-0.08261484
106	0x3cdf40ea	0.027252633
107	0x3a96239e	0.0011454707
108	0xbd748ae7	-0.05970278
109	0xbd85b784	-0.065291435
110	0x3d53b0c4	0.05168225
111	0xbd445927	-0.047936585
112	0xbd45d30d	-0.048296977
113	0x3d1677a3	0.03673519
114	0x3d3e0ee5	0.046400923
115	0xbdfbc9c9	-0.12294347
116	0xbcfec31f	-0.0310989
117	0xbdad11ae	-0.08450638
118	0xbcac1e63	-0.021010583
119	0xbc963c2b	-0.018339237
120	0xbdbff520	-0.09372926
121	0xbd61708c	-0.055038974
122	0x3cf0da31	0.029400917
123	0xbdb5d353	-0.088781975
124	0xbd46948f	-0.04848152
125	0x3cde77f5	0.02715681
126	0x39e87f37	0.0004434527
127	0x3cd0b956	0.025479
128	0x3c330953	0.010927516
129	0xbcec0497	-0.028810782
130	0xbb666337	-0.0035154351
131	0x3cee896f	0.029118268
132	0xbdae1d67	-0.08501702
133	0x3c962a29	0.01833065
134	0xbd2121e7	-0.039338972
135	0xbda5e552	-0.0810038
136	0x3d474a2f	0.04865473
137	0x3cdd5e1c	0.027022414
138	0xbda1b767	-0.07896309
139	0x3d3114d4	0.043232754
140	0xbb6abbf3	-0.0035817593
141	0xbd8ba4d4	-0.06818548
142	0x3d0d449e	0.034489267
143	0x3b26b2ec	0.0025436236
144	0xbbecf724	-0.00723161
145	0xbd66c483	-0.056339752
146	0x3bee6e25	0.007276314
147	0xbd93cd06	-0.072168395
148	0x3d97f50a	0.07419784
149	0x3cad0b3f	0.021123527
150	0xbd6b31f1	-0.057420675
151	0x3dac432c	0.084112495
152	0xbda5eebf	-0.08102178
153	0xbd871c31	-0.06597174
154	0x3d40cea4	0.047072068
155	0xbbf98e5d	-0.007615848
156	0xbd2689ba	-0.04065869
157	0x3d2a8202	0.04162789
158	0x3b8afdcd	0.004241681
159	0xbd8aacd4	-0.067712456
160	0x3d668a5c	0.056284294
161	0xbbfaf6e1	-0.007658825
162	0xbc278526	-0.010224616
163	0x3cbc7391	0.023004325
164	0x3d6d3246	0.057909273
165	0x3ac12ecc	0.0014738678
166	0xbd3f046a	-0.04663507
167	0x3d3eb65d	0.046560634
168	0xbd9cac9a	-0.07650109
169	0xbc1f15af	-0.00970976
170	0x3aed9c15	0.0018128181
171	0xbd49f801	-0.04930878
172	0x3d818f1c	0.06326124
173	0x3c5079e0	0.01272437
174	0xbda9a52a	-0.08283456
175	0x3d87b7bb	0.06626841
176	0xbc22f979	-0.009947174
177	0xbd67ea4e	-0.056619935
178	0x3d82c4a3	0.06385162
179	0x3bfe1862	0.0077543715
180	0xbd6e67cb	-0.058204453
181	0xbc7e0c45	-0.015505855
182	0xbccf6e6b	-0.025321206
183	0xbdb1977f	-0.08671474
184	0xbab92863	-0.0014126416
185	0x3a7d4fbf	0.0009663067
186	0xbd4b71aa	-0.049668945
187	0x3db5894c	0.08864078
188	0x3ca52c59	0.020162748
189	0xbc815ed6	-0.015792292
190	0x3d1ee63b	0.038793784
191	0x3cdc2a08	0.02687551
192	0xbdb0bdb7	-0.08629935
193	0xbc896ee6	-0.016776513
194	0xbcd702ed	-0.026246512
195	0xbd84df1d	-0.06487868
196	0x3db9b345	0.09067396
197	0xbc81f24b	-0.015862605
198	0xbd914d9f	-0.07094883
199	0x3dd4b8e1	0.10386825
200	0xbd19383c	-0.037407145
201	0xbd8467b3	-0.064650916
202	0xbd1eacac	-0.03873889
203	0x3d71629d	0.058931936
204	0xbd9795c8	-0.074016154
205	0x3d97c00a	0.074096754
206	0xbb4dd748	-0.0031408835
207	0xbd96aa26	-0.07356672
208	0x3d946e9c	0.072476596
209	0xbb838e3b	-0.004014758
210	0xbd1bf8c2	-0.03807903
211	0x3dce3b4b	0.10069903
212	0x3cd18c4a	0.02557959
213	0xbd73797f	-0.05944204
214	0x3dc5ce5a	0.09658499
215	0xbc5f9938	-0.01364737
216	0xbd33a0b6	-0.043854438
217	0x3dcaae77	0.09896558
218	0x3b557a19	0.0032573997
219	0xbdb094b5	-0.086221136
220	0x3dbf924b	0.09354075
221	0x3b0f162f	0.002183329
222	0xbd79b46e	-0.060963087
223	0xbc78ac93	-0.015177864
224	0x3bbdf1be	0.00579664
225	0xbc917752	-0.017757092
226	0x3d8f678e	0.07002173
227	0xbbe0b98a	-0.0068580555
228	0xbda983f7	-0.082771234
229	0xbc3cd9fc	-0.011526581
230	0x3c5cbf90	0.013473406
231	0xbd5afc82	-0.053463466
232	0x3e09031b	0.13380091
233	0xba31c656	-0.00067815685
234	0xbdd1e844	-0.10249379
235	0xbd03e0d4	-0.032196835
236	0x3d8a5dc4	0.067561656
237	0xbd824917	-0.06361597
238	0x3e01c88e	0.12674162
239	0xbbafa987	-0.0053607854
240	0xbcf4f171	-0.029900284
241	0x3dd04ede	0.10171293
242	0x3d6c15fa	0.057638146
243	0xbd8ef634	-0.06980553
244	0x3e137fd3	0.1440423
245	0x3b486eed	0.0030583695
246	0xbd08158f	-0.033223685
247	0x3e2c9ede	0.16857478
248	0xbcf246ec	-0.029574834
249	0xbd971745	-0.07377485
250	0x3a80f338	0.000983811
251	0x3b7a4568	0.0038188342
252	0xbd4f5cac	-0.05062549
253	0x3e42299b	0.18961184
254	0xbd1d8832	-0.038459964
255	0xbd44475d	-0.04791962
