2_CTFT_TSMixer_GR/Best_TSMixer.pth (torch, 186695 bytes, 45 tensors)

weight f4 [300]
0.88121045 0.8639678 1.0459951 0.8594992 0.89656985 1.1415409 1.1863011 0.8949228
0.90879273 1.0021911 0.8506705 0.9508648 0.92634284 0.8561499 1.0654948 1.033272
0.83445174 0.98162 1.059084 0.84731823 0.9969767 0.907248 0.8604805 1.0347788
0.886842 0.8902428 1.1067388 1.0216826 0.82946146 0.986211 1.0534482 0.833604
0.9273098 1.0820179 0.93741703 0.9220228 0.9829977 0.85574716 1.0675591 0.8412611
0.8946475 1.1413432 0.92435366 0.81962574 1.0248095 0.99058026 0.9378401 0.97205716
0.98780173 0.88128936 0.8980715 0.8766337 0.87105954 1.0502106 0.8746339 0.8067892
1.0483811 1.1155605 0.80676174 0.83121246 1.0651432 0.9097131 0.9568703 1.0607362
0.79905236 0.848783 0.9110659 0.85100776 1.1468177 0.8204797 0.86977506 1.0832824
0.8384629 0.84281355 1.0972439 1.1070822 0.8653888 0.96636873 1.0311701 0.8776902
0.9441112 0.96990323 0.86395115 1.0224757 0.94028676 0.8904161 1.1742926 0.9609636
0.81548357 0.9020519 0.89150745 0.82330704 1.0346284 0.8055611 0.91483384 1.1820527
0.8490481 0.8575089 1.0907682 1.053752 0.9604129 0.8161627 1.1379927 0.85825884
0.93561804 0.92951083 0.8672267 1.0406157 1.0314441 0.8261002 0.8747614 1.0126915
0.82955855 0.9824444 1.086284 0.97817785 0.80324143 1.0203258 0.8726797 1.0252577
0.8186594 0.8707114 1.1155416 0.8180086 0.83543503 1.1160761 0.997789 0.88070023
0.9480197 0.95782804 0.8455264 0.87031925 0.9541199 0.8485295 1.2444391 1.051474
0.9053987 0.9493132 0.848376 0.8400636 1.1189295 0.8486322 0.8157403 1.1550094
1.0526378 0.9301136 0.9623636 1.1131374 0.8698654 0.93601054 1.151163 0.9049451
1.2653961 1.0531499 0.88728434 1.0654689 0.8836217 0.93561286 0.97170246 0.8731075
0.8879809 1.1553861 0.9520798 0.8787493 0.8817185 0.98696184 0.92895097 0.79017085
1.0022148 0.8407207 1.0334463 1.0423176 0.8568937 0.9717786 0.9307343 0.87734276
1.173041 0.9297865 0.85389024 1.1315233 0.94288903 0.8614495 1.164232 0.9220115
0.854114 1.1671761 0.93998045 0.84769374 1.0095707 0.8708055 0.8882445 0.95442086
1.010322 0.8409425 1.1481621 1.0288837 0.8417295 1.1736931 0.99792445 0.8582857
1.2502357 0.9676044 0.98991495 0.8359531 0.9535072 0.8728736 1.1742771 0.9041732
0.8369153 1.1438361 0.974152 0.8619284 0.94565856 0.94185674 0.8854978 1.132785
0.9097 0.85237205 1.038044 0.89758605 0.8817937 1.0903206 0.8478854 0.8307862
1.1238225 0.87681866 0.88070136 0.93146086 0.7976164 0.86950964 1.0878596 0.9830879
0.8952468 1.0398399 0.83452904 0.8900162 0.74267465 0.9390493 0.86960524 1.0425506
0.792553 0.74576676 0.94394016 0.99257416 0.8934974 1.1247239 1.0138558 0.86882186
1.1877118 0.87092435 0.8811326 1.170292 0.97379833 0.8644017 1.2319887 0.8787565
00000000: 0297 613f fe2c 5d3f 2be3 853f 2408 5c3f
00000010: 9a85 653f 031e 923f b7d8 973f a919 653f
00000020: a4a6 683f cc47 803f 8bc5 593f e06b 733f
00000030: ce24 6d3f a42c 5b3f 2262 883f 4242 843f
00000040: a19e 553f 734b 7b3f 1190 873f d9e9 583f
00000050: dd39 7f3f 6841 683f 7348 5c3f a273 843f
00000060: 1408 633f f4e6 633f 9ea9 8d3f 7fc6 823f
00000070: 9657 543f 5378 7c3f 64d7 863f 1267 553f
00000080: 2d64 6d3f 907f 8a3f 90fa 6f3f b009 6c3f
00000090: bda5 7b3f 3f12 5b3f c7a5 883f e35c 573f
000000a0: 9e07 653f 8917 923f 71a2 6c3f fed2 513f
000000b0: f52c 833f ab96 7d3f 4a16 703f bdd8 783f
000000c0: 93e0 7c3f 2e9c 613f 04e8 653f 116b 603f
000000d0: c2fd 5e3f 4d6d 863f 02e8 5f3f bd89 4e3f
000000e0: 5a31 863f b0ca 8e3f f087 4e3f 57ca 543f
000000f0: 9d56 883f f5e2 683f 74f5 743f 34c6 873f
00000100: b28e 4c3f d849 593f 9d3b 693f a5db 593f
00000110: ecca 923f f50a 523f 94a9 5e3f ffa8 8a3f
00000120: 81a5 563f a1c2 573f 7d72 8c3f dfb4 8d3f
00000130: 1f8a 5d3f f163 773f 62fd 833f 4eb0 603f
00000140: 46b1 713f 944b 783f e72b 5d3f 7ce0 823f
00000150: a2b6 703f 4ff2 633f 384f 963f b601 763f
00000160: 88c3 503f e0ec 663f d539 643f 40c4 523f
00000170: b46e 843f 4139 4e3f 8d32 6a3f 814d 973f
00000180: 375b 593f b485 5b3f 4b9e 8b3f 58e1 863f
00000190: 9fdd 753f 0af0 503f bfa9 913f dab6 5b3f
000001a0: aa84 6f3f 6cf4 6d3f 9202 5e3f e532 853f
000001b0: 5c06 843f 4d7b 533f 5df0 5f3f e09f 813f
000001c0: f35d 543f 7a81 7b3f 5b0b 8b3f dd69 7a3f
000001d0: 3ba1 4d3f 099a 823f f067 5f3f a53b 833f
000001e0: aa93 513f f1e6 5e3f 11ca 8e3f 0369 513f
000001f0: 12df 553f 95db 8e3f 1a6f 7f3f 9275 613f
00000200: 6bb1 723f 3834 753f 6b74 583f 3ecd 5e3f
00000210: 3441 743f 3b39 593f c849 9f3f b396 863f
00000220: 36c8 673f 3106 733f 2b2f 593f 680e 573f
00000230: 1539 8f3f f63f 593f 5bd4 503f 59d7 933f
00000240: d6bc 863f ed1b 6e3f 765d 763f 497b 8e3f
00000250: 80af 5e3f 639e 6f3f 4f59 933f 7baa 673f
00000260: 80f8 a13f 9ecd 863f 1125 633f 4961 883f
00000270: 0835 623f 5384 6f3f 7ec1 783f f983 5f3f
00000280: b752 633f b1e3 933f 80bb 733f b7f5 603f
00000290: 4eb8 613f 88a9 7c3f bbcf 6d3f a348 4a3f
000002a0: 9348 803f 7939 573f f847 843f aa6a 853f
000002b0: 635d 5b3f 7bc6 783f 9a44 6e3f 8999 603f
000002c0: 3526 963f 7d06 6e3f 8d98 5a3f c1d5 903f
000002d0: 2d61 713f f487 5c3f 8e05 953f f208 6c3f
000002e0: 37a7 5a3f 0766 953f 8fa2 703f 7502 593f
000002f0: 9d39 813f 1ced 5e3f fe63 633f ed54 743f
00000300: 3b52 813f 0248 573f faf6 923f 76b2 833f
00000310: 967b 573f 933b 963f fa77 7f3f 9db8 5b3f
00000320: b907 a03f ecb4 773f 116b 7d3f 0601 563f
00000330: 0c19 743f a574 5f3f b64e 963f e577 673f
00000340: 1540 563f 3969 923f 0762 793f 57a7 5c3f
00000350: ae16 723f 861d 713f fcaf 623f 19ff 903f
00000360: 19e2 683f 0e35 5a3f a0de 843f 33c8 653f
00000370: 3bbd 613f a08f 8b3f 040f 593f 68ae 543f
00000380: 6ad9 8f3f 3077 603f a575 613f 3874 6e3f
00000390: 9730 4c3f 2f98 5e3f fc3e 8b3f a6ab 7b3f
000003a0: e52e 653f 7919 853f b2a3 553f 1ad8 633f
000003b0: ed1f 3e3f 8965 703f 739e 5e3f 4c72 853f
000003c0: c1e4 4a3f 92ea 3e3f 10a6 713f 5719 7e3f
000003d0: 3fbc 643f f4f6 8f3f 07c6 813f 1c6b 5e3f
000003e0: f106 983f e6f4 5e3f e891 613f 21cc 953f
000003f0: d94a 793f 6e49 5d3f ceb1 9d3f 30f6 603f

bias f4 [300]
0.05743743 -0.052590616 -0.098467164 0.1006288 0.28639987 0.24999388 0.15393277 -0.10015889
-0.20006657 0.12564185 -0.06735246 -0.26584318 0.09273834 0.075070605 -0.0526714 0.2723956
-0.19741042 -0.30827704 0.13240527 0.07373585 -0.099998586 0.10532911 -0.044468302 -0.17755297
0.07094368 0.11874456 0.08410313 0.09649772 -0.118840486 -0.2737519 0.056698974 -0.0011932094
-0.20861833 0.09276918 -0.18025795 -0.14418 0.12602265 -0.043241967 -0.10799521 0.1436052
0.14847787 0.020248916 0.06996482 -0.2426533 -0.23675956 -0.0014478427 0.12518643 0.08630962
0.13142829 -0.0039602485 -0.1478238 0.13241817 -0.0764819 -0.23536469 0.05038027 -0.093637966
-0.1457611 0.17505525 -0.2022129 -0.2425282 0.036492642 0.053862713 0.018781407 0.16780636
-0.27714425 -0.358329 0.08336068 0.20439735 0.08981336 0.040632177 0.085831866 0.061783627
0.12570694 0.043443576 -0.035142213 0.111601464 0.0080449 0.015940357 0.08967036 0.055015374
-0.09995738 -0.00308681 0.023669953 -0.009667949 -0.16167322 0.1662721 0.21322449 0.18387024
-0.089020304 -0.27640215 0.09318595 -0.16789198 -0.32367086 0.06562824 0.1814663 0.17529029
0.09486285 0.09896139 -0.07601083 0.09927544 -0.17782782 -0.2698839 0.042280495 -0.10222926
-0.22220314 -0.059475325 -0.034805432 -0.13455339 -0.00041942866 -0.14071067 -0.24577273 0.18520004
-0.09020224 -0.23933859 0.082221724 0.038190052 -0.18959008 -0.15424368 0.10677602 0.1826808
0.06862559 0.1072414 -0.05248596 0.12829939 0.017237235 0.018222583 0.049723234 0.042078268
-0.14251931 0.10732075 -0.2182025 -0.3241019 -0.06794473 0.22156596 0.2315247 -0.018506516
-0.059774496 -0.10110003 -0.035755996 0.051829405 0.074187994 0.07083485 0.09869201 -0.043781873
0.07884808 0.08825254 -0.04124393 -0.0056993277 -0.14165212 -0.16468671 -0.0026148113 0.28607786
0.35060695 0.014011939 0.09504397 0.017300889 -0.14501086 0.05861043 0.020662358 0.050576534
0.034210037 0.08465007 0.12822162 -0.12410018 -0.18866503 0.1405633 -0.13672893 -0.263252
-0.020479813 -0.06376611 0.005730212 0.109446324 -0.09400332 -0.15320662 0.044174537 0.18341856
0.07514738 0.09259515 -0.022587266 -0.03493484 0.026462374 0.1677001 0.10140892 -0.005034198
0.12156873 -0.004100275 0.046640396 -0.045352258 -0.16756012 0.082293905 0.01903541 -0.12968898
-0.0071026916 0.08173508 0.046465 0.11173865 0.11625675 0.077527195 -0.15096216 0.2189654
0.20911287 0.04491474 -0.17640805 -0.16726683 0.05343235 0.09467699 -0.028231433 -0.022498589
0.09761666 0.05517439 -0.02700386 -0.1072542 -0.10121225 0.057289716 0.06325125 0.047924925
0.004476972 -0.088039406 -0.23159388 -0.067599505 -0.08153484 -0.006086214 0.043541327 0.037133213
-0.06980529 0.03184077 -0.031260878 -0.1949 0.0005512849 0.0073013064 -0.08434601 0.05114439
-0.056221526 -0.015807776 0.11660904 -0.1912456 -0.29721588 -0.01790683 -0.023142753 -0.10685481
0.050901454 -0.11748506 -0.25252616 -0.06416919 -0.07916229 -0.005861403 -0.17157228 0.17370345
0.19488543 -0.032476876 0.07626612 0.09698277 -0.11340256 0.09299733 0.1610343 0.08458177
00000000: 8343 6b3d 4269 57bd 27a9 c9bd 7916 ce3d
00000010: 01a3 923e 65fe 7f3e 8da0 1d3e 1b20 cdbd
00000020: 40de 4cbe 42a8 003e 16f0 89bd 991c 88be
00000030: 99ed bd3d 9ebe 993d f7bd 57bd 7077 8b3e
00000040: f525 4abe 7dd6 9dbe 3f95 073e d202 973d
00000050: 0fcc ccbd cab6 d73d 6524 36bd 72d0 35be
00000060: ec4a 913d 5930 f33d 433e ac3d 99a0 c53d
00000070: a462 f3bd 3629 8cbe 2f3d 683d 7765 9cba
00000080: 0ba0 55be c5fd bd3d 8a95 38be eca3 13be
00000090: 150c 013e 7d1e 31bd 982c ddbd 3e0d 133e
000000a0: 950a 183e 0ee1 a53c b749 8f3d 1b7a 78be
000000b0: 1971 72be 8ac5 bdba df30 003e 19c3 b03d
000000c0: 2395 063e f9c4 81bb 1f5f 17be a198 073e
000000d0: 8ba2 9cbd 7103 71be 8b5b 4e3d 43c5 bfbd
000000e0: 6642 15be af41 333e e610 4fbe 5059 78be
000000f0: 4f79 153d 269f 5c3d 77db 993c 6ed5 2b3e
00000100: dae5 8dbe e676 b7be 01b9 aa3d 8a4d 513e
00000110: 11f0 b73d ed6d 263d 9ec8 af3d d410 7d3d
00000120: 52b9 003e e4f1 313d 48f1 0fbd 4f8f e43d
00000130: c2ce 033c 5a95 823c 18a5 b73d cd57 613d
00000140: 74b6 ccbd 144c 4abb 7de7 c13c 5166 1ebc
00000150: aa8d 25be 3c43 2a3e 8557 5a3e 7b48 3c3e
00000160: 4750 b6bd 9584 8dbe 46d8 be3d e0eb 2bbe
00000170: 30b8 a5be 1968 863d 4dd2 393e 4c7f 333e
00000180: 7447 c23d 45ac ca3d 91ab 9bbd ec50 cb3d
00000190: 7f18 36be 392e 8abe 502e 2d3d 935d d1bd
000001a0: 3889 63be 669c 73bd 2490 0ebd 5dc8 09be
000001b0: c3e6 dbb9 7516 10be d9ab 7bbe 14a5 3d3e
000001c0: f4bb b8bd 2d15 75be dd63 a83d 2c6d 1c3d
000001d0: e723 42be 0ef2 1dbe 63ad da3d ad10 3b3e
000001e0: 938b 8c3d 61a1 db3d 85fb 56bd ea60 033e
000001f0: 1a35 8d3c 8747 953c 97aa 4b3d 435a 2c3d
00000200: 95f0 11be fbca db3d 7a70 5fbe aff0 a5be
00000210: 9b26 8bbd 30e2 623e d014 6d3e fa9a 97bc
00000220: 1ad6 74bd 880d cfbd e174 12bd 124b 543d
00000230: e0ef 973d dd11 913d 091f ca3d 9f54 33bd
00000240: 1a7b a13d bfbd b43d 65ef 28bd 6dc1 babb
00000250: 410d 11be a2a3 28be 415d 2bbb cc78 923e
00000260: c182 b33e 5592 653c 6aa6 c23d 98ba 8d3c
00000270: ba7d 14be 7e11 703d 1b44 a93c 5729 4f3d
00000280: d31f 0c3d 045d ad3d 874c 033e 3c28 febd
00000290: 6831 41be d3ef 0f3e ab02 0cbe f7c8 86be
000002a0: 48c5 a7bc ce97 82bd 81c4 bb3b 6525 e03d
000002b0: d084 c0bd 32e2 1cbe 5cf0 343d 13d2 3b3e
000002c0: dfe6 993d 87a2 bd3d ee08 b9bc d617 0fbd
000002d0: 9fc7 d83c 93b9 2b3e 7baf cf3d eaf5 a4bb
000002e0: 07f9 f83d 9a5b 86bb 000a 3f3d 4ac3 39bd
000002f0: e194 2bbe b589 a83d 26f0 9b3c 30cd 04be
00000300: b2bd e8bb b964 a73d 1552 3e3d 3cd7 e43d
00000310: 0518 ee3d 94c6 9e3d d395 1abe 7738 603e
00000320: af21 563e 85f8 373d 50a4 34be ff47 2bbe
00000330: e1db 5a3d 02e6 c13d 9b45 e7bc f64e b8bc
00000340: 3eeb c73d 8bfe 613d 3337 ddbc 17a8 dbbd
00000350: 5e48 cfbd 9fa8 6a3d df89 813d ed4c 443d
00000360: 90b3 923b 014e b4bd f226 6dbe 9c71 8abd
00000370: bdfb a6bd dd6e c7bb 6458 323d ff18 183d
00000380: 13f6 8ebd 786b 023d 680b 00bd de93 47be
00000390: 1a84 103a cc3f ef3b 9abd acbd c87c 513d
000003a0: 8b48 66bd 4f7f 81bc b8d0 ee3d e3d5 43be
000003b0: ae2c 98be 58b1 92bc df95 bdbc b2d6 dabd
000003c0: 0b7e 503d 029c f0bd 1c4b 81be 236b 83bd
000003d0: d71f a2bd 0311 c0bb a5b0 2fbe 51df 313e
000003e0: 0c90 473e 7906 05bd 6931 9c3d e79e c63d
000003f0: 9a3f e8bd 6275 be3d 2de6 243e 3539 ad3d

running_mean f4 [300]
0.2311683 0.14625745 0.3834181 0.21883541 0.13077164 0.38318163 0.21892862 0.13080072
0.38318163 0.21900745 0.13081913 0.38318163 0.23771 0.15792939 0.38366878 0.22572419
0.13974425 0.3832608 0.21907176 0.13085254 0.38318163 0.22810702 0.14266402 0.38333768
0.21902624 0.13089038 0.38318163 0.2371255 0.15751992 0.38363063 0.21898578 0.13093105
0.38318163 0.21907336 0.13092716 0.38318163 0.21918045 0.13091639 0.38318163 0.219257
0.13092512 0.38318163 0.21926466 0.13096105 0.38318163 0.21928483 0.13098384 0.38318163
0.23471414 0.1530171 0.38359836 0.21932724 0.13109575 0.38318163 0.23410653 0.15306777
0.38360977 0.23921499 0.1781058 0.38320586 0.22370157 0.13844751 0.3832155 0.21935967
0.13111268 0.38318163 0.2394903 0.16044092 0.3837392 0.21940948 0.13126527 0.38318163
0.23853706 0.15835673 0.3835563 0.21954036 0.13137138 0.38318163 0.21959132 0.13139734
0.38318163 0.2241237 0.13780236 0.38320777 0.23736066 0.15710606 0.3836855 0.22518852
0.14035414 0.38321212 0.21957345 0.1314247 0.38318163 0.21954975 0.13142788 0.38318163
0.2196069 0.13146658 0.38318163 0.21965985 0.131509 0.38318163 0.27378884 0.18824089
0.38319066 0.2195672 0.1314908 0.38318163 0.2194673 0.13145451 0.38318163 0.25311017
0.1685015 0.3832037 0.21952057 0.13151929 0.38318163 0.2231047 0.13743307 0.38319132
0.22369248 0.138081 0.38319707 0.22344446 0.13784073 0.38319227 0.2337139 0.16719082
0.38318592 0.21949224 0.13143788 0.38318163 0.21941395 0.13138756 0.38318163 0.21933588
0.13136902 0.38318163 0.21926041 0.13139446 0.38318163 0.2191689 0.13141166 0.38318163
0.24370687 0.15899938 0.3831989 0.23903492 0.18415861 0.38318163 0.25278896 0.16993211
0.38318163 0.21897869 0.13138515 0.38318163 0.21885835 0.13140582 0.38318163 0.21876998
0.13142158 0.38318163 0.2188026 0.13142711 0.38318163 0.21882246 0.13141724 0.38318163
0.22269855 0.1384119 0.3831827 0.21887569 0.13130587 0.38318163 0.21884483 0.13122007
0.38318163 0.21879944 0.13117647 0.38318163 0.22306184 0.1378538 0.38318196 0.22244637
0.1380183 0.38318187 0.21849968 0.1312123 0.38318163 0.24702853 0.16300714 0.38325906
0.2212934 0.1340236 0.38318446 0.2359048 0.16725516 0.38318318 0.21838875 0.13109663
0.38318163 0.21836735 0.13104923 0.38318163 0.21826553 0.13103868 0.38318163 0.21808177
0.1310631 0.38318163 0.21798666 0.13105536 0.38318163 0.21796797 0.13100275 0.38318163
0.21791117 0.13095787 0.38318163 0.21782091 0.13094388 0.38318163 0.22274369 0.13934198
0.38318163 0.2176247 0.13091594 0.38318163 0.22165288 0.13685353 0.38318372 0.2175414
0.13090199 0.38318163 0.21743691 0.13088278 0.38318163 0.23023704 0.1609124 0.38318163
0.2172454 0.1307969 0.38318163 0.2171756 0.13078958 0.38318163 0.21705636 0.13077475
0.38318163 0.2200235 0.13543084 0.38318163 0.2284231 0.14647989 0.38357732 0.21683218
00000000: 62b7 6c3e 83c4 153e 614f c43e 6416 603e
00000010: 00e9 053e 6230 c43e d32e 603e a0f0 053e
00000020: 6230 c43e 7d43 603e 73f5 053e 6230 c43e
00000030: 406a 733e 3eb8 213e 3c70 c43e 3e24 673e
00000040: 1e19 0f3e c23a c43e 5954 603e 35fe 053e
00000050: 6230 c43e e394 693e 8416 123e d644 c43e
00000060: 6a48 603e 2108 063e 6230 c43e 07d1 723e
00000070: e74c 213e 3c6b c43e cf3d 603e ca12 063e
00000080: 6230 c43e c454 603e c511 063e 6230 c43e
00000090: d770 603e f20e 063e 6230 c43e e884 603e
000000a0: 3c11 063e 6230 c43e ea86 603e a71a 063e
000000b0: 6230 c43e 348c 603e a120 063e 6230 c43e
000000c0: e758 703e 84b0 1c3e 0167 c43e 5297 603e
000000d0: f73d 063e 6230 c43e 9fb9 6f3e ccbd 1c3e
000000e0: 8068 c43e c6f4 743e 5e61 363e 8f33 c43e
000000f0: 0612 653e 2fc5 0d3e d234 c43e d29f 603e
00000100: 6742 063e 6230 c43e f23c 753e a04a 243e
00000110: 7779 c43e e1ac 603e 676a 063e 6230 c43e
00000120: 0f43 743e 4428 223e 7e61 c43e 30cf 603e
00000130: 3886 063e 6230 c43e 8cdc 603e 068d 063e
00000140: 6230 c43e af80 653e 101c 0d3e cf33 c43e
00000150: ac0e 733e 69e0 203e 6d72 c43e d297 663e
00000160: ffb8 0f3e 6134 c43e ddd7 603e 3294 063e
00000170: 6230 c43e a6d1 603e 0895 063e 6230 c43e
00000180: a2e0 603e 2d9f 063e 6230 c43e 83ee 603e
00000190: 4caa 063e 6230 c43e 0d2e 8c3e 38c2 403e
000001a0: 9131 c43e 39d6 603e 86a5 063e 6230 c43e
000001b0: 09bc 603e 039c 063e 6230 c43e a897 813e
000001c0: a88b 2c3e 4633 c43e 00ca 603e feac 063e
000001d0: 6230 c43e 8f75 643e 41bb 0c3e a731 c43e
000001e0: a40f 653e 1b65 0d3e 6832 c43e a0ce 643e
000001f0: 1f26 0d3e c731 c43e b252 6f3e 1234 2b3e
00000200: f230 c43e 93c2 603e a797 063e 6230 c43e
00000210: 0dae 603e 768a 063e 6230 c43e 9699 603e
00000220: 9a85 063e 6230 c43e cd85 603e 458c 063e
00000230: 6230 c43e d06d 603e c790 063e 6230 c43e
00000240: 4b8e 793e bcd0 223e a532 c43e 92c5 743e
00000250: 1394 3c3e 6230 c43e 8e6d 813e af02 2e3e
00000260: 6230 c43e f33b 603e d489 063e 6230 c43e
00000270: 671c 603e 3f8f 063e 6230 c43e 3d05 603e
00000280: 6193 063e 6230 c43e ca0d 603e d494 063e
00000290: 6230 c43e ff12 603e 3e92 063e 6230 c43e
000002a0: 170b 643e d9bb 0d3e 8630 c43e f320 603e
000002b0: 0c75 063e 6230 c43e dc18 603e 8e5e 063e
000002c0: 6230 c43e f60c 603e 2053 063e 6230 c43e
000002d0: 536a 643e 8c29 0d3e 6d30 c43e fbc8 633e
000002e0: ab54 0d3e 6a30 c43e 61be 5f3e 845c 063e
000002f0: 6230 c43e 0cf5 7c3e 58eb 263e 883a c43e
00000300: bd9a 623e 7c3d 093e c130 c43e 0791 713e
00000310: f044 2b3e 9630 c43e 4da1 5f3e 323e 063e
00000320: 6230 c43e b19b 5f3e c531 063e 6230 c43e
00000330: 0081 5f3e 012f 063e 6230 c43e d450 5f3e
00000340: 6835 063e 6230 c43e e537 5f3e 6033 063e
00000350: 6230 c43e ff32 5f3e 9625 063e 6230 c43e
00000360: 1b24 5f3e d219 063e 6230 c43e 720c 5f3e
00000370: 2716 063e 6230 c43e ec16 643e aaaf 0e3e
00000380: 6230 c43e 02d9 5e3e d40e 063e 6230 c43e
00000390: f9f8 623e 5523 0c3e a830 c43e 2cc3 5e3e
000003a0: 2c0b 063e 6230 c43e c8a7 5e3e 2306 063e
000003b0: 6230 c43e 42c3 6b3e 38c6 243e 6230 c43e
000003c0: 9475 5e3e 9fef 053e 6230 c43e 4863 5e3e
000003d0: b4ed 053e 6230 c43e 0644 5e3e d1e9 053e
000003e0: 6230 c43e d74d 613e 62ae 0a3e 6230 c43e
000003f0: bfe7 693e d3fe 153e 3f64 c43e 4109 5e3e

running_var f4 [300]
0.07433833 0.05515929 0.06366062 0.078433186 0.05753865 0.063834876 0.078506 0.05753038
0.063834876 0.078553006 0.057515167 0.063834876 0.073126614 0.056677956 0.06348822 0.07681736
0.057422165 0.06377513 0.07858405 0.057509627 0.063834876 0.075614 0.055812705 0.06371841
0.078519166 0.057504814 0.063834876 0.07404811 0.059206706 0.06351376 0.07844319 0.057479594
0.063834876 0.07852144 0.057484873 0.063834876 0.07860401 0.05751817 0.063834876 0.0786334
0.05749187 0.063834876 0.078641124 0.05748788 0.063834876 0.07866692 0.05746591 0.063834876
0.07327524 0.05490259 0.06353536 0.078663595 0.05753305 0.063834876 0.07389893 0.056114387
0.063525595 0.08246262 0.105933286 0.063816376 0.07761741 0.057993006 0.06380919 0.078699805
0.057498354 0.063834876 0.07272928 0.056045048 0.06343743 0.07875784 0.057624396 0.063834876
0.0737254 0.0580827 0.063566506 0.07883259 0.057694968 0.063834876 0.07885126 0.057730623
0.063834876 0.07787391 0.057980068 0.063814975 0.07336 0.055708364 0.06347707 0.0778064
0.058751196 0.06381163 0.07886651 0.057742987 0.063834876 0.0788238 0.0577498 0.063834876
0.07885738 0.05779963 0.063834876 0.078968555 0.057855923 0.063834876 0.11442618 0.11616128
0.06382797 0.07898915 0.057914384 0.063834876 0.07893934 0.057899494 0.063834876 0.0960678
0.08709884 0.063818336 0.07902024 0.05798887 0.063834876 0.07819065 0.058392867 0.063827485
0.078126155 0.05823801 0.0638231 0.07821432 0.05833876 0.06382669 0.08200932 0.09520728
0.06383158 0.07920288 0.058086842 0.063834876 0.07917952 0.05808829 0.063834876 0.07914216
0.058108516 0.063834876 0.07910609 0.058157 0.063834876 0.07906792 0.058205757 0.063834876
0.09031691 0.07692263 0.06382236 0.08740236 0.13678612 0.063834876 0.10304127 0.10307715
0.063834876 0.07913586 0.058365144 0.063834876 0.07910555 0.058408026 0.063834876 0.07904634
0.05845575 0.063834876 0.07908347 0.05850563 0.063834876 0.07912604 0.058553014 0.063834876
0.07822337 0.05887191 0.06383407 0.07928595 0.058560688 0.063834876 0.07930742 0.05855831
0.063834876 0.07933249 0.058579195 0.063834876 0.07817371 0.05884878 0.06383463 0.07827
0.05904999 0.0638347 0.07923937 0.05881407 0.063834876 0.09161105 0.0781815 0.06378605
0.078381576 0.058610477 0.06383272 0.08725425 0.10790269 0.063833706 0.07935491 0.059012502
0.063834876 0.07941126 0.059067566 0.063834876 0.079401486 0.05914428 0.063834876 0.079334155
0.059265576 0.063834876 0.07929163 0.059334166 0.063834876 0.079340875 0.059357554 0.063834876
0.07936612 0.05937178 0.063834876 0.079390325 0.059459534 0.063834876 0.078087315 0.059765473
0.063834846 0.07939614 0.05962639 0.063834876 0.078303985 0.059469473 0.06383328 0.07945517
0.059818063 0.063834876 0.07945695 0.05986644 0.063834876 0.08449097 0.099870354 0.063834876
0.0794343 0.05994653 0.063834876 0.07946217 0.060025144 0.063834876 0.079456486 0.060106542
0.063834876 0.07855491 0.059804562 0.06383487 0.07481287 0.05652711 0.063549206 0.07958133
00000000: b23e 983d b5ee 613d 8060 823d 94a1 a03d
00000010: a6ad 6b3d dcbb 823d c1c7 a03d faa4 6b3d
00000020: dcbb 823d 66e0 a03d 0695 6b3d dcbb 823d
00000030: 68c3 953d 2527 683d 1d06 823d 6c52 9d3d
00000040: 8133 6b3d 899c 823d adf0 a03d 378f 6b3d
00000050: dcbb 823d 83db 9a3d dd9b 643d cc7e 823d
00000060: a8ce a03d 2b8a 6b3d dcbb 823d 89a6 973d
00000070: bb82 723d 8113 823d d3a6 a03d b96f 6b3d
00000080: dcbb 823d d9cf a03d 4275 6b3d dcbb 823d
00000090: 24fb a03d 2c98 6b3d dcbb 823d 8c0a a13d
000000a0: 987c 6b3d dcbb 823d 990e a13d 6978 6b3d
000000b0: dcbb 823d 1f1c a13d 6061 6b3d dcbb 823d
000000c0: 5411 963d 8ae1 603d d41e 823d 611a a13d
000000d0: c7a7 6b3d dcbb 823d 5258 973d 33d8 653d
000000e0: b519 823d 2ae2 a83d 8df3 d83d 29b2 823d
000000f0: e0f5 9e3d 138a 6d3d 65ae 823d 5d2d a13d
00000100: 6583 6b3d dcbb 823d 17f3 943d 7e8f 653d
00000110: 7ceb 813d ca4b a13d 8f07 6c3d dcbb 823d
00000120: 58fd 963d 20e8 6d3d 282f 823d fb72 a13d
00000130: 8f51 6c3d dcbb 823d c57c a13d f276 6c3d
00000140: dcbb 823d 5b7c 9f3d 827c 6d3d 6db1 823d
00000150: c53d 963d 742e 643d 4400 823d f658 9f3d
00000160: 18a5 703d acaf 823d c484 a13d e983 6c3d
00000170: dcbb 823d 5f6e a13d 0e8b 6c3d dcbb 823d
00000180: fa7f a13d 4ebf 6c3d dcbb 823d 44ba a13d
00000190: 55fa 6c3d dcbb 823d 4658 ea3d f7e5 ed3d
000001a0: 3db8 823d 10c5 a13d a237 6d3d dcbb 823d
000001b0: f3aa a13d 0528 6d3d dcbb 823d 32bf c43d
000001c0: e060 b23d 30b3 823d 5dd5 a13d bd85 6d3d
000001d0: dcbb 823d 6b22 a03d 5c2d 6f3d fcb7 823d
000001e0: 9b00 a03d fb8a 6e3d afb5 823d d42e a03d
000001f0: a0f4 6e3d 91b7 823d 81f4 a73d 09fc c23d
00000200: 22ba 823d 1f35 a23d 78ec 6d3d dcbb 823d
00000210: df28 a23d fded 6d3d dcbb 823d 4915 a23d
00000220: 3203 6e3d dcbb 823d 6002 a23d 0936 6e3d
00000230: dcbb 823d 5dee a13d 2969 6e3d dcbb 823d
00000240: 12f8 b83d 9d89 9d3d 4cb5 823d 0200 b33d
00000250: a911 0c3e dcbb 823d 4d07 d33d 1d1a d33d
00000260: dcbb 823d fb11 a23d 4a10 6f3d dcbb 823d
00000270: 1702 a23d 413d 6f3d dcbb 823d 0ce3 a13d
00000280: 4c6f 6f3d dcbb 823d 84f6 a13d 99a3 6f3d
00000290: dcbb 823d d50c a23d 49d5 6f3d dcbb 823d
000002a0: 9333 a03d ac23 713d 70bb 823d ac60 a23d
000002b0: 55dd 6f3d dcbb 823d ee6b a23d d7da 6f3d
000002c0: dcbb 823d 1379 a23d bdf0 6f3d dcbb 823d
000002d0: 8a19 a03d 6b0b 713d bbbb 823d 064c a03d
000002e0: 67de 713d c4bb 823d 4048 a23d 06e7 703d
000002f0: dcbb 823d 939e bb3d 9f1d a03d 43a2 823d
00000300: 8586 a03d 8a11 703d bbba 823d 5bb2 b23d
00000310: 16fc dc3d 3fbb 823d d484 a23d 18b7 713d
00000320: dcbb 823d 5fa2 a23d d5f0 713d dcbb 823d
00000330: 3f9d a23d 4641 723d dcbb 823d f279 a23d
00000340: 76c0 723d dcbb 823d a663 a23d 6208 733d
00000350: dcbb 823d 787d a23d e820 733d dcbb 823d
00000360: b48a a23d d32f 733d dcbb 823d 6597 a23d
00000370: d78b 733d dcbb 823d 3eec 9f3d a4cc 743d
00000380: d8bb 823d 729a a23d cd3a 743d dcbb 823d
00000390: d75d a03d 4396 733d 06bb 823d 64b9 a23d
000003a0: c903 753d dcbb 823d 53ba a23d 8336 753d
000003b0: dcbb 823d 9a09 ad3d d488 cc3d dcbb 823d
000003c0: 73ae a23d 7e8a 753d dcbb 823d 10bd a23d
000003d0: eddc 753d dcbb 823d 15ba a23d 4732 763d
000003e0: dcbb 823d 66e1 a03d a1f5 743d dbbb 823d
000003f0: 7d37 993d f988 673d 1626 823d 89fb a23d

weight f4 [100, 100]
0.11392327 0.08501375 0.07762292 0.11402668 0.20669608 0.022296095 0.10739519 0.114333525
0.11548586 0.029136913 0.13978428 0.07778033 -0.037609335 0.037710104 -0.043685753 0.09628049
0.008795604 0.014668773 0.0216408 -0.021904541 0.01897493 -0.067299396 0.07026063 -0.11070988
0.056548566 -0.006102819 -0.057641648 -0.045821227 -0.111860156 -0.08889087 -0.06400186 -0.043416344
-0.117506325 -0.03659476 -0.05517254 -0.063957594 -0.0421904 -0.03777037 0.028322568 0.014418248
-0.105332784 -0.088118754 0.041668035 -0.074153356 0.013415026 -0.0048840083 -0.06770434 0.012053812
-0.07802033 -0.041946564 -0.1014292 0.032143697 0.032071896 -0.09872908 -0.034847196 -0.12306722
-0.01814881 -0.008771295 0.0118538905 -0.10936355 -0.07886012 -0.1260295 0.021822533 0.060507897
-0.01753763 0.021374974 0.033149227 -0.030989712 -0.0354487 0.019442413 -0.064815424 -0.03257782
-0.009185877 -0.023808993 -0.062210757 -0.0907477 -0.055540096 -0.090523615 -0.049616113 0.046944648
0.0059066303 -0.07180011 0.07364399 -0.024590693 0.0598392 -0.08159633 -0.018847348 -0.061160095
-0.07675773 -0.10467165 0.05684041 -0.08190448 -0.07618252 -0.12659998 -0.06581733 0.026637673
-0.13713716 -0.09139079 -0.05649117 -0.11872799 -0.04178867 -0.046937592 -0.07097994 0.05509894
0.110561654 -0.03227976 -0.068180405 -0.050526444 0.020277675 -0.061303154 -0.028675258 0.09948372
-0.07086706 0.07871293 -0.08200236 -0.034366407 0.09798139 -0.06086492 -0.036812857 0.10752598
-0.014242189 -0.056487303 0.0821067 0.06654604 0.04736071 -0.0686605 0.066926874 -0.10113024
0.019339003 -0.07843262 -0.012989962 -0.00779568 0.055623002 -0.09739712 -0.06127065 0.053294335
-0.0061859027 0.069844134 0.0057428447 0.03624246 -0.0037622943 -0.10635616 0.06693584 0.052371815
-0.08423393 -0.011674846 -0.028155271 -0.042231563 0.064979754 0.01329616 -0.014600883 -0.008705404
0.08185793 0.008919298 0.022811016 -0.023726614 -0.10758751 0.077198885 -0.011350553 0.04832577
-0.079686485 -0.018905414 -0.068022646 0.012111661 -0.06944678 -0.06305847 0.07562097 -0.06595346
-0.10180544 -0.10911165 -0.096973166 0.0067726225 -0.046938393 0.054564767 0.047337234 -0.032075327
0.027000144 -0.028472455 0.02506262 -0.09824302 -0.007130461 -0.017576445 0.030804861 0.03297283
0.018223342 -0.09467608 -0.029373996 -0.0471097 0.005151988 0.02626328 -0.028989214 0.0049339817
-0.018440025 -0.050150715 0.05417911 -0.002909387 -0.022996845 0.04258103 -0.004880266 -0.11464212
0.007664441 -0.07229996 -0.038509768 0.08128559 -0.039650284 -0.080178246 0.05453008 0.045545388
-0.01105119 -0.042724673 -0.044939753 0.0068483353 0.0007447847 0.07848972 -0.0135213025 -0.058282085
0.01899868 -0.043419167 0.09226875 -0.0052523557 -0.088829294 0.02131765 0.06321402 -0.008875568
0.09510805 0.008440557 0.018628225 0.09045488 -0.08329972 -0.038400333 0.07943712 -0.086125605
0.014453446 -0.04734468 0.014209864 -0.030542735 0.077611014 -0.091380246 0.0009629254 0.07698662
-0.03707146 -0.030461041 -0.043292716 -0.08465033 -0.087592125 -0.048442375 0.031682283 0.06436873
0.015452099 0.08405769 0.006135455 -0.028507318 0.0539129 0.08174647 0.07782497 0.008827436
00000000: 9a50 e93d b01b ae3d c4f8 9e3d d286 e93d
00000010: 23a8 533e 4da6 b63c 02f2 db3d b227 ea3d
00000020: da83 ec3d 89b0 ee3c 9c23 0f3e 4b4b 9f3d
00000030: 3f0c 1abd e975 1a3d d5ef 32bd b52e c53d
00000040: 701b 103c 4b55 703c 0c48 b13c 2771 b3bc
00000050: 5071 9b3c 44d4 89bd cee4 8f3d ddbb e2bd
00000060: 789f 673d 28fa c7bb a619 6cbd 0aaf 3bbd
00000070: f016 e5bd 6b0c b6bd 6813 83bd 56d5 31bd
00000080: 28a7 f0bd 63e4 15bd 9afc 61bd 33fc 82bd
00000090: d7cf 2cbd 1ab5 1abd bb04 e83c 843a 6c3c
000000a0: b7b8 d7bd 9b77 b4bd 1aac 2a3d b7dd 97bd
000000b0: b2ca 5b3c 080a a0bb 93a8 8abd 5a7d 453c
000000c0: 1fc9 9fbd 29d0 2bbd 1dba cfbd 1ca9 033d
000000d0: d25d 033d 7932 cabd efbb 0ebd ab0a fcbd
000000e0: d0ac 94bc 7ab5 0fbc d236 423c fff9 dfbd
000000f0: 6a81 a1bd e10d 01be 2bc5 b23c 21d7 773d
00000100: 13ab 8fbc 921a af3c 7cc7 073d 23de fdbc
00000110: a832 11bd b245 9f3c f3bd 84bd 5270 05bd
00000120: 5c80 16bc 140b c3bc b5d0 7ebd eed9 b9bd
00000130: 037e 63bd 7264 b9bd 443a 4bbd 0849 403d
00000140: 688c c13b f00b 93bd a9d2 963d 6c72 c9bc
00000150: f319 753d fa1b a7bd c165 9abc 0283 7abd
00000160: 2833 9dbd 175e d6bd 7dd1 683d 89bd a7bd
00000170: 9505 9cbd 6da3 01be 3ccb 86bd 4037 da3c
00000180: af6d 0cbe 182b bbbd 4963 67bd a927 f3bd
00000190: 992a 2bbd a241 40bd ee5d 91bd 6daf 613d
000001a0: 266e e23d c837 04bd 2ba2 8bbd d1f4 4ebd
000001b0: 5e1d a63c 0419 7bbd 60e8 eabc 1fbe cb3d
000001c0: c022 91bd 3f34 a13d daf0 a7bd cac3 0cbd
000001d0: 78aa c83d 7f4d 79bd 14c9 16bd 9536 dc3d
000001e0: 1258 69bc 3b5f 67bd 8f27 a83d 4a49 883d
000001f0: 4efd 413d e09d 8cbd f510 893d 5f1d cfbd
00000200: d46c 9e3c 48a1 a0bd d9d3 54bc e772 ffbb
00000210: f2d4 633d 2478 c7bd eff6 7abd 294b 5a3d
00000220: 1db3 cabb 710a 8f3d 792e bc3b f972 143d
00000230: d390 76bb 42d1 d9bd a815 893d d483 563d
00000240: d782 acbd da47 3fbc e2a5 e6bc 01fb 2cbd
00000250: 1b14 853d 23d8 593c 8b38 6fbc 1ca1 0ebc
00000260: 21a5 a73d 3f22 123c 2bde ba3c 515e c2bc
00000270: d756 dcbd 731a 9e3d abf7 39bc 3ef1 453d
00000280: ab32 a3bd 87df 9abc 754f 8bbd fd6f 463c
00000290: 1d3a 8ebd cd24 81bd 2bdf 9a3d 9c12 87bd
000002a0: 5f7f d0bd ee75 dfbd de99 c6bd e0ec dd3b
000002b0: 7942 40bd 4e7f 5f3d b0e4 413d 6b61 03bd
000002c0: 682f dd3c 113f e9bc 2050 cd3c a333 c9bd
000002d0: a4a6 e9bb 7afc 8fbc 7a5a fc3c 850e 073d
000002e0: 1e49 953c 88e5 c1bd bca1 f0bc 1af6 40bd
000002f0: 02d2 a83b 1726 d73c ca7a edbc 3dad a13b
00000300: 890f 97bc d66a 4dbd eaea 5d3d 6aab 3ebb
00000310: e163 bcbc 7269 2e3d a3ea 9fbb 7dc9 eabd
00000320: fe25 fb3b 0012 94bd 6bbc 1dbd 0f79 a63d
00000330: 5668 22bd 7e34 a4bd ef5a 5f3d cd8d 3a3d
00000340: 0d10 35bc 1100 2fbd bf12 38bd 0068 e03b
00000350: a83d 433a 38bf a03d 7488 5dbc 32b9 6ebd
00000360: 1fa3 9b3c 4cd8 31bd 66f7 bc3d f41b acbb
00000370: 22ec b5bd 5aa2 ae3c 5a76 813d d56a 11bc
00000380: 02c8 c23d 434a 0a3c 389a 983c 6840 b93d
00000390: 0b99 aabd ab49 1dbd eeaf a23d 9f62 b0bd
000003a0: 25ce 6c3c 7fec 41bd 7dd0 683c c234 fabc
000003b0: 86f2 9e3d 9125 bbbd d46c 7c3a 29ab 9d3d
000003c0: 3ed8 17bd 6f89 f9bc b453 31bd 275d adbd
000003d0: 8063 b3bd 836b 46bd 48c5 013d c1d3 833d
000003e0: cd2a 7d3c 7026 ac3d ed0b c93b 2e88 e9bc
000003f0: c6d3 5c3d b16a a73d b362 9f3d f3a0 103c

bias f4 [100]
0.018394828 -0.0010367428 -0.08192832 -0.043512154 0.027485322 0.00690851 -0.039561346 0.012839113
-0.06078525 0.0229488 -0.00807736 -0.071307234 -0.07977281 -0.09530114 -0.00020331678 -0.013963025
0.023421807 -0.0059819845 0.021194527 0.0017596402 0.0027902455 -0.03636679 0.029348077 -0.03337884
0.02329365 -0.07243178 -0.09352253 0.0018684652 0.02683251 0.0021149968 -0.08564936 -0.10533753
-0.081097715 -0.0118210595 0.00078186253 -0.06541779 -0.062407114 0.0012566862 -0.00017058801 0.00081804564
0.0012247008 0.0008211589 0.00027875512 -0.10289601 -0.0794681 -0.09565723 -0.015496987 -0.0047652647
0.0007718643 -4.7525277e-06 -8.497936e-06 -0.080561355 -0.026992178 -0.00437921 -0.08591886 -0.0072886287
5.3477193e-05 -0.083869696 -0.08163364 -0.041504506 5.7253183e-06 -1.8241079e-05 -0.043244585 0.00070712186
0.00020513604 5.014827e-05 -0.0017511338 -0.05113994 -0.057559863 -0.027096724 -0.07095039 -0.014491922
-0.089839704 -0.06905274 -4.2125394e-06 -0.026362015 0.00012607567 -0.0464057 -0.09355542 -4.2241514e-05
-0.04975666 -0.062623546 -0.038364533 -7.2559264e-06 0.020162128 -0.027008962 -3.4971608e-06 -0.08181247
0.00020733938 -5.7585723e-05 -0.062584214 0.00012833436 -3.153575e-05 0.000109347944 -0.0740775 -1.9096153e-05
-0.057580225 -0.07959357 -0.06802733 0.04179556
00000000: c0b0 963c 51e3 87ba 09ca a7bd cd39 32bd
00000010: e628 e13c c860 e23b 140b 22bd 255b 523c
00000020: f4f9 78bd 1fff bb3c e756 04bc 8709 92bd
00000030: ed5f a3bd 3e2d c3bd 6f31 55b9 2cc5 64bc
00000040: 17df bf3c 8604 c4bb 25a0 ad3c baa3 e63a
00000050: 8ddc 363b 58f5 14bd 616b f03c 40b8 08bd
00000060: 53d2 be3c 1d57 94bd bd88 bfbd 4ae7 f43a
00000070: dacf db3c c29b 0a3b ef68 afbd 34bb d7bd
00000080: 8f16 a6bd 1ead 41bc e8f5 4c3a c3f9 85bd
00000090: 9a9e 7fbd 64b7 a43a dfdf 32b9 1d72 563a
000000a0: 2486 a03a 0a43 573a e125 9239 25bb d2bd
000000b0: 2cc0 a2bd f0e7 c3bd 13e7 7dbc f025 9cbb
000000c0: f056 4a3a e777 9fb6 5b92 0eb7 5afd a4bd
000000d0: b31e ddbc 7a7f 8fbb 3af6 afbd 73d5 eebb
000000e0: b34c 6038 e0c3 abbd 8a2f a7bd a100 2abd
000000f0: 1c1c c036 6b04 99b7 3c21 31bd 255e 393a
00000100: c919 5739 4b56 5238 4d86 e5ba 1d78 51bd
00000110: e4c3 6bbd f3f9 ddbc 704e 91bd 876f 6dbc
00000120: e1fd b7bd 866b 8dbd 7059 8db6 27f5 d7bc
00000130: 2e33 0439 e713 3ebd fc99 bfbd 7b2c 31b8
00000140: a4cd 4bbd c640 80bd 2124 1dbd ef77 f3b6
00000150: 0c2b a53c e641 ddbc c4b0 6ab6 4c8d a7bd
00000160: 3e69 5939 3388 71b8 272c 80bd 7e91 0639
00000170: 4145 04b8 bb51 e538 f2b5 97bd ad30 a0b7
00000180: 3ed9 6bbd f401 a3bd ea51 8bbd d231 2b3d

weight f4 [300]
0.7042752 1.0897899 1.0839663 0.75757575 1.0716914 1.0281644 0.7424911 0.9981215
1.0940777 0.7801254 1.0482922 1.0988829 0.72099656 1.0860155 1.0714942 0.7344771
1.0254915 1.1355939 0.78844076 1.0433772 1.0775932 0.72563076 1.0774466 1.0894575
0.7704174 1.0336838 1.0487684 0.72089547 1.0432338 1.0989621 0.83389515 0.9918283
1.1542873 0.7979388 0.98599917 1.0967317 0.8072081 0.99120057 1.0843183 0.81952757
0.9971568 1.0569136 0.8026894 0.99667853 1.1086205 0.79246736 0.94321406 1.0549769
0.8999999 1.0044577 1.1730049 0.83070296 0.9692026 1.0901259 0.778776 1.0332896
1.0901595 0.90296227 0.9650277 1.2095933 0.7762101 0.98085415 1.0436227 0.93779755
1.0207474 1.291369 0.76141304 0.98857754 1.0344414 0.79562485 0.93885046 1.028122
0.7502948 0.9991848 1.0505342 0.86587423 0.95581317 1.0523611 0.88518846 0.97893816
1.0673332 0.8049254 1.0336292 1.0619949 0.7882371 1.0023843 0.9682424 0.90863216
1.0140204 1.2372794 0.87224483 0.92071444 1.0848963 0.8129545 0.8868139 1.0073061
0.8613408 0.92131305 1.043501 1.0068271 1.0178198 1.1962838 0.8612897 1.0216124
1.100702 0.8589284 0.94223666 1.0350844 0.9616169 1.0198299 1.2093371 0.8576194
1.0127658 1.0986112 0.96799487 0.9204616 1.1100683 0.84961694 0.9630643 1.0062355
0.8351407 0.9417774 1.0538456 0.83934003 0.9698855 1.0510509 0.87677455 1.0099132
1.1379809 0.9313054 0.9993011 1.2254043 0.84835845 0.87363887 0.9616358 0.87472016
0.93040675 1.0538269 0.8655531 0.88692427 1.0203955 0.8760798 0.8941403 1.0278201
0.81980073 0.96335816 1.0409695 0.88099307 0.87247115 1.0542774 0.87243766 0.7851283
0.9126096 0.88596874 0.8881483 1.0153635 0.82557833 0.9519224 1.0126183 0.8908589
0.8945069 1.0064989 0.880791 0.9935437 1.1242981 1.0176216 1.0306597 1.1466218
0.8685505 0.92184055 1.0374352 0.92209953 0.88225895 1.0678612 0.8901465 0.86990523
1.0002828 0.9155186 0.8643661 1.0320345 0.8956832 0.9049524 0.9941416 0.87669563
0.88417643 1.0092335 0.9232789 0.91405493 1.0663303 0.8821286 0.9992595 1.0946794
0.8648184 0.90505826 0.9775624 0.90484256 0.7744307 0.9901285 0.87131476 0.8275341
0.9578675 1.0004236 1.0461444 1.1254115 0.88870376 0.82508886 0.9974603 0.8919216
0.8362336 1.004594 0.9387907 0.8926344 1.0623977 0.9086321 0.8647727 1.0053809
0.9310286 0.85531497 1.052962 0.901294 0.8367493 1.0087699 0.9059669 0.8997558
1.0310513 0.8779379 0.9687443 1.1370031 0.88869214 0.8828831 1.0329328 0.8992642
0.86409956 1.0177996 0.96895635 1.0743304 1.2328699 0.879131 0.8073606 1.026681
0.9304108 1.0118328 1.1582245 0.91007 0.76900506 1.0075732 0.91882604 0.7857729
0.97555095 0.9172888 0.8318315 1.0092854 0.93124604 0.7494406 0.9594997 0.9216003
00000000: 614b 343f 3c7e 8b3f 68bf 8a3f 7cf0 413f
00000010: 2f2d 893f e49a 833f e613 3e3f e484 7f3f
00000020: bd0a 8c3f 4cb6 473f 702e 863f 32a8 8c3f
00000030: 3b93 383f 8e02 8b3f b926 893f b106 3c3f
00000040: 4e43 833f 245b 913f 41d7 493f 628d 853f
00000050: 93ee 893f f0c2 393f c5e9 893f 5873 8b3f
00000060: 133a 453f c04f 843f 0b3e 863f 9b8c 383f
00000070: af88 853f caaa 8c3f 277a 553f 76e8 7d3f
00000080: b0bf 933f b845 4c3f 716a 7c3f b461 8c3f
00000090: 31a5 4e3f 52bf 7d3f f1ca 8a3f 8fcc 513f
000000a0: ab45 7f3f f248 873f 0d7d 4d3f 5326 7f3f
000000b0: 47e7 8d3f 24df 4a3f 7a76 713f 7c09 873f
000000c0: 6566 663f 1292 803f 0625 963f f3a8 543f
000000d0: a91d 783f 3f89 8b3f dd5d 473f d542 843f
000000e0: 598a 8b3f 8928 673f 0e0c 773f f4d3 9a3f
000000f0: b5b5 463f 4219 7b3f 6e95 853f 8013 703f
00000100: daa7 823f 944b a53f f7eb 423f 6b13 7d3f
00000110: 9368 843f 12ae 4b3f 8158 703f 8099 833f
00000120: 5213 403f 93ca 7f3f e877 863f efa9 5d3f
00000130: 2cb0 743f c5b3 863f b69b 623f b19b 7a3f
00000140: 609e 883f 970f 4e3f f64d 843f 73ef 873f
00000150: e8c9 493f 214e 803f bcde 773f 1e9c 683f
00000160: 6ccb 813f 2c5f 9e3f 704b 5f3f f1b3 6b3f
00000170: e2dd 8a3f c91d 503f 3c06 633f 68ef 803f
00000180: d580 5c3f 2cdb 6b3f 7191 853f b6df 803f
00000190: eb47 823f d41f 993f 7b7d 5c3f 32c4 823f
000001a0: cee3 8c3f bbe2 5b3f 6c36 713f a57d 843f
000001b0: 862c 763f c989 823f 8fcb 9a3f f28c 5b3f
000001c0: 4fa2 813f 4b9f 8c3f 83ce 773f 5fa3 6b3f
000001d0: b816 8e3f 7f80 593f 628b 763f 53cc 803f
000001e0: c8cb 553f 5318 713f 6ae4 863f fdde 563f
000001f0: 6b4a 783f d688 863f 4c74 603f d644 813f
00000200: 5ca9 913f 086a 6e3f 32d2 7f3f 0cda 9c3f
00000210: 052e 593f cca6 5f3f c42d 763f a9ed 5f3f
00000220: 232f 6e3f cde3 863f e394 5d3f 780d 633f
00000230: 529c 823f c446 603f 61e6 643f 9c8f 833f
00000240: 76de 513f a49e 763f 7d3e 853f c388 613f
00000250: 455a 5f3f 90f2 863f 1358 5f3f 2bfe 483f
00000260: c8a0 693f d9ce 623f b05d 633f 6ef7 813f
00000270: 1a59 533f 30b1 733f 7a9d 813f 540f 643f
00000280: 67fe 643f f5d4 803f 857b 613f e158 7e3f
00000290: 00e9 8f3f 6d41 823f a8ec 833f 81c4 923f
000002a0: 5359 5e3f befd 6b3f adca 843f b70e 6c3f
000002b0: b9db 613f adaf 883f a4e0 633f 1cb2 5e3f
000002c0: 4409 803f 6d5f 6a3f 1947 5d3f b519 843f
000002d0: 7f4b 653f f6aa 673f 1080 7e3f 206f 603f
000002e0: 6359 623f 902e 813f 025c 6c3f 81ff 693f
000002f0: 837d 883f 2ed3 613f 78cf 7f3f 741e 8c3f
00000300: bd64 5d3f e6b1 673f 8841 7a3f c3a3 673f
00000310: 1741 463f 1079 7d3f 7c0e 5f3f 46d9 533f
00000320: ce36 753f e10d 803f 0fe8 853f 7c0d 903f
00000330: 1782 633f 0639 533f 8f59 7f3f f954 643f
00000340: 6813 563f 8996 803f 9654 703f b083 643f
00000350: a6fc 873f 1d9c 683f be61 5d3f 52b0 803f
00000360: e457 6e3f ecf5 5a3f 75c7 863f 34bb 663f
00000370: 3435 563f 5f1f 813f 72ed 673f 6556 663f
00000380: 7df9 833f 8ac0 603f a0ff 773f 5189 913f
00000390: 5481 633f a004 623f 2437 843f 2e36 663f
000003a0: a135 5d3f 4247 823f 860d 783f a983 893f
000003b0: aece 9d3f bb0e 613f 2faf 4e3f 486a 833f
000003c0: 672f 6e3f bd83 813f b340 943f 59fa 683f
000003d0: 84dd 443f 29f8 803f 2f38 6b3f 6a28 493f
000003e0: b5bd 793f 70d3 6a3f e9f2 543f 4430 813f
000003f0: 2466 6e3f 57db 3f3f c6a1 753f ffed 6b3f

bias f4 [300]
-0.17724109 -0.22227202 0.06633809 -0.11742898 -0.15658472 0.020313464 -0.13141045 -0.18035708
0.047969896 -0.103281826 -0.14744854 0.063166134 -0.14890766 -0.19823042 0.044542424 -0.14106439
-0.20217267 0.07450261 -0.09563527 -0.15345328 0.031631354 -0.14419091 -0.17836228 0.06191132
-0.12203414 -0.120247826 0.034099247 -0.15182719 -0.1850921 0.06267612 -0.08832104 -0.17940624
0.06702811 -0.11021394 -0.12800363 0.047944758 -0.10644892 -0.097722344 0.045667127 -0.09973001
-0.08523917 0.022591533 -0.11672512 -0.089389 0.058893587 -0.014027455 -0.1741204 0.012426862
-0.00831989 -0.1776446 0.014041689 -0.097316414 -0.06738638 0.036233053 -0.123758465 -0.097783424
0.061784506 -0.030125026 -0.03968747 0.047180645 -0.09146563 -0.15098634 0.009554513 -0.0635472
-0.083338186 0.05485143 -0.094127245 -0.10385034 0.01719328 -0.12227335 -0.03742397 0.007844317
-0.09976692 -0.12040208 0.039529085 -0.068641156 -0.035522602 0.006515882 -0.05594883 -0.007148964
0.027856171 -0.09307554 -0.1041893 0.029439153 -0.11732771 -0.032322895 -0.027927386 -0.057726122
-0.11970897 0.044287927 -0.08124426 0.0052231383 0.028654207 -0.12297424 -0.021425087 -0.003016672
-0.087364554 0.014965839 0.010268142 -0.046701834 -0.07096072 0.057217617 -0.041221816 -0.06605176
0.04891242 -0.08224325 0.027452294 0.0014496663 -0.05947106 -0.06558369 0.05152753 -0.04719271
-0.04791487 0.036199015 0.04634897 -0.122905605 -0.03095039 -0.08374517 -0.02051424 -0.01831801
-0.09320445 -0.054936595 0.029271305 -0.088724 -0.048773438 0.027405815 0.0005266308 0.025266116
0.010413267 -0.02856751 -0.0036593215 0.028569633 -0.08449917 0.018630598 -0.039585635 -0.08089974
0.04893878 0.027033871 -0.078030854 0.043876912 -0.0038426798 -0.06730703 0.034833573 0.002038166
-0.0067791287 -0.05723361 0.006436794 -0.07182323 0.0744176 0.021083122 -0.057065386 0.08350548
-0.08140118 -0.06543292 0.047658782 -0.007509552 -0.040330026 0.041298553 0.0036124035 -0.067161344
0.056765318 -0.007962884 -0.009929097 0.02234311 0.05748359 0.0012886786 -0.046943873 0.04689515
-0.07597878 -0.00911545 0.0017833204 -0.04937985 0.063146815 0.012745946 -0.08221022 0.06710498
-0.009876878 -0.05575342 0.064396665 0.0073965997 -0.058257908 -0.015739711 -0.025200546 -0.08619019
-0.0006006744 0.0009090607 -0.049681593 0.088897526 0.020332344 -0.015148896 0.03880052 0.026384197
-0.08591247 -0.01642962 -0.026463056 -0.064863674 0.09012812 -0.016072527 -0.07090406 0.103559025
-0.037349775 -0.06460902 -0.038827173 0.05933151 -0.07346275 0.07461682 -0.0028310171 -0.07340425
0.0727248 -0.0039443825 -0.038105026 0.100756265 0.025613382 -0.059415266 0.0963309 -0.013925218
-0.044115614 0.098951295 0.003483101 -0.086328045 0.093755536 0.0022452192 -0.060197387 -0.014349347
0.00575774 -0.01777316 0.06993457 -0.0072349887 -0.0830054 -0.011420932 0.013828612 -0.053414468
0.13280636 -0.0009676967 -0.10256138 -0.032109037 0.06800477 -0.06371445 0.12667753 -0.0052384003
-0.029844332 0.10103036 0.056931186 -0.07031373 0.14355585 0.0032453153 -0.032940842 0.16797553
-0.02943841 -0.07369153 0.0018155597 0.0039501037 -0.05062242 0.189865 -0.03824178 -0.048209768
00000000: b07e 35be 479b 63be 44dc 873d 9b7e f0bd
00000010: bf57 20be 6c68 a63c 7690 06be 87af 38be
00000020: 157c 443d 6c85 d3bd c0fc 16be 3f5d 813d
00000030: 407b 18be eafc 4abe 1e72 363d 2f73 10be
00000040: 5a06 4fbe d394 983d 6ddc c3bd db22 1dbe
00000050: e18f 013d c8a6 13be 9aa4 36be b996 7d3d
00000060: 09ed f9bd 7e44 f6bd a7ab 0b3d 9678 1bbe
00000070: c988 3dbe 565c 803d a9e1 b4bd 45b6 37be
00000080: 0946 893d d9b7 e1bd 6213 03be b961 443d
00000090: e401 dabd a722 c8bd 740d 3b3d 3f3f ccbd
000000a0: e091 aebd e111 b93c 940d efbd 9411 b7bd
000000b0: 673a 713d 69d3 65bc 9e4c 32be 099a 4b3c
000000c0: 2650 08bc 77e8 35be 1d0f 663c d44d c7bd
000000d0: df01 8abd 1c69 143d 1475 fdbd ad42 c8bd
000000e0: c011 7d3d c2c8 f6bc 548f 22bd 7e40 413d
000000f0: 5552 bbbd 2a9c 1abe 888a 1c3c 0925 82bd
00000100: 36ad aabd e5ab 603d c9c5 c0bd 7daf d4bd
00000110: ecd8 8c3c 736a fabd e049 19bd 7385 003c
00000120: 9952 ccbd 5e95 f6bd 40e9 213d bc93 8cbd
00000130: 2680 11bd 2e83 d53b 9a2a 65bd db41 eabb
00000140: a032 e43c 649e bebd 3361 d5bd 612a f13c
00000150: 8349 f0bd 0365 04bd f9c7 e4bc 3a72 6cbd
00000160: fa29 f5bd 4267 353d 6463 a6bd dc26 ab3b
00000170: 3abc ea3c ebd9 fbbd aa83 afbc 5cb3 45bb
00000180: 30ec b2bd 4733 753c b63b 283c 6c4a 3fbd
00000190: db53 91bd 055d 6a3d 35d8 28bd 2546 87bd
000001a0: 6458 483d 266f a8bd a2e3 e03c bb02 be3a
000001b0: ed97 73bd be50 86bd 880e 533d 254d 41bd
000001c0: 6242 44bd 6b45 143d 6bd8 3d3d efb5 fbbd
000001d0: ac8b fdbc 9682 abbd 7b0d a8bc a70f 96bc
000001e0: fae1 bebd 3205 61bd 60ca ef3c eeb4 b5bd
000001f0: a8c6 47bd 2982 e03c 980d 0a3a e3fa ce3c
00000200: 689c 2a3c 6906 eabc 3ad1 6fbb dd0a ea3c
00000210: e70d adbd 329f 983c 8c24 22bd c3ae a5bd
00000220: 0874 483d 2376 dd3c a4ce 9fbd 47b8 333d
00000230: 78d5 7bbb 45d8 89bd a6ad 0e3d c092 053b
00000240: 7423 debb ca6d 6abd beeb d23b 0f18 93bd
00000250: 4168 983d 83b6 ac3c 65bd 69bd ec04 ab3d
00000260: a9b5 a6bd b201 86bd db35 433d b012 f6bb
00000270: 1931 25bd ac28 293d 13be 6c3b e38b 89bd
00000280: c082 683d c276 02bc a7ad 22bc e608 b73c
00000290: ea73 6b3d e1e8 a83a 3848 40bd 2115 403d
000002a0: c39a 9bbd f858 15bc 4ebe e93a 8742 4abd
000002b0: 1e53 813d 5fd4 503c d55d a8bd 566e 893d
000002c0: a1d2 21bc b35d 64bd 66e2 833d 2d5f f23b
000002d0: d89f 6ebd 91f0 80bc 6071 cebc 7b84 b0bd
000002e0: 9476 1dba 084e 6e3a ed7e 4bbd e80f b63d
000002f0: 0490 a63c 1333 78bc 4bed 1e3d ac23 d83c
00000300: e1f2 afbd 6997 86bc 0dc9 d8bc 3fd7 84bd
00000310: 1795 b83d 88aa 83bc 2636 91bd c116 d43d
00000320: 14fc 18bd bc51 84bd 3e09 1fbd 9905 733d
00000330: a373 96bd b4d0 983d 9688 39bb f854 96bd
00000340: bdf0 943d e13f 81bb 0414 1cbd 4d59 ce3d
00000350: 28d3 d13c 6c5d 73bd 2349 c53d 9926 64bc
00000360: 93b2 34bd faa6 ca3d bd44 643b c2cc b0bd
00000370: e702 c03d 8724 133b 8991 76bd 8619 6bbc
00000380: 6cab bc3b 0599 91bc db39 8f3d 7c13 edbb
00000390: bcfe a9bd dc1e 3bbc 6791 623c 21c9 5abd
000003a0: 64fe 073e 07ad 7dba b30b d2bd c484 03bd
000003b0: 1646 8b3d b97c 82bd c1b7 013e e3a6 abbb
000003c0: 1a7c f4bc 01e9 ce3d ad30 693d a500 90bd
000003d0: 4e00 133e 5baf 543b faec 06bd c701 2c3e
000003e0: d228 f1bc 96eb 96bd 13f8 ed3a df6f 813b
000003f0: 7459 4fbd f86b 423e 6aa3 1cbd 9b77 45bd
